p1_navigation/saved_weights.pth (torch_old, 28417 bytes, 6 tensors)

fc1.weight f4 [64, 37]
0	0x3d926a3f	0.07149171
1	0xbe2ec2f5	-0.17066558
2	0x3cee2354	0.02906958
3	0x3e0e7519	0.13911857
4	0xbdafb42e	-0.085792884
5	0x3dda6851	0.10664428
6	0x3dec55f5	0.115398325
7	0xbd02bda6	-0.031919144
8	0xbe00dd96	-0.12584528
9	0xbebe19fd	-0.37129202
10	0xbc150f78	-0.009097926
11	0x3ccdc463	0.025118059
12	0x3d7ae411	0.061252657
13	0x3ddae029	0.106872864
14	0x3dba0ebe	0.09084843
15	0xbdf9a77b	-0.121901475
16	0x3e2b44d2	0.16725472
17	0xbcd54cbb	-0.026037565
18	0x3e23cfed	0.15997286
19	0x3e298a8c	0.16556758
20	0x3e0c446e	0.13697979
21	0xbe741c79	-0.23838986
22	0xbe45c59c	-0.19313663
23	0xbe2e01fb	-0.16992943
24	0xbf07c6a1	-0.5303746
25	0xbdb6f8e3	-0.0893419
26	0x3d378008	0.044799834
27	0x3e1dd4bc	0.15413183
28	0xbdd4447c	-0.10364625
29	0xbdbb8daa	-0.0915788
30	0x3e0d0d63	0.13774638
31	0x3e235c04	0.1595307
32	0xbc90efc1	-0.017692449
33	0xbe2697de	-0.1626887
34	0xbf1bad85	-0.60811645
35	0x3b5a0230	0.0033265464
36	0x3c93b50c	0.018030666
37	0x3bcb38a1	0.006201819
38	0x3d7367b5	0.059425075
39	0x3d596d60	0.053082824
40	0x3ccfe510	0.02537778
41	0x3af65d69	0.0018796149
42	0x3f065641	0.52475363
43	0xbf23bb58	-0.6395774
44	0xbf08cb44	-0.5343516
45	0xbf0d0d13	-0.55098075
46	0xc010e70b	-2.2641017
47	0x3cc9448e	0.024568822
48	0x3d9be48e	0.07611953
49	0x3d9d0bfe	0.07668303
50	0x3d1b758b	0.037953895
51	0xbc939d8c	-0.01801946
52	0x3e18f30f	0.1493647
53	0x3e01cb96	0.12675318
54	0x3e11d2ee	0.1424062
55	0x3e22ea35	0.15909655
56	0x3d76615f	0.060151454
57	0x3d6a390f	0.05718332
58	0x3d6ca628	0.057775646
59	0x3d396dfa	0.045270897
60	0x3d575248	0.052568704
61	0x3c8d81fb	0.017273894
62	0x3df18610	0.117931485
63	0x3e0a9f97	0.13537441
64	0x3dba16e4	0.09086397
65	0x3deae459	0.11469335
66	0xbc1058a4	-0.008810196
67	0x3d3e4cb1	0.046459857
68	0x3d945faa	0.07244809
69	0x3d16ded2	0.03683359
70	0x3dac52ed	0.08414254
71	0xb8d8bad5	-0.00010334483
72	0xbc198a15	-0.0093713
73	0x3abf3e7f	0.0014590769
74	0xbce68262	-0.028138343
75	0x3db7a904	0.08967784
76	0x3dab6cc8	0.08370358
77	0x3d685a60	0.056726813
78	0xbd0b20ed	-0.033966947
79	0x3e894ba4	0.26815522
80	0xbdf30723	-0.118665956
81	0xbea353a6	-0.31899756
82	0xbe3b7cec	-0.18309373
83	0xbf5d6783	-0.8648607
84	0x3c8bfddd	0.017088825
85	0xbd1ed489	-0.038776908
86	0xbd5037d9	-0.05083451
87	0x3daf059d	0.085459925
88	0x3e67a26b	0.22620551
89	0xbb603c31	-0.0034215564
90	0x3db8a34c	0.090155214
91	0x3d6ff1d6	0.058580242
92	0x3df830a4	0.121186525
93	0x38970fa0	7.2031515e-05
94	0xbdb9e5c5	-0.09077028
95	0xbdf3a46e	-0.11896597
96	0xbd010f3f	-0.03150868
97	0x3e01dbba	0.12681475
98	0x3e906737	0.28203747
99	0xbc25af6c	-0.010112625
100	0x3db59cb8	0.08867782
101	0x3e01e1a4	0.12683731
102	0x3d0d44ac	0.03448932
103	0x3da3829b	0.079838954
104	0xbe25fe71	-0.16210343
105	0xbd9d4f79	-0.07681174
106	0x3e0ad43d	0.13557525
107	0x3e1589e0	0.14603376
108	0x3e52a823	0.20571952
109	0xbc216a74	-0.009852041
110	0x3c32695b	0.0108893765
111	0xbc7d6c40	-0.015467703
112	0x3de9c6be	0.1141486
113	0x3d7a3245	0.061083097
114	0x3dfc78cc	0.12327728
115	0x3e5493e9	0.20759548
116	0x3e646a8b	0.22306268
117	0x3cb5fab1	0.022214266
118	0xbe754329	-0.23951401
119	0x3db05c71	0.08611382
120	0xbe1c1bd9	-0.15244998
121	0x3d37121f	0.044695016
122	0x3de37fea	0.11108382
123	0x3d66d5e4	0.056356326
124	0x3ce4d4ad	0.027933443
125	0xbc93ccae	-0.018041935
126	0xbe7fd97f	-0.24985312
127	0xbc92e1aa	-0.01792987
128	0x3dfb7e5c	0.122799605
129	0x3e773c58	0.24144113
130	0xbc7a0619	-0.015260243
131	0x3e138d39	0.14409341
132	0x3d723e3e	0.05914139
133	0x3e11ef2a	0.1425139
134	0x3de54934	0.11195603
135	0xbd128ea5	-0.035780568
136	0x3e2ece0c	0.17070788
137	0x3cd0400a	0.025421161
138	0xbd97c01d	-0.074096896
139	0xbe521b99	-0.2051834
140	0xbe7fea8c	-0.24991816
141	0xbc22c9dc	-0.009935822
142	0xbda058dc	-0.078294486
143	0x3d9a60e3	0.07538011
144	0x3d89a885	0.06721596
145	0xbe055f9b	-0.13024752
146	0x3df08c31	0.117454894
147	0x3c06a29f	0.008217483
148	0x3ec65737	0.38738415
149	0xbd60c2ed	-0.054873396
150	0xbe5a5e6f	-0.21325086
151	0xbcdf24eb	-0.027239284
152	0xbf902d69	-1.1263858
153	0x3dbe2d14	0.09285942
154	0xbe9f20b2	-0.31079632
155	0xbd5d10f9	-0.053971265
156	0xbe1695fb	-0.1470565
157	0xbe449278	-0.19196498
158	0x3dce80ba	0.100831464
159	0xbd7ced15	-0.061749537
160	0x3d7183fe	0.05896377
161	0xbcd15e70	-0.025557727
162	0xbcf6d8d9	-0.030132698
163	0xbd4fba7f	-0.050714966
164	0x3da1e848	0.07905632
165	0x3da1078f	0.0786277
166	0x3db76b68	0.08956033
167	0x3d888938	0.066667974
168	0xbd18cdb6	-0.037305556
169	0xbcbd57e0	-0.023113191
170	0xbd14f195	-0.036363203
171	0xbd2e6e44	-0.042585626
172	0xbd8a4143	-0.06750729
173	0x3cf88c42	0.030340318
174	0x3e28639d	0.1644425
175	0x3e567900	0.20944595
176	0x3e0a31e2	0.13495591
177	0x3df754dc	0.120767325
178	0xbde7ec3d	-0.11324356
179	0x3e0a0b08	0.1348077
180	0x3d217c2a	0.039425053
181	0xbd3b5661	-0.045736674
182	0xbdd1fde6	-0.102535054
183	0xbc007d65	-0.007842396
184	0xbbf2913b	-0.0074025667
185	0x3e749b2f	0.23887323
186	0xbe4da6d4	-0.20083171
187	0xbd9fc06d	-0.07800374
188	0xbe6f17e3	-0.23348956
189	0xbf4b12cd	-0.7932556
190	0x3cd0494f	0.025425581
191	0xbd615bae	-0.055019073
192	0x3cafcc1d	0.021459633
193	0x3d045052	0.032303162
194	0xbccf4ad3	-0.025304234
195	0x3c340af9	0.010988944
196	0x3df665cc	0.12031135
197	0x3d557bed	0.052120138
198	0x3dff7afc	0.12474629
199	0xbad4bb73	-0.0016230181
200	0xbceb769e	-0.028743085
201	0xbccd29ec	-0.025044404
202	0x3d84f3bd	0.06491802
203	0x3d7940e7	0.06085291
204	0xbc80ffb2	-0.015746925
205	0xbd095351	-0.033526722
206	0x3cb48414	0.022035636
207	0x3cd6bef3	0.026214099
208	0x3e0a303a	0.1349496
209	0x3e2d70f1	0.16937615
210	0x3cec8c37	0.028875453
211	0x3d85c929	0.06532509
212	0xbd72ae7b	-0.05924843
213	0x3d6f0d84	0.0583625
214	0x3d8836af	0.06651055
215	0x3e49818d	0.19678326
216	0x3be4ea8d	0.0069859684
217	0xbd7f2dcf	-0.062299546
218	0x3c7e872f	0.01553516
219	0xbd778582	-0.060430057
220	0xbdd90dec	-0.105983585
221	0x3bd414a7	0.0064721885
222	0xbd9cb7fe	-0.07652281
223	0xbdbaffb8	-0.09130806
224	0xbd6cbd73	-0.05779786
225	0xbd2b56f3	-0.041830968
226	0x3c9496ce	0.018138316
227	0x3dcd4f5f	0.100249045
228	0x3e09aac4	0.13444048
229	0x3e206108	0.15662014
230	0x3e01707f	0.1264057
231	0x3bcd27d8	0.0062608533
232	0x3cdd34db	0.027002743
233	0x3d456754	0.048194245
234	0x3d91501e	0.07095359
235	0x3e0b7a7f	0.13620947
236	0x3d54e3aa	0.05197493
237	0x3a1bfac9	0.00059501507
238	0x3d041014	0.032241896
239	0xbbbeb9fb	-0.0058205104
240	0x3cadc1b2	0.021210525
241	0x3c9c5fd5	0.019088665
242	0x3ea6b416	0.3255927
243	0xbed5b68b	-0.41740832
244	0xbed5b0f9	-0.41736582
245	0xbee2999b	-0.44257817
246	0xc0020ec0	-2.0321503
247	0xbcfa62c8	-0.03056468
248	0xbcb8c354	-0.022554077
249	0x3cf077ef	0.029354064
250	0x3dd5495b	0.10414382
251	0x3db76785	0.08955292
252	0xbc5e9043	-0.013584199
253	0x3d13e15d	0.036103595
254	0x3d2b7efc	0.04186915
255	0x3d9686e3	0.07349946

fc1.bias f4 [64]
0	0x3e1cd880	0.15316963
1	0x3d08bad6	0.033381306
2	0xbe087d25	-0.13328989
3	0x3bf8b453	0.0075898557
4	0x3e214a1c	0.15750927
5	0x3cf4fceb	0.029905757
6	0x3d02c053	0.031921696
7	0xbca3c911	-0.019993337
8	0x3c004f13	0.007831353
9	0x3dcb7615	0.09934632
10	0x3e071fe3	0.13195758
11	0xbe14bbd9	-0.14524783
12	0xbe1e14c8	-0.15437615
13	0xbdad181b	-0.084518634
14	0xbd0cc880	-0.0343709
15	0x3d497f7a	0.049193837
16	0x3dd5c889	0.1043864
17	0xbe4268d9	-0.18985309
18	0x3e29f7bd	0.16598411
19	0xbdacc801	-0.08436585
20	0x3d0b8f4e	0.034072213
21	0x3d3c2781	0.04593611
22	0x3db77200	0.08957291
23	0xbd24ac78	-0.04020354
24	0xbe106934	-0.14102632
25	0xbd16ca2c	-0.0368139
26	0x3d51b5a3	0.051198613
27	0xbdbd8d3c	-0.09255454
28	0xbae3b8d0	-0.0017373804
29	0xbd9ad4a8	-0.07560092
30	0xbe5620f1	-0.20911004
31	0x3dc0028f	0.09375488
32	0xbd59ebe5	-0.053203482
33	0x3d98bb54	0.07457605
34	0x3e261a1d	0.16220899
35	0x3df1562f	0.11784016
36	0x3d6765ba	0.0564935
37	0xbe56589a	-0.20932236
38	0xbe085b26	-0.1331602
39	0x3d8ffe29	0.07030899
40	0x3c6f6708	0.014611967
41	0xbe217583	-0.15767483
42	0x3e15cbdf	0.14628552
43	0xbc3c7bd2	-0.01150413
44	0xbde873af	-0.1135019
45	0x3e2df108	0.16986477
46	0x3e458ed1	0.19292761
47	0xbc3eda89	-0.0116487825
48	0xbd4872ca	-0.048937596
49	0xbbca7c65	-0.0061793798
50	0xbe6d4bdc	-0.2317347
51	0x3d948b51	0.07253135
52	0x3da16fc9	0.078826495
53	0xbc8ea4f4	-0.01741264
54	0xbe3c745d	-0.18403764
55	0x3d904157	0.070437126
56	0xbd74adde	-0.059736125
57	0xbde33a78	-0.110951364
58	0x3db6e729	0.08930809
59	0xbd83bcdd	-0.06432507
60	0x3e01249c	0.12611622
61	0x3de8b928	0.11363441
62	0xbd63a45a	-0.05557666
63	0x3cc57896	0.024105351

fc2.weight f4 [64, 64]
0	0x3d403ccf	0.04693299
1	0xbdca9644	-0.09891942
2	0xbd1bb3ec	-0.038013384
3	0xbcadd67b	-0.021220436
4	0x3da4ded7	0.08050316
5	0x3bebb2e8	0.007192958
6	0xbe939028	-0.2882092
7	0xbd8e021b	-0.06933995
8	0xbe04667f	-0.12929724
9	0x3ee14718	0.43999553
10	0x3b5e5161	0.0033923017
11	0x3d6f496e	0.058419637
12	0x3a81a7fd	0.0009891983
13	0x3eb90be3	0.3614188
14	0x3e2efc31	0.17088391
15	0xbea14e02	-0.31504828
16	0xbea167ca	-0.31524497
17	0xbe124774	-0.1428507
18	0x3dacc146	0.084353015
19	0xbdf968ba	-0.12178178
20	0x3de75cb0	0.112969756
21	0x3dcd94bf	0.10038137
22	0xbef2eba5	-0.47445408
23	0x3d7a75ba	0.06114743
24	0x3d4c5721	0.04988778
25	0x3e0ccd85	0.13750274
26	0x3e05d7fa	0.1307067
27	0x3d88ddc2	0.06682922
28	0x3c6e7143	0.014553371
29	0xbd8d264f	-0.068920724
30	0x3cf2fce7	0.029661609
31	0x3deee3c7	0.11664539
32	0x3d731225	0.059343476
33	0x3bca4974	0.006173307
34	0xbb688ffd	-0.0035486214
35	0xbdf20183	-0.118166946
36	0x3d533356	0.05156263
37	0xbe36acf1	-0.1783941
38	0xbe80d7a9	-0.25164536
39	0xbe7e81e6	-0.2485424
40	0x3e01ad35	0.1266373
41	0xbd21366b	-0.039358538
42	0xbdde9d32	-0.108698264
43	0x3cb26afe	0.021779533
44	0xbdb8582f	-0.09001195
45	0x3da11515	0.07865349
46	0xbe498336	-0.19678959
47	0xbe090753	-0.133817
48	0xbe940ce8	-0.28916097
49	0x3e2cfef2	0.16894129
50	0xbe290cbd	-0.16508766
51	0x3e3db709	0.18526854
52	0x3db454ca	0.08805235
53	0xbe894198	-0.26807857
54	0xbcd40b6c	-0.025884353
55	0x3d5aa227	0.053377297
56	0xbe1f1325	-0.15534647
57	0xbc3fd8a1	-0.011709363
58	0xbc97b3df	-0.018518386
59	0xbe141859	-0.14462413
60	0xbd84b7cd	-0.0648037
61	0xbdb6509a	-0.08902092
62	0x3e528558	0.20558679
63	0x3d8af982	0.06785871
64	0x3e494bef	0.19657873
65	0xbe9c1fb2	-0.30492932
66	0xbf0db47b	-0.55353516
67	0xbe1f0dc6	-0.15532598
68	0x3e87c960	0.26520824
69	0xbecca5a1	-0.39970115
70	0xbe36851e	-0.17824218
71	0xbf0768f2	-0.5289451
72	0xbdb0f5df	-0.08640646
73	0xbe643a08	-0.22287762
74	0xbde94ea9	-0.11391956
75	0x3e8cf3cb	0.2752975
76	0xbea24902	-0.31696326
77	0x3daf0847	0.08546501
78	0x3eaa1abe	0.33223528
79	0x3e0b9cb7	0.13634
80	0xbc1ca0bd	-0.009559807
81	0x3e744ea5	0.23858126
82	0xbe24b2a9	-0.16083778
83	0xbd6e0f03	-0.058119785
84	0x3e507c33	0.20359878
85	0xbe23c5b1	-0.15993382
86	0x3e79b4cb	0.24385373
87	0x3d87c3ef	0.06629168
88	0xbe1f4f6a	-0.15557638
89	0xbe583980	-0.21115685
90	0x3da43e42	0.08019687
91	0xbeeb3cca	-0.45944816
92	0xbed2279d	-0.41045848
93	0xbe4b7c6e	-0.19871685
94	0xbd5cae57	-0.0538772
95	0xbebf7d40	-0.37400246
96	0x3e22db54	0.1590398
97	0x3d20ede0	0.039289355
98	0xbe07ffe5	-0.1328121
99	0x3cb55cbe	0.02213895
100	0x3d08a763	0.033362757
101	0xbd38542f	-0.04500216
102	0xbd2de598	-0.042455286
103	0xbeb3e4eb	-0.35135588
104	0xbea27ac3	-0.31734285
105	0xbcd2764e	-0.025691178
106	0xbe180484	-0.14845473
107	0xbe75da83	-0.24009137
108	0xbee87ab4	-0.45406115
109	0xbb90c599	-0.0044180867
110	0xbcfc5841	-0.030803801
111	0xbe6191a1	-0.2202821
112	0x3e8f39c9	0.27973774
113	0xbd7629f6	-0.06009861
114	0xbeb0b3b7	-0.34512112
115	0x3e2ef1af	0.17084382
116	0x3e64787b	0.22311585
117	0xbe7ee894	-0.24893409
118	0x3e4b93d8	0.19880617
119	0xbe31a29b	-0.17347185
120	0xbdd7da89	-0.10539729
121	0x3e5f6266	0.2181488
122	0xbcb8e876	-0.022571784
123	0x3e917801	0.28411868
124	0xbe4d245a	-0.20033398
125	0x3c605fc5	0.013694708
126	0x3dc528dd	0.09626935
127	0x3dda3a44	0.106556445
128	0xbd04df03	-0.032439243
129	0xbca1cfe3	-0.019752448
130	0xbe9b0ab9	-0.30281618
131	0xbe8cf7b1	-0.27532724
132	0xbefd85b5	-0.49516073
133	0x3d6b8a39	0.057504866
134	0xbd26baed	-0.04070561
135	0x3cd3489d	0.02579146
136	0x3d5e9b26	0.05434718
137	0x3c7f3d00	0.015578508
138	0x3e104052	0.14087036
139	0xb9828a73	-0.00024898685
140	0xbdfe15fb	-0.12406536
141	0x3dde3105	0.108491935
142	0x3db4aea7	0.08822375
143	0xbe4e12ca	-0.20124355
144	0xbeae221e	-0.34010404
145	0x3e539c1b	0.20665018
146	0xbe8eb426	-0.27871817
147	0x3e6c1831	0.23056103
148	0x3df55459	0.11978979
149	0x3d82b06e	0.063813075
150	0x3d704661	0.05866087
151	0xbeac4c40	-0.33651924
152	0x3e75ebc1	0.24015714
153	0xbebbc86c	-0.36676347
154	0xbd90bb21	-0.07066942
155	0xbdef58bf	-0.11686849
156	0x3e3d8762	0.18508676
157	0xbe9ab250	-0.30214167
158	0xbe8a19d2	-0.26972824
159	0xbee64573	-0.4497486
160	0xbdc4856b	-0.0959576
161	0xbe67a554	-0.22621661
162	0xbd7fafc7	-0.062423494
163	0xbec2d458	-0.3805263
164	0xbd07be59	-0.033140514
165	0x3e2b99f2	0.16757944
166	0xbeaee9a3	-0.34162626
167	0xbe9d5e89	-0.30736187
168	0xbd9727d5	-0.07380644
169	0xbd5e51c8	-0.05427721
170	0xbe0f71a2	-0.14008191
171	0xbea60d1b	-0.32431874
172	0xbd4ddac1	-0.050257448
173	0x3e4792e1	0.19489624
174	0x3cc5614c	0.024094246
175	0x3e840255	0.2578303
176	0xbed74a34	-0.420488
177	0xbf1e8c08	-0.6193242
178	0xbdb143b6	-0.08655493
179	0xbdf0096e	-0.117205486
180	0xbcdb2acc	-0.026753806
181	0xbef7b759	-0.4838207
182	0xbe5c3de4	-0.21507984
183	0xbd8b5854	-0.06803957
184	0xbe13c4d2	-0.1443055
185	0xbe9c9093	-0.3057905
186	0x3d879c78	0.06621641
187	0xbda6a34c	-0.08136615
188	0xbec87969	-0.3915513
189	0xbdea318f	-0.11435234
190	0x3e0b59d0	0.1360848
191	0xbf664c7a	-0.89960444
192	0xbe1e8a01	-0.15482332
193	0xbe33ebe0	-0.17570448
194	0xbe2c339a	-0.1681656
195	0xbdb768c2	-0.08955528
196	0x3e4f9fd9	0.20275821
197	0x3e261c97	0.16221844
198	0x3e6a0b63	0.22855906
199	0xbe1fb063	-0.1559463
200	0x3e4a0852	0.19729736
201	0x3e4438cd	0.19162293
202	0xbe419a18	-0.18906438
203	0x3d989981	0.074511535
204	0xbe486ec4	-0.19573504
205	0x3d3b71c9	0.04576281
206	0x3e2a6ad7	0.16642319
207	0xbc0ece78	-0.008716218
208	0xbdaf1528	-0.08548957
209	0xbe6c277f	-0.23061942
210	0xbe7c26a5	-0.24624117
211	0xbe32e959	-0.17471828
212	0x3d8b8424	0.06812313
213	0x3c9d38cc	0.019192122
214	0x3dd7ef30	0.10543668
215	0x3d884135	0.06653062
216	0xbe60c68f	-0.21950744
217	0x3e31703b	0.17327969
218	0xbe3a510f	-0.18194984
219	0xbb2306f3	-0.0024875968
220	0xbd8764c5	-0.06611017
221	0xbd355b03	-0.04427625
222	0xbd6f0ccc	-0.058361813
223	0xbe694ee7	-0.22784005
224	0xbd181724	-0.037131444
225	0xbd08efbe	-0.03343176
226	0x3d83f508	0.064432204
227	0x3d586555	0.052831013
228	0x3dcd2c33	0.10018196
229	0x3cd6f0ec	0.026237927
230	0x3d2683e1	0.040653113
231	0x3e8adbed	0.27120915
232	0x3eaa3f2f	0.3325133
233	0xbe70fb8c	-0.23533458
234	0xbce1cebd	-0.0275644
235	0xbe02889f	-0.1274743
236	0x3d25d34c	0.04048471
237	0xbe5617c7	-0.20907508
238	0xbd2a1d27	-0.041531708
239	0x3cc1be45	0.023650298
240	0xbe693985	-0.22775848
241	0xbeb0b8b7	-0.34515926
242	0x3d6c3909	0.05767158
243	0xbda89d4f	-0.08233129
244	0xbe193b09	-0.14963926
245	0x3d9f6dc5	0.07784609
246	0xbf1ec71f	-0.62022585
247	0x3e063588	0.13106358
248	0x3e2007a3	0.15627913
249	0xbdb398df	-0.08769392
250	0x3db11832	0.08647193
251	0xbefe40e0	-0.4965887
252	0x3a06eb6b	0.00051467743
253	0xbecde10f	-0.4021077
254	0x3ea4ffdf	0.32226464
255	0x3db378c6	0.0876327

fc2.bias f4 [64]
0	0xbd25cb58	-0.040477127
1	0xbd951a07	-0.07280355
2	0x3b5cd43c	0.0033695837
3	0x3d55e043	0.052215826
4	0xbcdc4943	-0.026890403
5	0xbd23ca39	-0.039987776
6	0x3dfa2958	0.12214917
7	0x3d232191	0.039826933
8	0x3da8cc83	0.082421325
9	0xbe038af1	-0.1284597
10	0xbd1125f4	-0.035436586
11	0x3e97033d	0.29494658
12	0x3dbbc469	0.09168322
13	0xbcc69d22	-0.024244849
14	0xbc2e94cd	-0.010655594
15	0x3cf9a8bf	0.030475972
16	0xbcbebd05	-0.02328349
17	0x3d4d730e	0.050158553
18	0x3e889099	0.2667282
19	0x3c1b24b9	0.009469205
20	0x3cc3cc78	0.02390121
21	0xbd709049	-0.05873135
22	0xbdf721e1	-0.12067009
23	0x3d554711	0.052069727
24	0x3d6316c6	0.05544164
25	0x3e237d39	0.15965737
26	0x3d05b6bc	0.032644972
27	0xbdd786b7	-0.10523742
28	0xbc7603b8	-0.015015535
29	0xbd2a14c2	-0.041523702
30	0x3d0df864	0.034660712
31	0x3d0d0caa	0.034435906
32	0x3e73a933	0.23795013
33	0x3e61ee5f	0.22063588
34	0x3eca4a54	0.39509833
35	0x3d8f51a3	0.06997993
36	0xbcc5e691	-0.024157794
37	0xbde571f6	-0.11203377
38	0xbe038779	-0.12844647
39	0xbdc6b9d7	-0.09703415
40	0x3ea24065	0.31689754
41	0xbe89e741	-0.26934245
42	0x3ded066f	0.11573493
43	0x3ed0f139	0.40809038
44	0x3d31ea93	0.043436598
45	0xbd7a32ef	-0.06108373
46	0x3eb39d21	0.35080817
47	0x3da48331	0.08032835
48	0x3c8a087b	0.016849747
49	0x3a932e41	0.0011228995
50	0xbd9d983b	-0.07695051
51	0x3e9d5cc6	0.30734843
52	0x3dfd2661	0.12360836
53	0xbd655ac8	-0.05599478
54	0x3e5013d3	0.20320062
55	0xbe087e27	-0.13329373
56	0x3eb175e9	0.3466027
57	0x3b8e057a	0.004334149
58	0x3de1769f	0.11008953
59	0xbd8f54dc	-0.069986075
60	0x3e1073f9	0.1410674
61	0x3dada391	0.084784634
62	0xbdfeb4b0	-0.12436807
63	0x3ec603d5	0.386748

fc3.weight f4 [4, 64]
0	0x3e3c6326	0.18397197
1	0xbf2aeb56	-0.66765344
2	0xbd1b2216	-0.037874304
3	0x3e96f4de	0.29483694
4	0xbe6783f7	-0.22608934
5	0x3ebe3fce	0.37158054
6	0x3e0be225	0.13660486
7	0x3e31c2c2	0.1735945
8	0x3d6fac2a	0.058513798
9	0xbe7efc17	-0.24900852
10	0xbd95509e	-0.07290767
11	0x3dcf60ca	0.10125883
12	0x3e464373	0.19361667
13	0xbc9ca865	-0.019123266
14	0x3d7dec84	0.061993137
15	0x3bd4ec15	0.0064978697
16	0xbcb07eca	-0.021544833
17	0x3ec6c44e	0.38821644
18	0x3e39e254	0.18152744
19	0x3e4ec19c	0.20191044
20	0x3e57464f	0.21022914
21	0x3e8818c0	0.26581383
22	0xbe0fad4f	-0.14030956
23	0xbdb2c4e1	-0.08728958
24	0x3e5378fe	0.20651624
25	0x3d172f7d	0.036910523
26	0xbd363e4d	-0.04449301
27	0xbe91d0fb	-0.28479752
28	0x3e9b2045	0.30298057
29	0xbd98e64f	-0.07465803
30	0xbdc24c50	-0.09487212
31	0x3e4d3d8d	0.20043011
32	0x3e820835	0.25396886
33	0x3da57291	0.080784924
34	0x3e0a52f6	0.1350821
35	0xbed72c87	-0.4202616
36	0x3e982dbc	0.29722393
37	0xbe737b0b	-0.23777406
38	0xbf033e0e	-0.5126656
39	0x3dafa88e	0.08577071
40	0x3df2a3fb	0.11847683
41	0xbe1c8ad4	-0.15287334
42	0xbe703a98	-0.23459852
43	0x3e61a88f	0.22036956
44	0x3d8ad90e	0.06779681
45	0x3bd45060	0.006479308
46	0x3e526f21	0.20550205
47	0x3e3085e5	0.17238577
48	0x3e35f207	0.17768107
49	0xb8f50276	-0.00011682969
50	0xbdfcc94e	-0.12343083
51	0x3da1b06a	0.078949764
52	0x3d9ca22d	0.0764812
53	0xbe83f514	-0.25772917
54	0x3e40f6b3	0.18844108
55	0xbd5c2dc3	-0.05375458
56	0x3e649f28	0.22326338
57	0x3de0cae9	0.10976202
58	0x3e497f61	0.19677497
59	0x3e58d034	0.21173173
60	0x3e44a331	0.19202878
61	0x3e1003d5	0.14063962
62	0xbe277826	-0.16354427
63	0x3e8cdf0a	0.27513915
64	0x3e41d42b	0.18928592
65	0xbc99d60b	-0.018778821
66	0x3eed21b0	0.46314764
67	0x3e4b5a76	0.19858727
68	0x3ed47b66	0.41500396
69	0x3e1fd606	0.15608987
70	0xbe0bb4b0	-0.13643146
71	0x3e1b8339	0.15186776
72	0x3e8c7a95	0.27437273
73	0xbe83d7dc	-0.25750625
74	0xbb68efc9	-0.0035543314
75	0x3e1f5b7d	0.15562244
76	0x3e2ec5db	0.17067663
77	0x3e58b1ce	0.21161577
78	0xbd2e1d53	-0.042508435
79	0x3e284352	0.1643193
80	0x3d68c0bb	0.056824427
81	0x3ede54c0	0.43424034
82	0x3e21b599	0.1579193
83	0x3e91847c	0.2842139
84	0x3e4c2723	0.19936804
85	0xbe3aa66a	-0.18227544
86	0xbde73fd4	-0.11291471
87	0xbd5df082	-0.054184444
88	0x3e90997c	0.282421
89	0x3d4acc4c	0.04951124
90	0x3d1192ff	0.035540577
91	0xbe12945e	-0.1431441
92	0xbf0742de	-0.52836406
93	0x3cc21376	0.02369092
94	0xbd7162ed	-0.058932234
95	0x3ec96449	0.39334324
96	0x3e378e57	0.17925392
97	0x3e4a3058	0.19745004
98	0x3e2ca3cf	0.16859363
99	0xbe2554fa	-0.16145697
100	0x3eaa6cc1	0.33286098
101	0xbe1fe5be	-0.15614983
102	0x3db36812	0.08760084
103	0xbdffda10	-0.12492764
104	0x3e3863b5	0.18006785
105	0xbe22c1ae	-0.15894195
106	0xbddee677	-0.108838014
107	0x3e297e77	0.16552149
108	0x3d99762e	0.07493244
109	0xbdba7267	-0.09103852
110	0x3de94432	0.1138996
111	0x3e16dbae	0.14732239
112	0x3e69aa99	0.22818984
113	0xbe0cb5d5	-0.13741238
114	0xbd594b24	-0.053050175
115	0x3dd8f8e0	0.10594344
116	0x3e0f2744	0.13979822
117	0xbea675a1	-0.3251162
118	0x3dfab09a	0.12240715
119	0xbceaf5a9	-0.028681593
120	0x3e291e91	0.16515566
121	0x3e2a6ae5	0.1664234
122	0x3e4d53cb	0.20051496
123	0xbd0104c7	-0.031498697
124	0x3e3a93ab	0.18220393
125	0x3e987b4d	0.2978157
126	0xbe079256	-0.13239416
127	0x3e81fd0b	0.2538837
128	0x3e263765	0.16232069
129	0xbe21ff99	-0.15820159
130	0xbe5fdf1f	-0.21862458
131	0xbe108bf9	-0.14115895
132	0x3dd2163d	0.10258148
133	0x3d2727f5	0.04080959
134	0x3e6244ee	0.22096607
135	0x3ee70fb2	0.45129162
136	0x3f18f063	0.597418
137	0x3d6866bf	0.05673861
138	0x3e02c792	0.12771443
139	0x3e0e6f9a	0.1390976
140	0x3e6aa315	0.22913773
141	0xbef3d8e7	-0.4762642
142	0xbd000cb1	-0.031262103
143	0x3e0a5ed1	0.13512732
144	0x3e95d3f2	0.29263264
145	0x3f0640ea	0.524428
146	0x3e815c2e	0.2526564
147	0x3e948e5e	0.29014868
148	0x3d753150	0.05986148
149	0xbd846c96	-0.064660236
150	0xbf072002	-0.52783215
151	0x3e157968	0.14597094
152	0x3e1dad18	0.15398061
153	0x3e9e0e60	0.30870342
154	0x3e1bdcca	0.15220943
155	0xbd9e2730	-0.07722318
156	0x3e70eb57	0.23527275
157	0xbd598b92	-0.05311162
158	0xbe1099e4	-0.14121205
159	0xbcc366c7	-0.023852719
160	0x3e6c86b9	0.23098268
161	0x3e1b271c	0.15151638
162	0x3e441c69	0.19151463
163	0xbcf7ca1b	-0.030247739
164	0x3ea34d10	0.31894732
165	0xbe0de18b	-0.13855569
166	0xbe06d5af	-0.13167451
167	0x3e38b0c4	0.1803618
168	0x3e09239e	0.13392493
169	0xbd3a4917	-0.04547986
170	0xbefdb1a7	-0.495496
171	0x3e3c9abc	0.18418401
172	0x3dd47605	0.10374073
173	0xbe75a494	-0.23988563
174	0x3dfed724	0.124433786
175	0x3e5b22c8	0.21399987
176	0x3e5e2a9f	0.21695946
177	0x3e7ce553	0.24696855
178	0xbe0d52ad	-0.1380107
179	0x3e1d0910	0.15335488
180	0xbc130df4	-0.008975495
181	0xbe6620ae	-0.22473404
182	0x3e366c13	0.17814665
183	0xbe980e1a	-0.2969826
184	0x3e319a44	0.17344004
185	0x3dfa6225	0.12225751
186	0x3c770a83	0.01507819
187	0xbef2b690	-0.4740491
188	0xbcb58be9	-0.02216144
189	0x3e2d5826	0.16928157
190	0xbcd431a5	-0.025902579
191	0x3e85c3f9	0.26126078
192	0xbef39f2f	-0.47582385
193	0xbee43e47	-0.44578764
194	0xbd45e9ee	-0.048318796
195	0x3ede177f	0.433773
196	0xbe2e32a8	-0.17011511
197	0x3dccc958	0.09999341
198	0xbec55046	-0.38537806
199	0x3e841572	0.2579761
200	0xbe8e46a5	-0.27788273
201	0xbed49a2f	-0.41523883
202	0x3da6ed79	0.08150763
203	0x3d82af45	0.06381086
204	0x3e88f110	0.26746416
205	0x3e821c2a	0.25412112
206	0xbe14f73b	-0.14547436
207	0xbe486390	-0.1956923
208	0x3e2885b7	0.16457258
209	0x3e048021	0.12939502
210	0x3e2a7b48	0.1664859
211	0x3e81df9c	0.25365913
212	0x3e1ba9e6	0.1520153
213	0x3d9984fa	0.074960664
214	0xbd2f9ed7	-0.04287609
215	0xbd84ec3c	-0.06490371
216	0x3f10245f	0.563055
217	0x3dfaf138	0.1225304
218	0x3e42555e	0.18977877
219	0x3d3b7368	0.045764357
220	0xbe64a975	-0.22330268
221	0x3dbad201	0.09122086
222	0xbe21a8d6	-0.15787062
223	0x3f08d859	0.5345512
224	0x3ebf2ab2	0.3733726
225	0xbdacdae7	-0.0844019
226	0x3e02e0ce	0.12781069
227	0x3dafeeb1	0.08590449
228	0x3e6fc41d	0.23414655
229	0xbe9a9082	-0.30188376
230	0x3ebdf36e	0.37099785
231	0xbe873584	-0.26408017
232	0x3e18e567	0.1493126
233	0xbea47af1	-0.32125047
234	0xbdffe22c	-0.12494311
235	0x3e37408f	0.17895721
236	0x3ea37203	0.31922922
237	0xbc403c9f	-0.011733203
238	0x3e13ffce	0.1445305
239	0x3e3a870a	0.18215576
240	0x3ea481c3	0.3213025
241	0xbd9e2874	-0.077225596
242	0x3cc1a48b	0.02363803
243	0x3e1df91e	0.15427062
244	0x3e2d8c35	0.16948016
245	0xbe8952d9	-0.2682102
246	0x3da323ef	0.07965838
247	0xbddab073	-0.10678186
248	0x3e2ad975	0.16684516
249	0xbd6fa17d	-0.058503617
250	0x3e1cb974	0.1530512
251	0xbef8096e	-0.48444694
252	0x3d9cecfc	0.07662389
253	0x3ec6bd31	0.38816217
254	0xbe285548	-0.16438782
255	0x3e9e98e9	0.30976036

fc3.bias f4 [4]
0	0x3eb15eb9	0.3464258
1	0x3e794977	0.24344431
2	0x3e4cb134	0.19989473
3	0x3e8f0921	0.27936652
