p3_collab-compet/saved_critic_model.pth (torch_old, 424172 bytes, 7 tensors)

fcs1.weight f4 [256, 24]
-0.03354041 0.044905584 0.004731715 0.30429453 -0.04952619 -0.81285965 -0.049590446 0.2827196
0.042850956 0.12681775 0.057951763 0.2811262 -0.04180269 -0.6523123 0.058392942 0.2810552
0.021901326 0.11542054 0.001320803 -0.6525803 0.18204607 0.16146722 0.0108676115 -0.6596561
0.18813865 0.31364843 -0.005517433 -0.0018367307 0.30914664 -0.21895963 -0.019274483 -0.023464076
0.2646185 0.16245188 -0.00042293454 -0.15119117 0.20651859 -0.14365378 0.020859262 -0.12754813
0.24166527 0.03380323 -0.01749859 0.114682 0.07997893 0.10833062 0.0076422845 0.057877466
0.0013540309 -0.08810818 0.044787906 0.074192055 1.3198783 0.22361411 0.014986516 0.0031279023
-0.021160958 -0.057392832 0.03292321 0.13007268 2.0869262 0.09579476 -0.06756819 0.13114206
0.08415934 -0.051807515 -0.017846972 -0.028703542 1.4236636 -0.050112106 0.08260082 0.02052906
0.011338663 0.26846185 -0.040752623 -0.08566489 0.3011622 -0.28012067 0.01544339 -0.03162666
0.067832075 0.21491867 -0.06760613 -0.009916718 0.19079393 -0.41197622 -0.14028434 -0.015222705
0.03203158 0.23269968 -0.013156937 -0.124583125 -0.05227357 -0.39738634 -0.031951036 -0.14026912
0.53383356 0.496487 -0.031521823 -0.013760162 0.21197112 -0.6182885 -0.09927672 -0.019477565
0.009510016 -0.0510213 0.0716793 0.06852329 -0.22419281 -0.062129658 -0.0063822037 0.0023515797
0.072921716 -0.1626206 0.057808843 0.094193615 -0.3163103 0.116396114 -0.032078817 0.08844774
0.29215693 -0.2808567 -0.032610707 0.07777234 -0.24158971 -0.4124337 0.0013216535 0.018399706
0.33908546 -0.34805042 0.1092677 0.2528161 -0.4688534 -0.32363847 0.03979776 0.19734278
0.31565008 -0.27902356 -0.015443004 0.29413867 -0.47247568 0.09562318 -0.024268698 0.32606053
-0.035181113 -0.31114572 0.009884636 0.10199119 -0.0021720752 -0.51973474 0.08737156 0.09773339
0.07384023 -0.20954871 0.06843087 0.11388245 0.19574122 -0.53553295 0.034702606 0.10476444
0.16706142 -0.1134687 0.049495492 0.07578087 0.2584956 -0.49457222 -0.040929243 0.010169089
0.08729384 0.0866868 0.13864797 -0.07406061 0.9138835 -0.26307923 0.07588355 -0.06639319
-0.085107304 -0.11680291 -0.008131009 -0.113640286 0.80998135 -0.15721986 0.0005014748 -0.122551985
-0.11948212 -0.10803044 0.011537936 0.025792884 0.12613493 -0.20043084 0.02338942 -0.05306549
0.092327744 0.19084048 -0.05180058 -0.011267371 0.32666487 -0.0060881735 -0.047346763 0.055400297
-0.02134506 0.007569418 0.023672068 -0.03452006 0.8662505 -0.085336514 -0.029780854 -0.047303863
-0.054881502 0.05500775 -0.06289217 -0.09654492 1.5454428 -0.37213126 -0.068792365 -0.18510434
0.11317025 -0.12653646 -0.09719534 -0.08245507 -0.069998235 -0.51544577 -0.004711593 -0.006865209
0.061294474 -0.0626432 0.018087232 0.048236024 0.18679795 -0.1784292 -0.07807879 -0.0055058063
0.10742455 -0.009496478 0.0366543 -0.06678507 0.21784012 -0.13711816 -0.03583097 -0.052997146
0.026720634 0.08609415 -0.028056884 0.09792564 0.9952311 0.37392303 0.018120447 0.08135716
0.086192176 0.08325791 0.07984565 -0.020009205 0.40575865 0.27997604 0.112500325 0.003960407
00000000: ab61 09bd ebee 373d 810c 9b3b 7ecc 9b3e
00000010: f9db 4abd 9217 50bf 5a1f 4bbd a0c0 903e
00000020: 7c84 2f3d 83dc 013e d45e 6d3d c6ef 8f3e
00000030: 4c39 2bbd f0fd 26bf 702d 6f3d 78e6 8f3e
00000040: 696a b33c 9b61 ec3d cb1e ad3a 810f 27bf
00000050: 496a 3a3e aa57 253e 110e 323c 39df 28bf
00000060: 6ba7 403e 8796 a03e 95cb b4bb 75be f0ba
00000070: 7848 9e3e f436 60be 85e5 9dbc bc37 c0bc
00000080: 137c 873e c959 263e 50bd ddb9 dcd1 1abe
00000090: 9c79 533e fa19 13be 0be1 aa3c fa9b 02be
000000a0: 1a77 773e 4175 0a3d 3459 8fbc 65de ea3d
000000b0: fecb a33d 72dc dd3d 216c fa3b ec10 6d3d
000000c0: bd79 b13a 1072 b4bd 8673 373d 01f2 973d
000000d0: c6f1 a83f 19fb 643e 018a 753c 7efd 4c3b
000000e0: bf59 adbc bf14 6bbd 7dda 063d c631 053e
000000f0: 3390 0540 0b30 c43d 3161 8abd 1b4a 063e
00000100: bb5b ac3d 1e34 54bd d033 92bc b123 ebbc
00000110: 9c3a b63f 5a42 4dbd 9e2a a93d 8f2c a83c
00000120: cdc5 393c d573 893e 39ec 26bd 1371 afbd
00000130: ef31 9a3e fa6b 8fbe 4606 7d3c f58a 01bd
00000140: 8beb 8a3d a413 5c3e 1575 8abd bb79 22bc
00000150: 7c5f 433e 8cee d2be b3a6 0fbe a768 79bc
00000160: 8c33 033d d348 6e3e 3290 57bc 7025 ffbd
00000170: d01c 56bd 3976 cbbe 17df 02bd b5a2 0fbe
00000180: 51a9 083f 8b33 fe3e 071d 01bd 4d72 61bc
00000190: f50e 593e 2848 1ebf 9851 cbbd 6a8f 9fbc
000001a0: e6cf 1b3c b6fb 50bd 99cc 923d f055 8c3d
000001b0: cd92 65be ab7b 7ebd ce21 d1bb f61c 1a3b
000001c0: fb57 953d 0486 26be f7c8 6c3d 95e8 c03d
000001d0: 6cf3 a1be 1661 ee3d 1465 03bd 1724 b53d
000001e0: 9895 953e 73cc 8fbe ce92 05bd 1b47 9f3d
000001f0: 4b63 77be 832a d3be 553b ad3a fbba 963c
00000200: 9c9c ad3e aa33 b2be bec7 df3d 1d71 813e
00000210: 8e0d f0be f1b3 a5be fa02 233d 3a14 4a3e
00000220: e39c a13e 2ddc 8ebe a704 7dbc 5899 963e
00000230: 55e8 f1be 16d6 c33d 26cf c6bc 68f1 a63e
00000240: 121a 10bd 7e4e 9fbe 2bf3 213c c2e0 d03d
00000250: 6059 0ebb 560d 05bf dcef b23d 7228 c83d
00000260: 8c39 973d f093 56be 7c25 8c3d 343b e93d
00000270: 6370 483e b018 09bf 5224 0e3d bd8e d63d
00000280: 2612 2b3e 4762 e8bd c9bb 4a3d 0033 9b3d
00000290: 8959 843e 9238 fdbe 6ca5 27bd 409c 263c
000002a0: 1dc7 b23d d988 b13d bcf9 0d3e 17ad 97bd
000002b0: 45f4 693f 52b2 86be d668 9b3d 27f9 87bd
000002c0: bd4c aebd 5d36 efbd ec37 05bc 3dbc e8bd
000002d0: f05a 4f3f 3efe 20be 6775 033a 89fc fabd
000002e0: 0bb3 f4bd 103f ddbd 9c09 3d3c 994b d33c
000002f0: 8429 013e be3d 4dbe 2b9b bf3c 335b 59bd
00000300: 5416 bd3d b06b 433e d82c 54bd c79a 38bc
00000310: 9e40 a73e 4d7f c7bb aeee 41bd 6ceb 623d
00000320: d6db aebc e108 f83b edeb c13c e864 0dbd
00000330: 98c2 5d3f e9c4 aebd faf6 f3bc b2c1 41bd
00000340: 6dcb 60bd ce4f 613d 9ccd 80bd 58b9 c5bd
00000350: 12d1 c53f fd87 bebe 03e3 8cbd fe8b 3dbe
00000360: cec5 e73d c692 01be 5a0e c7bd 34de a8bd
00000370: 3c5b 8fbd 41f4 03bf b563 9abb 8cf5 e0bb
00000380: ea0f 7b3d 144b 80bd ad2b 943c 2393 453d
00000390: f647 3f3e 25b6 36be c6e7 9fbd 0d6a b4bb
000003a0: 6701 dc3d 1e97 1bbc d222 163d 9cc6 88bd
000003b0: 7b11 5f3e b468 0cbe 7fc3 12bd 8913 59bd
000003c0: 3be5 da3c 2152 b03d 8dd7 e5bc 3d8d c83d
000003d0: 77c7 7e3f d772 bf3e 5571 943c 959e a63d
000003e0: 8685 b03d 2083 aa3d 1e86 a33d 58ea a3bc
000003f0: 99bf cf3e 0559 8f3e 9266 e63d 4dc6 813b

fcs1.bias f4 [256]
-0.103857905 -0.35987908 0.25541496 -0.3542604 0.059189152 -0.21400627 -0.24954218 -0.34353575
-0.14715956 -0.13914244 -0.40503225 -0.13740955 0.07390663 -0.20870261 -0.29144043 -0.34520894
-0.018132985 -0.42179188 -0.4702715 -0.35744148 -0.002976055 -0.44331104 -0.34091693 -0.19426222
-0.15008454 0.77860206 0.21152379 -0.16095425 -0.6585743 -0.26142478 -0.31717387 -0.6101082
-0.235657 -0.03987339 -0.21515712 -0.18799719 -0.43848407 -0.032165036 -0.1339402 -0.32127437
-0.12299746 -0.14276032 -0.37749907 -0.08805866 -0.34395048 -0.16547342 -0.060049336 -0.052024156
0.14829639 -0.15115383 -0.23008445 0.3073562 -0.3711952 -0.2923565 -0.004979427 0.29800507
-0.21638979 -0.3148405 -0.29938585 -0.10139453 -0.43891194 -0.24218833 -0.56118155 -0.50926
-0.0731076 -0.407753 -0.3017722 -0.10309389 -0.2802098 -0.4048013 -0.37955537 -0.5549346
-0.13380283 -0.24737482 -0.53034455 -0.15100731 -0.21714316 -0.17616911 -0.5243761 -0.05142449
-0.42317238 -0.009261377 -0.32971168 -0.2132665 -0.31580025 -0.14238729 -0.05957476 0.12607709
-0.27722624 -0.4199343 -0.17275324 0.42374694 -0.41292542 -0.29211465 -0.090014555 -0.18194716
-0.4872516 -0.3371447 -0.38878834 -0.24278948 -0.26735908 -0.34501275 -0.1759 0.17870125
-0.15411207 0.28561816 -0.12954196 0.16645944 -0.04383633 -0.039057884 -0.49605536 -0.28058973
-0.3034244 -0.34697998 -0.34574494 0.03525069 -0.42441797 0.2068692 -0.37104034 0.12788549
-0.09662765 -0.35012344 -0.42697865 -0.11998578 -0.42306247 -0.33605683 0.22599868 -0.40118867
-0.14600772 -0.26746818 -0.15290469 -0.5961666 -0.099007435 -0.43635762 0.1377037 -0.042758003
-0.09187835 -0.5932493 -0.057341434 -0.080903694 -0.48058206 -0.21558186 -0.24896465 -0.10987567
-0.15638307 -0.42867455 -0.39853394 -0.15375823 -0.13716154 -0.43197128 -0.0564466 -0.4595174
-0.020612508 -0.15994704 -0.09795107 -0.34753624 -0.21033387 -0.34661645 -0.20482312 -0.18645003
-0.11267902 0.09141472 -0.32947278 -0.38742682 -0.4886768 -0.17149054 -0.32149437 -0.020265728
-0.0012174468 -0.44694206 -0.26476434 0.07010729 -0.33134425 -0.49281847 -0.3476628 0.45638648
-0.12973507 -0.31641588 -0.2902628 -0.06707572 -0.041243173 -0.08500652 -0.28438672 -0.11571518
0.17871888 -0.2050017 0.06581144 -0.23064226 0.062020957 -0.13944344 -0.25654125 -0.25375813
-0.35620913 -0.09722635 0.20332308 -0.34920117 -0.57274216 -0.048133146 -0.45099384 -0.079061225
-0.05423872 -0.48418552 0.01976936 -0.47256863 -0.48562893 -0.48348913 -0.19501987 -0.20233066
-0.06082022 -0.122565925 -0.47314864 -0.15246221 -0.14110756 -0.29091838 -0.38496917 -0.29706976
-0.49477783 -0.251539 0.08652144 0.20398997 -0.05981203 0.0613429 -0.17086852 -0.120631464
-0.386465 -0.29370356 -0.26109266 -0.11123906 -0.34760943 0.051606618 -0.14586918 -0.17949258
-0.19294421 0.16519082 -0.08899072 0.04480722 -0.22425728 -0.4702192 0.2023465 0.35597703
-0.1438899 -0.29915756 -0.4171477 0.11036678 -0.4630373 -0.15612721 -0.19582424 0.12698577
-0.23583035 0.38305318 -0.032497644 -0.34995368 -0.104467034 -0.4385071 -0.10808941 -0.18350692
00000000: 74b3 d4bd 1242 b8be c0c5 823e 9f61 b5be
00000010: 5370 723d 7624 5bbe fc87 7fbe ebe3 afbe
00000020: ffb0 16be 5b7b 0ebe 6360 cfbe 17b5 0cbe
00000030: 5c5c 973d 23b6 55be ae37 95be 3abf b0be
00000040: a08b 94bc 1bf5 d7be 6dc7 f0be 9202 b7be
00000050: eb09 43bb aaf9 e2be aa8c aebe adec 46be
00000060: c3af 19be 7752 473f b199 583e 31d1 24be
00000070: 5398 28bf 78d9 85be 9d64 a2be 0d30 1cbf
00000080: 1250 71be 4852 23bd 2652 5cbe 5682 40be
00000090: fc80 e0be 7cbf 03bd 9f27 09be 137e a4be
000000a0: 18e6 fbbd c32f 12be 8f47 c1be 1958 b4bd
000000b0: 471a b0be dd71 29be 4bf6 75bd 4817 55bd
000000c0: 02db 173e 12c8 1abe 429b 6bbe cb5d 9d3e
000000d0: 4c0d bebe c0af 95be 762a a3bb 1f94 983e
000000e0: 4995 5dbe c632 a1be 1a49 99be efa7 cfbd
000000f0: 11b9 e0be 3800 78be 98a9 0fbf dd5e 02bf
00000100: 70b9 95bd 00c5 d0be e381 9abe e422 d3bd
00000110: a977 8fbe 1e42 cfbe 1555 c2be 3210 0ebf
00000120: 9c03 09be d34f 7dbe a9c4 07bf a9a1 1abe
00000130: c75a 5ebe ad65 34be 833d 06bf 7ca2 52bd
00000140: 0daa d8be 08bd 17bc f8cf a8be 8962 5abe
00000150: 92b0 a1be f9cd 11be aa04 74bd 5a1a 013e
00000160: 99f0 8dbe a101 d7be 3ae6 30be 5cf5 d83e
00000170: f66a d3be 0d90 95be 8d59 b8bd 5b50 3abe
00000180: 0b79 f9be 3b9e acbe 440f c7be ce9d 78be
00000190: 4ae3 88be 83a5 b0be 211f 34be 76fd 363e
000001a0: 8ecf 1dbe 8b3c 923e a6a6 04be 5874 2a3e
000001b0: b98d 33bd 29fb 1fbd f8fa fdbe 75a9 8fbe
000001c0: 715a 9bbe 5ca7 b1be 7b05 b1be 0763 103d
000001d0: 504d d9be 85d5 533e 00f9 bdbe 6af4 023e
000001e0: b8e4 c5bd 6143 b3be f29c dabe 1bbb f5bd
000001f0: a59b d8be a40f acbe 336c 673e 9a68 cdbe
00000200: 0c83 15be 97f1 88be 0c93 1cbe 609e 18bf
00000210: 69c4 cabd 446a dfbe 3302 0d3e 0423 2fbd
00000220: b72a bcbd 30df 17bf dade 6abd d6b0 a5bd
00000230: da0e f6be 7ec1 5cbe 97f0 7ebe 7f06 e1bd
00000240: e222 20be 3b7b dbbe a40c ccbe cc72 1dbe
00000250: 1374 0cbe 572b ddbe 8d34 67bd dd45 ebbe
00000260: 90db a8bc 28c9 23be 929a c8bd 45f0 b1be
00000270: c361 57be b677 b1be 27bd 51be c2ec 3ebe
00000280: 42c4 e6bd a437 bb3d a8b0 a8be cf5c c6be
00000290: d833 fabe 379b 2fbe e99a a4be 5004 a6bc
000002a0: bc92 9fba 97d5 e4be 318f 87be 6994 8f3d
000002b0: f4a5 a9be b452 fcbe dc00 b2be 7dab e93e
000002c0: 45d9 04be 4301 a2be 539d 94be ff5e 89bd
000002d0: 9aee 28bd e617 aebd 239b 91be 15fc ecbd
000002e0: 1502 373e f7eb 51be 26c8 863d 7c2d 6cbe
000002f0: b009 7e3d 43ca 0ebe 6059 83be 96ec 81be
00000300: 0b61 b6be 9c1e c7bd ed33 503e 7fca b2be
00000310: 3b9f 12bf 4327 45bd aae8 e6be daea a1bd
00000320: 6c29 5ebd 2ae7 f7be 5af3 a13c 84f4 f1be
00000330: 5ba4 f8be e38b f7be 4ab3 47be c52f 4fbe
00000340: 9f1e 79bd d803 fbbd 8a40 f2be 0e1f 1cbe
00000350: 807e 10be 41f3 94be ae1a c5be 8719 98be
00000360: 8553 fdbe b8c9 80be 2732 b13d bfe2 503e
00000370: 76fd 74bd b142 7b3d 28f8 2ebe a10d f7bd
00000380: bede c5be 5060 96be f0ad 85be 4ed1 e3bd
00000390: ddf9 b1be 7661 533d bb5e 15be e7cc 37be
000003a0: 2b93 45be c827 293e c440 b6bd c787 373d
000003b0: b3a3 65be 92c0 f0be ec33 4f3e 9f42 b63e
000003c0: e057 13be 2e2b 99be 6294 d5be fa07 e23d
000003d0: 3a13 edbe d0df 1fbe 2686 48be 8f08 023e
000003e0: 837d 71be 8c1f c43e 401c 05bd 212d b3be
000003f0: d0f2 d5bd 0184 e0be fb5d ddbd 3de9 3bbe

fc2.weight f4 [256, 258]
-0.0027889607 -0.080010526 0.067459516 -0.008487451 -0.051678225 0.07149421 -0.05709954 -0.0016357185
-0.0049364464 0.06644826 -0.13829727 0.050884485 -0.13753486 0.028324798 -0.024985317 -0.03577961
0.00028616897 -0.06464195 -0.016015317 0.0752228 -0.033859096 -0.07637949 0.036997527 -0.08565413
0.018770648 -0.27875128 -0.10706316 -0.08322005 -0.030113813 -0.018656403 -0.0497754 0.13359988
-0.04523945 -0.09709719 0.0135947075 -0.07239461 -0.011960329 0.052472994 -0.0039750156 0.06227403
-0.09543956 -0.028967284 0.052628834 -0.03313993 -0.051292714 0.016266832 -0.07321624 -0.016051741
-0.025574738 0.006711227 -0.019332146 -0.007946698 0.02035644 -0.062760934 -0.13394168 -0.1741228
-0.01929566 -0.078908116 -0.0034669167 0.10652938 0.04425751 -0.048502058 -0.0890406 -0.005920533
-0.06078655 -0.05056962 -0.09324849 0.0264201 -0.106499 -0.029715303 0.0067515885 0.017231982
-0.07323493 0.019496387 0.030032637 -0.06349502 -0.099025354 -0.039881673 -0.015239983 -0.012520022
0.0035076186 -0.02717912 0.013228254 -0.046719164 -0.016607912 -0.16053025 -0.039940216 -0.06289159
0.013351567 0.0026436106 -0.0032992754 -0.09465506 0.02580389 0.06979584 -0.04101881 -0.09332902
0.05491606 0.013992278 -0.007348078 -0.051835474 0.02321505 0.037093736 -0.11761342 -0.20837362
0.1461676 0.020838065 -0.016376557 -0.06481638 -0.1256633 0.029263666 0.0066583063 -0.06701717
-0.050176345 -0.015589246 -0.037595198 0.06587067 0.073698685 -0.052627116 0.021290546 -0.11558723
-0.0769462 -0.08622673 0.05727293 0.021157674 0.114056416 0.07090826 -0.072324716 0.056476653
0.0022162755 0.065057464 0.058263406 0.07300647 -0.07427588 -0.001740437 -0.048581596 -0.103829406
-0.021373346 0.111139454 -0.012232641 0.08636125 0.015124641 0.073891155 -0.0044929087 -0.005202506
0.090779446 0.05528511 0.05488633 -0.0709007 -0.008784887 -0.031239463 -0.036889084 -0.010171646
0.012261247 -0.021560756 0.065013655 -0.052702345 -0.0565942 0.12013001 -0.20814055 -0.029869057
-0.023258701 -0.043087598 -0.07255405 0.017436534 0.04952521 -0.18205231 0.011473363 0.062252253
-0.023491442 0.06452276 -0.012968654 -0.10028789 -0.09176952 -0.06695246 0.07599034 0.01383457
-0.029440904 0.0930174 0.025395837 -0.11089092 0.0510112 0.013660296 -0.005488668 -0.12678748
-0.007606044 -0.017769724 -0.048360992 -0.10184818 -0.14563026 0.01702089 0.09452764 -0.041140582
0.048310988 0.036041282 -0.18147397 0.0075653675 0.03746958 -0.0737509 -0.051290244 -0.014710693
0.018239077 0.080147974 -0.036014445 0.03012705 0.058807276 0.10104642 0.007867183 -0.023246706
0.10971838 0.06476089 0.060534384 0.09083087 0.0319133 -0.06463632 0.092538595 0.037951626
0.018723609 -0.0706521 -0.08514588 -0.040261924 -0.0035713797 -0.1405914 -0.14749481 -0.11341067
0.007809229 0.048070494 0.08947349 -0.09105768 0.056366473 0.05829766 0.041630358 -0.048238255
-0.14365004 0.021437595 -0.041210905 -0.065125756 0.03259892 0.059875567 -0.16180888 -0.039665647
0.05066216 -0.061367936 0.076391876 0.08206017 -0.06350049 0.04844978 -0.07433915 0.04204791
0.107064664 -0.17880912 -0.12781954 -0.0111062545 -0.06577697 0.07821969 -0.097542666 0.06078733
00000000: ffc6 36bb 8fdc a3bd 3728 8a3d f30e 0bbc
00000010: 8cac 53bd 8e6b 923d 35e1 69bd 9b65 d6ba
00000020: eac1 a1bb 0616 883d cd9d 0dbe 406c 503d
00000030: f0d5 0cbe 6809 e83c 02ae ccbc a48d 12bd
00000040: f308 9639 0063 84bd 8e32 83bc 690e 9a3d
00000050: d6af 0abd da6c 9cbd b88a 173d 6f6b afbd
00000060: e7c4 993c 7db8 8ebe ee43 dbbd 466f aabd
00000070: 3eb1 f6bc 50d5 98bc 4ae1 4bbd 68ce 083e
00000080: 004d 39bd e4da c6bd 56bc 5e3c a043 94bd
00000090: 41f5 43bc eced 563d d940 82bb 0e13 7f3d
000000a0: d175 c3bd cc4c edbc 5591 573d bcbd 07bd
000000b0: 4f18 52bd 0542 853c 65f2 95bd f17e 83bc
000000c0: 1d82 d1bc dae9 db3b 735e 9ebc de32 02bc
000000d0: 8dc2 a63c ce88 80bd 0228 09be 3f4d 32be
000000e0: ef11 9ebc 949a a1bd 3635 63bb 132c da3d
000000f0: 5d47 353d 18aa 46bd eb5a b6bd 0801 c2bb
00000100: 51fb 78bd 1722 4fbd 10f9 bebd f76e d83c
00000110: 261c dabd 826d f3bc 6e3c dd3b 162a 8d3c
00000120: 32fc 95bd e3b6 9f3c 0107 f63c ad09 82bd
00000130: cecd cabd f75a 23bd 1fb1 79bc c720 4dbc
00000140: 13e0 653b bfa6 debc 52bb 583c 985c 3fbd
00000150: 510d 88bc 0b62 24be 5a98 23bd 4ecd 80bd
00000160: 88c0 5a3c 6d40 2d3b a838 58bb 83da c1bd
00000170: ae62 d33c 1ff1 8e3d 5703 28bd 4923 bfbd
00000180: aaef 603d de3f 653c 25c8 f0bb 6f51 54bd
00000190: 7d2d be3c 9aef 173d 4edf f0bd e55f 55be
000001a0: f6ac 153e 97b4 aa3c 2128 86bc 73be 84bd
000001b0: e1ad 00be 5bba ef3c ec2d da3b 4c40 89bd
000001c0: b685 4dbd 096a 7fbc 6cfd 19bd 34e7 863d
000001d0: 56ef 963d 888f 57bd 8369 ae3c ffb8 ecbd
000001e0: f895 9dbd a497 b0bd 0597 6a3d dc52 ad3c
000001f0: 6996 e93d 5a38 913d fb1e 94bd 1054 673d
00000200: ef3e 113b d93c 853d 9ca5 6e3d 6b84 953d
00000210: f41d 98bd 601f e4ba 7ffd 46bd 83a4 d4bd
00000220: 2817 afbc 159d e33d 6a6b 48bc 2bde b03d
00000230: 58cd 773c 3f54 973d 4039 93bb c979 aabb
00000240: 93ea b93d a472 623d 7dd0 603d 6334 91bd
00000250: 7dee 0fbc e7e9 ffbc 0219 17bd faa6 26bc
00000260: 66e3 483c 2fa0 b0bc e125 853d 6ade 57bd
00000270: 52cf 67bd b906 f63d cc22 55be f4af f4bc
00000280: 0889 bebc 9f7c 30bd 3897 94bd 10d7 8e3c
00000290: f2da 4a3d ec6b 3abe c6fa 3b3c 38fc 7e3d
000002a0: 2071 c0bc 8224 843d 7a7a 54bc bd63 cdbd
000002b0: a8f1 bbbd 5f1e 89bd d3a0 9b3d 64aa 623c
000002c0: 0d2e f1bc e87f be3d ee0a d03c c71a e3bd
000002d0: 1ff1 503d 6fcf 5f3c 49da b3bb 94d4 01be
000002e0: 1f3c f9bb d091 91bc 2d16 46bd c795 d0bd
000002f0: 1920 15be 656f 8b3c b597 c13d 0783 28bd
00000300: bee1 453d 06a0 133d 50d4 39be e7e6 f73b
00000310: b479 193d b60a 97bd b815 52bd 1e05 71bc
00000320: 1e6a 953c 9f24 a43d e283 13bd 01cd f63c
00000330: e6df 703d 6df1 ce3d 5be5 003c e06f bebc
00000340: 08b4 e03d 5ca1 843d e7f2 773d 8905 ba3d
00000350: 85b7 023d 0c60 84bd e084 bd3d 2a73 1b3d
00000360: 4162 993c 0cb2 90bd f760 aebd b0e9 24bd
00000370: cf0d 6abb 31f7 0fbe e108 17be da43 e8bd
00000380: 90e4 ff3b 91e5 443d e13d b73d 737c babd
00000390: 88e0 663d 87c9 6e3d 9884 2a3d 7a95 45bd
000003a0: ff18 13be e59d af3c c4cc 28bd a760 85bd
000003b0: 7286 053d 1540 753d 3ab1 25be 7278 22bd
000003c0: 2083 4f3d f25c 7bbd 5873 9c3d 2a0f a83d
000003d0: 8b0c 82bd 4773 463d 203f 98bd 6e3a 2c3d
000003e0: b844 db3d bd19 37be 20e3 02be 02f7 35bc
000003f0: 13b6 86bd a531 a03d 73c4 c7bd 23fc 783d

fc2.bias f4 [256]
-0.41863266 -0.064550616 -0.2871608 -0.26908973 -0.24764377 -0.45052204 -0.22001594 -0.18784557
-0.294503 -0.18006252 -0.20103931 0.04543841 -0.3317067 -0.28566453 -0.39085227 -0.3440083
-0.23624738 -0.23682015 -0.36832818 -0.65825665 -0.17217349 -0.248841 -0.37871933 -0.19570781
-0.41152003 -0.30343065 -0.7153942 -0.1417238 -0.24178739 -0.23634401 -0.19220786 -0.17653584
-0.2724146 -0.33293444 -0.14737757 -0.38131994 -0.08933239 -0.40062293 -0.22945715 -0.059717454
-0.29744342 -0.15357767 -0.18492875 -0.18971351 -0.12991282 -0.5099207 -0.23523675 -0.24138406
-0.49983275 0.18803571 -0.20260312 0.03527975 -0.2297317 -0.49089602 -0.27814007 -0.20879278
0.34833267 0.14130606 -0.19951765 -0.30306756 -0.43780035 0.04334773 -0.2470707 -0.21561544
-0.26797476 -0.35734612 -0.3432566 -0.28487095 0.059496555 -0.20645082 -0.24189247 -0.22537169
-0.18976665 -0.6177834 -0.098413855 -0.38787487 -0.16514754 -0.36304912 -0.1547773 -0.20562583
-0.26491758 -0.28326526 0.04391672 -0.33783242 -0.43919018 -0.31195983 -0.20391716 -0.39183742
-0.20419767 -0.040197846 -0.20488791 -0.10824182 -0.23083809 -0.37673965 -0.41203526 -0.2403668
-0.39376068 -0.19714671 -0.3264551 -0.50152814 -0.19166219 -0.25683054 -0.23087059 -0.25989234
-0.31800908 -0.47494295 -0.2294362 -0.28046063 -0.096131355 -0.44507548 -0.18637305 -0.2930642
-0.3770686 -0.21818955 -0.19395742 -0.17899083 -0.28046048 -0.27919516 -0.31795838 -0.36133078
-0.25816485 -0.20055912 -0.06548695 -0.1972991 -0.36743632 -0.32440147 -0.30198124 -0.29850924
-0.018501317 -0.16717173 -0.18352537 -0.41938943 -0.071893886 -0.45649594 0.73071504 -0.20181009
-0.29184133 -0.31048188 -0.2692929 -0.43008113 -0.11853251 -0.70358026 -0.2075793 -0.24011226
-0.6563433 -0.19172381 -0.00059431716 -0.26745573 0.087430365 -0.25346562 0.14580415 -0.11449254
-0.41698134 -0.5282064 -0.28915212 -0.2428226 -0.2578983 -0.5469806 -0.25882962 -0.61006343
-0.2767811 -0.053426743 -0.17449301 -0.37056762 -0.20703791 -0.4062372 -0.41554642 -0.19673684
-0.2524915 -0.1897266 -0.21020025 -0.21352828 -0.63157624 -0.19576573 -0.23438142 -0.33743164
-0.23407723 -0.2017598 -0.34200823 -0.09796374 -0.47755155 -0.39986965 -0.37886965 -0.41025734
-0.27789345 -0.15033926 -0.3407667 -0.29637983 -0.18071862 -0.19703917 -0.18582515 -0.14219987
0.17867692 -0.705198 -0.16583927 -0.3039831 -0.1774648 0.0069290423 -0.25721642 -0.1935749
-0.19725768 0.14213702 -0.20801055 -0.45702532 -0.31860194 -0.10787696 -0.021908134 -0.22889146
-0.25768965 -0.23892646 -0.22112451 -0.31120196 -0.27076882 -0.6095223 -0.5020407 -0.50631046
-0.04542313 -0.21880756 -0.3069627 -0.24316017 -0.22086981 -0.37366083 -0.32090473 -0.312028
-0.016346255 -0.32486677 -0.6294366 -0.25096554 -0.22065204 -0.17224988 -0.28089496 -0.15395947
-0.7388444 -0.21247633 -0.24403857 -0.2027833 -0.52523214 -0.61115617 -0.0048712343 -0.2871124
-0.34376198 -0.38880426 -0.32154712 -0.34208077 -0.40936792 -0.27658448 -0.35293567 -0.03961259
-0.1666715 -0.09054476 -0.22004685 -0.04891747 -0.33998767 -0.25951335 -0.23531485 -0.33443123
00000000: 0557 d6be 1d33 84bd be06 93be 21c6 89be
00000010: 5496 7dbe d3aa e6be dc4b 61be 975a 40be
00000020: 19c9 96be 4f62 38be 40dd 4dbe a01d 3a3d
00000030: 76d5 a9be 9f42 92be ca1d c8be db21 b0be
00000040: d5ea 71be fb80 72be 8395 bcbe 8283 28bf
00000050: 3f4e 30be 2dd0 7ebe 80e7 c1be a167 48be
00000060: c1b2 d2be 435b 9bbe 1324 37bf 0b20 11be
00000070: 1d97 77be 2a04 72be 23d2 44be d0c5 34be
00000080: ed79 8bbe 6276 aabe 25ea 16be 5e3c c3be
00000090: e6f3 b6bd 731e cdbe d1f6 6abe 4a9a 74bd
000000a0: 814a 98be 7743 1dbe f65d 3dbe 4244 42be
000000b0: de07 05be 2a8a 02bf e7e1 70be 622d 77be
000000c0: 14ea ffbe 6f8c 403e 3177 4fbe 8081 103d
000000d0: c93e 6bbe b956 fbbe 6068 8ebe c6cd 55be
000000e0: a958 b23e 89b2 103e 5b4e 4cbe ac2b 9bbe
000000f0: 5e27 e0be 648d 313d 1a00 7dbe 4bca 5cbe
00000100: fd33 89be 12f6 b6be 54bf afbe 9bda 91be
00000110: a9b2 733d d867 53be a9b2 77be d6c7 66be
00000120: 3052 42be 0e27 1ebf 348d c9bd 8997 c6be
00000130: 701c 29be 93e1 b9be f17d 1ebe 948f 52be
00000140: 47a3 87be 2508 91be 05e2 333d 5ff8 acbe
00000150: 89dd e0be 33b9 9fbe a9cf 50be ea9e c8be
00000160: 3219 51be 7fa6 24bd 23ce 51be e3ad ddbd
00000170: d260 6cbe 05e4 c0be 49f6 d2be b722 76be
00000180: 009b c9be d4e0 49be 1f25 a7be 2664 00bf
00000190: 1843 44be 4b7f 83be 5769 6cbe 9c10 85be
000001a0: 16d2 a2be b92b f3be 53f1 6abe 8998 8fbe
000001b0: 84e0 c4bd efe0 e3be 94d8 3ebe 830c 96be
000001c0: 230f c1be 156d 5fbe c69c 46be 5f49 37be
000001d0: 8498 8fbe abf2 8ebe 71cb a2be 5900 b9be
000001e0: 2f2e 84be 5f5f 4dbe 061e 86bd c608 4abe
000001f0: 9d20 bcbe f317 a6be 499d 9abe 34d6 98be
00000200: 1390 97bc 112f 2bbe 13ee 3bbe 36ba d6be
00000210: 1a3d 93bd d6b9 e9be 2410 3b3f 4ea7 4ebe
00000220: 3a6c 95be 7bf7 9ebe c2e0 89be 9833 dcbe
00000230: 2cc1 f2bd d61d 34bf ab8f 54be fddf 75be
00000240: 1d06 28bf 3f53 44be f3cb 1bba f5ef 88be
00000250: b10e b33d 3fc6 81be af4d 153e 117b eabd
00000260: 947e d5be 8938 07bf bf0b 94be 7da6 78be
00000270: 3f0b 84be ec06 0cbf 5185 84be 1e2d 1cbf
00000280: 41b6 8dbe 00d6 5abd 4cae 32be 0abb bdbe
00000290: bf01 54be 53fe cfbe 80c2 d4be 6275 49be
000002a0: 9146 81be b147 42be bc3e 57be 28a7 5abe
000002b0: fbae 21bf d076 48be af01 70be d7c3 acbe
000002c0: f1b1 6fbe 1f9a 4ebe b41b afbe 37a1 c8bd
000002d0: a381 f4be b7bb ccbe 34fb c1be 400d d2be
000002e0: 0d48 8ebe 89f2 19be f978 aebe 19bf 97be
000002f0: 4d0e 39be a3c4 49be f348 3ebe d89c 11be
00000300: 15f7 363e db87 34bf c5d1 29be aca3 9bbe
00000310: 55b9 35be 050d e33b dfb1 83be 8038 46be
00000320: ebfd 49be 5e8c 113e b800 55be 39ff e9be
00000330: cb1f a3be 98ee dcbd b078 b3bc 8662 6abe
00000340: e6ef 83be 23a9 74be 776e 62be dd55 9fbe
00000350: 36a2 8abe a709 1cbf bd85 00bf 909d 01bf
00000360: 9b0d 3abd 170f 60be 372a 9dbe fbfe 78be
00000370: b22b 62be 7950 bfbe a04d a4be 22c2 9fbe
00000380: 95e8 85bc f054 a6be c222 21bf 8e7e 80be
00000390: 9cf2 61be 4662 30be 77d1 8fbe 8da7 1dbe
000003a0: e824 3dbf 6593 59be 3fe5 79be 6da6 4fbe
000003b0: 9d75 06bf bb74 1cbf e09e 9fbb 6600 93be
000003c0: 9201 b0be 5a11 c7be d3a1 a4be 3625 afbe
000003d0: ac98 d1be 7b9c 8dbe fcb3 b4be d040 22bd
000003e0: efab 2abe 886f b9bd f653 61be af5d 48bd
000003f0: dd12 aebe efde 84be 60f6 70be 923a abbe

fc3.weight f4 [128, 256]
0.11516296 0.06445661 0.035726044 0.040062666 -0.016127057 0.025293007 0.020948427 0.10672832
-0.077346295 0.051297225 0.007371993 -0.045372058 0.04756693 0.050199766 0.019682055 0.09476071
-0.032283764 0.06599758 0.016550522 0.113032706 0.028990595 -0.0127766775 -0.022632353 -0.07756661
0.1391623 -0.057601385 0.14501363 0.12308542 0.0006771717 0.052620906 0.03395335 0.06541881
0.078055374 -0.007518926 -0.06168002 0.10504316 0.004359209 0.087361656 0.0040500322 0.08275471
0.08684406 0.050072383 0.028766694 -0.05605655 0.09339169 0.04388743 0.019561982 0.02762396
0.06927999 0.03967616 0.014868651 0.06920512 0.049280334 0.043586023 -0.053605285 0.08232691
-0.30580893 0.051445466 0.10974099 -0.01431468 0.13065122 0.12238199 0.060542937 -0.005133773
-0.0812707 -0.047073044 0.08665855 -0.032721184 0.06721772 0.056588106 0.13629922 0.06872312
0.11578725 0.005919305 0.08740897 -0.02249038 0.07007047 -0.16967206 0.08112171 0.0062689944
0.074641824 0.00856026 -0.049125742 0.014601653 -0.028539788 0.00385537 -0.07041698 -0.0318902
0.12014385 0.110271595 0.06708115 0.13713947 -0.044985406 -0.09316895 0.050110064 0.02244503
-0.23060878 0.052972563 0.03248248 0.012498778 0.08928478 0.07264742 0.039620697 0.0012651206
-0.015876569 -0.053885058 0.08700675 0.050465647 0.037975796 0.1262634 0.05542182 0.111174926
-0.02768975 0.053644225 0.03246197 -0.03246774 0.007953198 0.10006364 0.052144732 0.253502
0.00091132364 -0.0154968705 0.05282667 0.04006825 -0.032018516 0.16890708 0.013569362 -0.011654939
0.11431416 0.10154789 -0.05698737 0.027217543 0.023653919 0.017122993 -0.06913539 0.087237395
0.11788289 -0.013291642 0.01328979 -0.021836657 0.098642595 0.037828688 0.058201507 0.119123876
-0.038283072 -0.026328208 0.026203502 0.06696851 0.017709475 0.055339426 -0.1592933 0.058222663
0.0762584 0.063078515 0.014082771 0.07730061 0.038987186 0.018632492 0.12561972 0.04477186
0.13053493 0.016271608 0.10723452 0.020723196 0.14905664 0.103807725 0.05949658 -0.01556368
-0.008310546 0.018287178 0.07536541 0.049288407 0.07720445 0.083340526 0.014822104 -0.027821627
0.029258732 -0.38205504 0.05319786 0.16078585 0.12849507 -0.06784302 0.14492497 0.30287445
0.039664295 0.10911451 0.08492246 0.099436365 0.07149066 0.09010712 -0.044713937 0.09851431
-0.37693298 0.047824882 -0.008095354 0.059850704 0.033751883 -0.08406028 -0.03554294 0.008058617
-0.08818603 0.046112295 -0.0075529357 0.10283113 0.13938586 0.09176632 0.0727174 -0.026952593
0.02010573 0.07163465 0.08183477 -0.04512165 0.0009329285 0.01478837 0.060509227 -0.04398278
0.02203636 0.007912555 -0.08718995 0.10418045 0.029842034 0.054507148 -0.062423978 -0.04191139
0.01887553 0.068941 -0.019130725 -0.010268881 -0.058475986 0.024888495 0.10610958 0.044024665
0.24166024 0.13025406 0.11761882 0.11405785 -0.02716212 0.0004823269 0.06688952 -0.0026733337
0.090565234 0.11251412 0.05444538 0.060471382 0.025561497 -0.06168387 0.11679495 -0.48911384
0.029762197 0.10029904 0.11555664 -0.010856122 -0.018046718 0.09286108 0.07487311 0.088612705
00000000: 8fda eb3d d401 843d 7955 123d c018 243d
00000010: e41c 84bc 4833 cf3c 099c ab3c 6194 da3d
00000020: bc67 9ebd 0a1d 523d c290 f13b 0dd8 39bd
00000030: 8bd5 423d 459e 4d3d 433c a13c e711 c23d
00000040: fb3b 04bd bd29 873d f694 873c b17d e73d
00000050: af7d ed3c 4555 51bc 7c67 b9bc 3edb 9ebd
00000060: 9080 0e3e 6eef 6bbd 747e 143e 3514 fc3d
00000070: 3984 313a 0589 573d ab12 0b3d 4cfa 853d
00000080: 7fdb 9f3d 5361 f6bb 30a4 7cbd de20 d73d
00000090: b2d7 8e3b abea b23d 22b6 843b 4d7b a93d
000000a0: 4cdb b13d b318 4d3d 21a8 eb3c 8e9b 65bd
000000b0: 2444 bf3d 4ec3 333d 7340 a03c a54b e23c
000000c0: abe2 8d3d 7883 223d a49b 733c 6abb 8d3d
000000d0: 2dda 493d 4287 323d 3791 5bbd 039b a83d
000000e0: fd92 9cbe 7bb8 523d e2bf e03d 1f88 6abc
000000f0: 6fc9 053e 69a3 fa3d dffb 773d 3639 a8bb
00000100: 4171 a6bd aacf 40bd 0a7a b13d a606 06bd
00000110: 72a9 893d eec8 673d 0692 0b3e b5be 8c3d
00000120: de21 ed3d bbf6 c13b 7903 b33d bf3d b8bc
00000130: 1b81 8f3d 83be 2dbe 2423 a63d 236c cd3b
00000140: d0dd 983d 5540 0c3c 1338 49bd c63b 6f3c
00000150: 46cc e9bc 60aa 7c3b c736 90bd 4c9f 02bd
00000160: fb0d f63d 13d6 e13d d861 893d 4a6e 0c3e
00000170: 9e42 38bd 5dcf bebd 3640 4d3d a4de b73c
00000180: b524 6cbe c2f9 583d 590c 053d adc7 4c3c
00000190: f0da b63d 2cc8 943d 5049 223d 67d2 a53a
000001a0: 940f 82bc 94b6 5cbd 9830 b23d 11b5 4e3d
000001b0: 828c 1b3d 314b 013e fe01 633d aeaf e33d
000001c0: 9dd5 e2bc 0cba 5b3d d8f6 043d e5fc 04bd
000001d0: 214e 023c 2aee cc3d b795 553d 04cb 813e
000001e0: e5e5 6e3a 96e6 7dbc c760 583d 9b1e 243d
000001f0: d925 03bd faf5 2c3e 0852 5e3c 5bf4 3ebc
00000200: 8b1d ea3d 57f8 cf3d 976b 69bd 53f7 de3c
00000210: ddc5 c13c 8545 8c3c db96 8dbd 85a9 b23d
00000220: 966c f13d 30c5 59bc 6bbd 593c cae2 b2bc
00000230: 2105 ca3d 41f2 1a3d b464 6e3d 38f7 f33d
00000240: b6ce 1cbd 41ae d7bc baa8 d63c c926 893d
00000250: 7613 913c 98ab 623d c81d 23be e37a 6e3d
00000260: 5d2d 9c3d 4f2f 813d 6cbb 663c c84f 9e3d
00000270: 07b1 1f3d 2ba3 983c 75a2 003e b362 373d
00000280: f3aa 053e 094c 853c c69d db3d b1c3 a93c
00000290: 4ea2 183e 2599 d43d b0b2 733d cefe 7ebc
000002a0: f528 08bc fece 953c 2e59 9a3d a4e2 493d
000002b0: 5e1d 9e3d 70ae aa3d 69d8 723c 2eea e3bc
000002c0: 02b0 ef3c b89c c3be 00e6 593d 0ca5 243e
000002d0: 3694 033e 48f1 8abd 3667 143e 5c12 9b3e
000002e0: 0777 223d 6e77 df3d d4eb ad3d 4ba5 cb3d
000002f0: b269 923d 158a b83d f625 37bd dfc1 c93d
00000300: 5cfd c0be 06e4 433d 60a2 04bc 0326 753d
00000310: 6a3f 0a3d cc27 acbd 7995 11bd 4a08 043c
00000320: e19a b4bd 3fe0 3c3d 9e7e f7bb 2199 d23d
00000330: 2bbb 0e3e fbef bb3d dcec 943d afcb dcbc
00000340: c6b4 a43c 30b5 923d fd98 a73d 7bd1 38bd
00000350: c68f 743a eb4a 723c 86d8 773d 4a27 34bd
00000360: 9985 b43c a9a3 013c a590 b2bd 8f5c d53d
00000370: 4877 f43c e342 5f3d 49b0 7fbd 47ab 2bbd
00000380: dba0 9a3c f030 8d3d 0ab8 9cbc cf3e 28bc
00000390: 8484 6fbd f5e2 cb3c fb4f d93d 3553 343d
000003a0: c875 773e 5261 053e 23e2 f03d 2997 e93d
000003b0: 1883 debc d2e0 fc39 5ffd 883d 1933 2fbb
000003c0: 447a b93d ce6d e63d 1e02 5f3d d7b0 773d
000003d0: 5866 d13c 3aa8 7cbd 3132 ef3d 216d fabe
000003e0: dacf f33c 9569 cd3d f6a8 ec3d e0dd 31bc
000003f0: b6d6 93bc f32d be3d 1357 993d 947a b53d

fc3.bias f4 [128]
-0.33641762 -0.16891423 -0.22091652 -0.23015887 -0.33700517 -0.117654696 -0.08747585 -0.24024461
-0.12607586 -0.18892382 -0.16547234 -0.38884762 -0.21464379 -0.19189382 -0.27047798 -0.19368994
-0.19878653 -0.08921259 -0.13447496 -0.18793823 -0.25750947 -0.34711304 -0.07008689 -0.22641355
-0.3338311 -0.18347202 -0.25688508 -0.32402754 -0.23773663 -0.31962156 -0.20696573 -0.21415323
-0.24732575 -0.11736508 -0.19362304 0.028076952 -0.26473337 -0.27377605 -0.12603746 -0.18033837
-0.20496589 -0.11154637 -0.22096165 -0.16784972 -0.2800024 -0.282144 -0.19153404 -0.12376833
-0.18442166 -0.07367438 -0.25303534 -0.32781518 -0.16636932 -0.3487618 -0.19400127 -0.14267676
-0.1765151 -0.22006424 -0.38481575 -0.2174577 -0.25249022 -0.24968047 -0.19606204 -0.28190434
-0.20943944 -0.19482984 -0.1809696 -0.37727916 -0.27895692 -0.13048013 -0.18623403 -0.21556224
-0.333056 -0.10488629 -0.20945388 -0.24348022 -0.19587839 -0.2810366 -0.17869902 -0.19823024
-0.102141336 -0.21558256 -0.25783032 -0.22318523 0.06521637 -0.30509531 -0.24025124 -0.23598497
-0.25397727 -0.2038444 -0.28495473 -0.17040987 -0.28142977 -0.23538968 -0.2351828 -0.24598569
-0.24754794 -0.25828958 -0.13227539 0.89832664 -0.11137138 -0.2194211 -0.12942897 -0.259171
-0.2785491 -0.17190692 -0.18248238 -0.17222522 -0.2041413 -0.15218191 -0.21865295 -0.2406129
-0.16383904 -0.30474722 -0.14061922 -0.065675266 -0.18596834 -0.29956988 -0.18056744 -0.12851173
-0.3986002 -0.16540316 -0.23150964 -0.14043692 -0.17227498 -0.2158325 -0.1694869 -0.18129429
00000000: ee3e acbe daf7 2cbe f137 62be c4ae 6bbe
00000010: f18b acbe f2f4 f0bd 8a26 b3bd af02 76be
00000020: 081a 01be 3f75 41be 9571 29be 0917 c7be
00000030: 95cb 5bbe d07f 44be 177c 8abe a856 46be
00000040: b28e 4bbe 17b5 b6bd ceb3 09be e172 40be
00000050: 48d8 83be cdb8 b1be b789 8fbd f4d8 67be
00000060: e9eb aabe 17e0 3bbe 7186 83be f0e6 a5be
00000070: 3b71 73be 70a5 a3be d3ee 53be fc4a 5bbe
00000080: f642 7dbe 1a5d f0bd 1e45 46be a301 e63c
00000090: 228b 87be 602c 8cbe f70f 01be 9faa 38be
000000a0: 94e2 51be 6c72 e4bd c543 62be cce0 2bbe
000000b0: 795c 8fbe 2e75 90be 8021 44be 407a fdbd
000000c0: 08d9 3cbe 98e2 96bd d98d 81be 64d7 a7be
000000d0: b85c 2abe e890 b2be 45a8 46be db19 12be
000000e0: 60c0 34be 8558 61be 9206 c5be 3bad 5ebe
000000f0: 6646 81be 3dac 7fbe 7dc4 48be c455 90be
00000100: 4b77 56be 7981 47be 1850 39be bc2a c1be
00000110: 71d3 8ebe 959c 05be 22b4 3ebe 59bc 5cbe
00000120: 5186 aabe a0ce d6bd 147b 56be e152 79be
00000130: 5894 48be 07e4 8fbe e0fc 36be defc 4abe
00000140: 7a2f d1bd adc1 5cbe 5602 84be ab8a 64be
00000150: 2990 853d 7435 9cbe 6c04 76be 0ba6 71be
00000160: 4f09 82be 96bc 50be 96e5 91be ed7f 2ebe
00000170: 9017 90be fe09 71be c3d3 70be ace3 7bbe
00000180: 357d 7dbe 883e 84be 3373 07be bcf8 653f
00000190: ae16 e4bd edaf 60be 0789 04be 10b2 84be
000001a0: fd9d 8ebe 5e08 30be a9dc 3abe cf5b 30be
000001b0: 6b0a 51be 93d5 1bbe 8fe6 5fbe 3a63 76be
000001c0: 6cc5 27be d407 9cbe 7cfe 0fbe c180 86bd
000001d0: 7c6e 3ebe 3961 99be ace6 38be 9498 03be
000001e0: 5315 ccbe 725f 29be dd10 6dbe b2ce 0fbe
000001f0: da68 30be 3203 5dbe f98d 2dbe 36a5 39be

fc4.weight f4 [1, 128]
-0.00064949674 -0.031927507 0.003491331 0.001811686 -0.0004961293 -0.03463185 -0.024618806 0.11704843
0.099615335 -0.044247415 0.0008209008 0.001087364 0.1122235 -0.056080136 -0.046525024 -0.01695936
-0.027381191 -0.017153034 0.019275507 0.011655043 -0.023931917 -0.018246586 0.02371741 -0.08564538
-0.035737187 -0.04703979 0.10809693 -0.013436011 -0.034564693 -0.03590049 -0.038122535 -0.046379596
-0.030112663 -0.048229408 -0.009246061 -0.042129476 -0.03243362 0.010552537 -0.07997089 -0.0042930804
-0.046048272 -0.05211662 0.030530794 -0.019083485 -0.019084647 -0.033383824 -0.04873833 0.0032680256
0.009670604 -0.052087426 -0.046612453 -0.024271848 -0.006577518 0.044162676 -0.05305653 -0.047714952
-0.040909205 -0.05583011 0.028484257 -0.027044082 -0.052516326 0.0688341 -0.04703843 -0.03290714
-0.014303785 -0.05408447 -0.02149644 -0.009570963 -0.023369985 0.03373663 -0.029086426 -0.052298397
-0.026956063 0.10700253 -0.04186809 0.11420232 -0.051445268 -0.03387035 -0.04726675 0.041705575
-0.014302857 0.0014264956 -0.034488406 -0.046041735 -0.027106253 -0.050606944 -0.03576175 -0.022885768
-0.02014178 0.115804635 -0.035861686 0.00245271 -0.0036607902 -0.0006146971 -0.04987531 0.061660722
0.098967396 -0.04211727 0.066159636 0.06693314 0.04640843 -0.026728492 0.013035524 -0.043593403
-0.002578353 0.025315715 -0.050580755 -0.040848687 -0.00022018545 -0.04440964 -0.031304535 -0.050592165
-0.051969785 0.0011712592 -0.030538555 -0.05196829 -0.05923327 0.032835912 -0.043742873 -0.050748102
-0.0024728198 -0.042595953 -0.0401535 0.011813883 -0.03214576 -0.011663343 -0.057194818 -0.023771426
00000000: fd42 2aba 6bc6 02bd d0ce 643b 1876 ed3a
00000010: ac0e 02ba 20da 0dbd 61ad c9bc 16b7 ef3d
00000020: 2003 cc3d c73c 35bd b831 573a e285 8e3a
00000030: 6fd5 e53d 49b4 65bd 0691 3ebd 5bee 8abc
00000040: 854e e0bc 8584 8cbc abe7 9d3c cbf4 3e3c
00000050: de0c c4bc dd79 95bc 044b c23c d866 afbd
00000060: 2861 12bd cbac 40bd ec61 dd3d b722 5cbc
00000070: b593 0dbd 640c 13bd 6026 1cbd 88f8 3dbd
00000080: d5ae f6bc 338c 45bd ca7c 17bc f58f 2cbd
00000090: 1ed9 04bd 8ce4 2c3c c7c7 a3bd f8ac 8cbb
000000a0: 1d9d 3cbd 3d78 55bd b71b fa3c f854 9cbc
000000b0: 6857 9cbc 7abd 08bd d8a1 47bd 5f2c 563b
000000c0: 7471 1e3c a059 55bd b3ec 3ebd c1d5 c6bc
000000d0: 3888 d7bb ece3 343d ce51 59bd c170 43bd
000000e0: 6990 27bd 1dae 64bd d157 e93c 8d8b ddbc
000000f0: 5c1b 57bd e5f8 8c3d 5eab 40bd a3c9 06bd
00000100: 6c5a 6abc ad87 5dbd 4d19 b0bc 87cf 1cbc
00000110: 6972 bfbc 6c2f 0a3d a846 eebc d836 56bd
00000120: f6d2 dcbc 2424 db3d e07d 2bbd e8e2 e93d
00000130: 46b8 52bd a3bb 0abd c89a 41bd 77d3 2a3d
00000140: 8856 6abc 40f9 ba3a b743 0dbd 4296 3cbd
00000150: ef0d debc 3a49 4fbd ea7a 12bd ef7a bbbc
00000160: 6000 a5bc fb2a ed3d b4e3 12bd a5bd 203b
00000170: dee9 6fbb a023 21ba 0e4a 4cbd f48f 7c3d
00000180: 6baf ca3d 2983 2cbd b47e 873d 3e14 893d
00000190: c416 3e3d b6f5 dabc f392 553c ff8e 32bd
000001a0: 96f9 28bb e762 cf3c c42d 4fbd f450 27bd
000001b0: 95e1 66b9 e2e6 35bd 2f39 00bd bb39 4fbd
000001c0: 45de 54bd f084 993a fe2b fabc b4dc 54bd
000001d0: 969e 72bd f37e 063d ba2b 33bd 3edd 4fbd
000001e0: 080f 22bb 1879 2ebd ff77 24bd 048f 413c
000001f0: 46ab 03bd 9b17 3fbc 1d45 6abd 4bbc c2bc
