p3_collab-compet/saved_actor_model.pth (torch_old, 28437 bytes, 4 tensors)

fc1.weight f4 [256, 24]
0	0xbe084061	-0.13305809
1	0xbd8edc3f	-0.06975602
2	0xbdce6eff	-0.100797646
3	0x3cecc9c0	0.028904796
4	0xbe51cadd	-0.20487542
5	0x3e310402	0.17286685
6	0xbd8a8a05	-0.067646064
7	0x3c3b2306	0.011421924
8	0x3c8c9178	0.017159209
9	0xbe0b7fe4	-0.13623005
10	0x3d1a4916	0.037667356
11	0xbb820c5c	-0.0039687585
12	0xbe0817ef	-0.1329038
13	0x3e282cb5	0.16423304
14	0xbd9f508b	-0.07779034
15	0xbd6593e3	-0.05604924
16	0x3d49c068	0.04925576
17	0xbd107a35	-0.035272796
18	0xbd3c4db4	-0.04597254
19	0x3e192796	0.14956507
20	0xbd08df2e	-0.033415966
21	0x3e3a1397	0.18171535
22	0xbdc57725	-0.09641866
23	0x3e08e6b4	0.13369256
24	0xbcb4a00d	-0.022048974
25	0xbe1eb480	-0.15498543
26	0xbdfdeeb0	-0.12399042
27	0xbc84c13a	-0.016205419
28	0x3ec09433	0.37613067
29	0x3dec5fa0	0.115416765
30	0xbe199ca4	-0.1500116
31	0xbd6001b5	-0.054689128
32	0xbd422f35	-0.0474083
33	0xbd21b758	-0.03948149
34	0x3d5cf0b5	0.053940494
35	0xbe31191c	-0.17294735
36	0x3e709ee5	0.23498113
37	0x3de744a0	0.11292386
38	0x3d405731	0.046958152
39	0xbe110d1d	-0.14165159
40	0xbcc8e4d2	-0.024523173
41	0xbd5e2314	-0.05423267
42	0x3d87d640	0.06632662
43	0xbd2611fe	-0.040544502
44	0x3e91f8d3	0.2851015
45	0x3d4f3cde	0.050595157
46	0x3d46bd4f	0.048520382
47	0xbb7d4916	-0.00386483
48	0x3c6cf4c0	0.01446265
49	0x3c97f57b	0.018549671
50	0xbc7c57d0	-0.0154017955
51	0x3c9bb767	0.019008351
52	0xbca1a4e7	-0.019731952
53	0xbcc4afcd	-0.02400961
54	0x3d481097	0.048843946
55	0xbd4338ce	-0.047661595
56	0x3d7897df	0.06069171
57	0xbda0844d	-0.07837734
58	0xbd60ae88	-0.054853946
59	0x3c5ec04b	0.013595651
60	0xbcb26555	-0.021776835
61	0x3e665ce7	0.22496377
62	0xbe033145	-0.12811764
63	0xbd35930b	-0.044329684
64	0xbdaf0884	-0.08546546
65	0xbd682b15	-0.05668171
66	0xbd60016a	-0.05468885
67	0x3d85e9a5	0.06538705
68	0xbd8e3daa	-0.06945355
69	0x3ec09886	0.37616366
70	0xbd9844e7	-0.07435017
71	0x3d810639	0.06300015
72	0x3d62afdb	0.05534349
73	0x3d4b43cb	0.0496252
74	0x3c9f7131	0.019463154
75	0x3cdebe62	0.027190391
76	0xbd59d5ef	-0.05318254
77	0xbd8f6701	-0.07002068
78	0x3ca1dfab	0.019759974
79	0xbd6e5187	-0.05818322
80	0x3ddb5bbd	0.10710857
81	0xbddb3049	-0.10702569
82	0x3ded4041	0.11584521
83	0x3c775ca7	0.015097774
84	0xbe06896c	-0.1313836
85	0x3e1c2c78	0.15251338
86	0x3e425451	0.18977477
87	0x3ca1fc6d	0.019773686
88	0xbc4ade03	-0.012382033
89	0xbe8d1ae3	-0.27559575
90	0x3db00fb5	0.08596746
91	0xbd9fec75	-0.078087725
92	0xbe7d3878	-0.24728572
93	0x3e881341	0.2657719
94	0x3db9ed69	0.090784855
95	0xbd75c07d	-0.059998024
96	0x3d863cdd	0.065545775
97	0xbdb3ef9d	-0.08785937
98	0xbcb9d20d	-0.022683168
99	0xbd37ff71	-0.044921342
100	0x3e19ba49	0.15012468
101	0xbd963c6d	-0.07335744
102	0xbd5ef50e	-0.05443292
103	0xbd1bf629	-0.038076553
104	0xbd9a5921	-0.07536531
105	0xbdbbde45	-0.09173254
106	0xbd4926c5	-0.04910924
107	0x3da442c6	0.080205485
108	0x3d2a3f75	0.041564424
109	0x3e5a1827	0.21298276
110	0xbd0c109f	-0.03419554
111	0xbc2c3a58	-0.010511957
112	0xbe044a2f	-0.12918924
113	0xbd362d02	-0.044476517
114	0x3d41691e	0.04721939
115	0xbd75d0dc	-0.060013637
116	0x3e2cc016	0.1687015
117	0x3eb83e7d	0.35985175
118	0xbd08da02	-0.033411033
119	0xbda5cfc0	-0.08096266
120	0x3d6996b9	0.057028506
121	0xbd713e37	-0.058897223
122	0xbcdf3c67	-0.027250482
123	0xbdbccda6	-0.09218912
124	0x3e0e744b	0.1391155
125	0x3c111e8a	0.008857379
126	0x3d79e131	0.061005775
127	0xbdde3766	-0.1085041
128	0xbde4ff3d	-0.11181495
129	0xbd9af3ec	-0.07566056
130	0x3c1b0845	0.009462421
131	0xbd487bcc	-0.048946187
132	0x3d95da4f	0.0731703
133	0x3e225026	0.15850887
134	0xbcca8a7c	-0.024724238
135	0xbcb71c04	-0.022352226
136	0xbe2edbf9	-0.170761
137	0xbe227d72	-0.15868166
138	0x3cf620fa	0.030045021
139	0xbbf78b15	-0.0075544217
140	0x3df0e00f	0.11761486
141	0x3eb9569e	0.36198896
142	0x3e0a6753	0.13515978
143	0xbdc11b62	-0.09429051
144	0xbca77806	-0.020442974
145	0x3dda90dd	0.10672162
146	0x3d39a9f7	0.045328107
147	0x3cd8316f	0.02639076
148	0xbd01ed79	-0.031720612
149	0x3beeb8dd	0.007285221
150	0xbd3e50a7	-0.046463635
151	0x3d81cf92	0.06338419
152	0x3dd44f5a	0.103666976
153	0x3c137a70	0.009001359
154	0x3da266cc	0.07929763
155	0x3d52f6a5	0.05150475
156	0xbde467a0	-0.111525774
157	0xbc1e3e51	-0.009658412
158	0x3e166fd0	0.1469109
159	0x3dd35454	0.10318819
160	0x3db80f77	0.08987325
161	0xbdaea810	-0.08528149
162	0x3dc7dadd	0.09758542
163	0xbd67a594	-0.056554392
164	0xbe68c77e	-0.2273235
165	0x3e5ae681	0.21376993
166	0x3d415e80	0.047209263
167	0xbe0cd6da	-0.13753834
168	0xbc83f3f9	-0.016107546
169	0xbe4884b3	-0.1958187
170	0xbd400861	-0.04688299
171	0x3c0154af	0.007893725
172	0x3cb1b5d4	0.021693148
173	0x3c2896e0	0.010289878
174	0xbdc82a39	-0.09773678
175	0xbd3f3ac8	-0.046686918
176	0xbd08410f	-0.03326517
177	0xbe377184	-0.17914397
178	0x3d5c9743	0.053855192
179	0x3cf4dd34	0.029890634
180	0x3e037565	0.12837751
181	0x3e0498da	0.12948933
182	0x3dc5d199	0.09659118
183	0x3d08f020	0.033432126
184	0xbc9c3750	-0.019069344
185	0xbb48aeb0	-0.00306217
186	0x3d56e431	0.052463714
187	0x3db32e8d	0.08749113
188	0x3d9a05b3	0.07520618
189	0x3e3ffa6f	0.18747877
190	0x3de982d1	0.114019044
191	0x3d89282f	0.066971175
192	0xbd956fc5	-0.07296709
193	0xbddd3587	-0.10801225
194	0xbd3aa4f9	-0.045567486
195	0x3c1e9816	0.009679815
196	0xbd852e4f	-0.06502973
197	0x3d40d6e3	0.047079932
198	0xbd6d46cf	-0.057928856
199	0xbc087c5e	-0.008330433
200	0xbc4768ac	-0.012170952
201	0xbe14c452	-0.14528015
202	0xba773158	-0.0009429655
203	0xbe1bcaba	-0.15214053
204	0xbe8547a6	-0.26031226
205	0x3e141f54	0.14465076
206	0xbd74a451	-0.059727017
207	0xbe293084	-0.16522413
208	0xb9908e14	-0.00027571677
209	0xbdf56526	-0.11982183
210	0xbb03341d	-0.0020020076
211	0xbdd98bcf	-0.106223695
212	0x3cbb70a1	0.022880854
213	0x3e947fa2	0.29003626
214	0xbc091a79	-0.008368128
215	0xbdea5c2b	-0.11443361
216	0x3ddf7216	0.10910432
217	0x3e8a7581	0.27042773
218	0xbd6a5650	-0.05721122
219	0x3b1d5f31	0.0024013037
220	0x3d5a355d	0.053273547
221	0x3d22a688	0.039709598
222	0xbc343703	-0.010999444
223	0x3bd3912e	0.0064565158
224	0x3b5a7da8	0.0033339057
225	0x3e8f5ccc	0.28000486
226	0xbc89c573	-0.016817784
227	0xbc9facf6	-0.019491654
228	0xbcbe40c7	-0.023224248
229	0xbd5409d1	-0.051767174
230	0x3d2fb42d	0.04289644
231	0xbd631b12	-0.055445738
232	0xbdc2fa85	-0.09520439
233	0x3dc877d7	0.09788483
234	0xbcf14946	-0.029453885
235	0xbcfb942f	-0.030710308
236	0xbe61556e	-0.22005245
237	0xbd3e1963	-0.04641093
238	0x3c4f6607	0.012658603
239	0xbd3c1cb8	-0.045925826
240	0x3e91e4d4	0.28494895
241	0x3e4fc18f	0.2028868
242	0xbcc99a4b	-0.024609705
243	0x3c5d1589	0.013493904
244	0x3e14429f	0.14478539
245	0xbe2782f8	-0.16358554
246	0x3d60b837	0.05486318
247	0x3d262fc6	0.040572904
248	0x3d9e0206	0.0771523
249	0x3df247ea	0.11830123
250	0x3d1aa69f	0.03775656
251	0xbe1ffd31	-0.15623929
252	0x3eb18da3	0.34678373
253	0xbd84ddfc	-0.06487653
254	0x3d0f0c71	0.034923974
255	0xbd84ed8b	-0.0649062

fc1.bias f4 [256]
0	0x3d9ed602	0.077556625
1	0xbd3c92e0	-0.04603851
2	0x3e747e95	0.23876412
3	0xbd4b02f9	-0.04956338
4	0x3e84a2d0	0.25905466
5	0x3e950325	0.29103962
6	0x3dda0faf	0.10647523
7	0xbe247734	-0.16061097
8	0xbcfa6e03	-0.030570036
9	0x3e04f1e5	0.129829
10	0xbe09301c	-0.13397259
11	0x3e37477d	0.17898364
12	0xbce41ef3	-0.027846789
13	0xbd1b315d	-0.037888873
14	0xbc814dac	-0.015784107
15	0x3d98d2cf	0.074620835
16	0x3dd99ac1	0.1062522
17	0xbe06d6d8	-0.13167894
18	0xbdcf7385	-0.101294555
19	0xbd62672a	-0.055274166
20	0x3e0a1261	0.13483573
21	0xbd8f9cbe	-0.07012318
22	0xbd90b399	-0.070655055
23	0xbd841ce8	-0.06450826
24	0x3e19cae9	0.1501881
25	0x3e15c1c8	0.14624703
26	0x3e203b00	0.15647507
27	0x3e1312a6	0.14362583
28	0xbdce4837	-0.10072368
29	0x3dccfdc2	0.10009338
30	0xbe34d72f	-0.17660211
31	0xbe592938	-0.2120713
32	0x3d86fc7c	0.06591126
33	0x3e6f03a4	0.23341233
34	0x3db60701	0.08888055
35	0xbdb3173c	-0.08744666
36	0xbdd3de3a	-0.10345121
37	0x3e37e981	0.17960168
38	0x3e67e49e	0.22645804
39	0xbd4b6e72	-0.049665876
40	0x3e5d676c	0.21621484
41	0x3e02bded	0.12767763
42	0xbdc6748b	-0.096901976
43	0x3bf2cc9a	0.0074096443
44	0x3ddb7a25	0.107166566
45	0xbcced1e0	-0.02524656
46	0xbcf43cf2	-0.029814217
47	0x3e7e11db	0.24811499
48	0x3e04b1a0	0.12958384
49	0x3daa2f19	0.083097644
50	0x3e13fb92	0.14451435
51	0x3e7b67d8	0.24551332
52	0xbc22fd57	-0.009948096
53	0x3d87d21a	0.066318706
54	0x3e44209e	0.19153067
55	0x3ded5e37	0.11590236
56	0x3d9d62b6	0.07684843
57	0xbd7c70c5	-0.061630983
58	0xbd81ab66	-0.0633152
59	0xbb45a891	-0.0030160288
60	0xbe04fffd	-0.12988277
61	0x3e1b88bc	0.15188879
62	0xbdb7051f	-0.08936524
63	0xbe1c38dd	-0.15256067
64	0x3db5e8d4	0.08882299
65	0xbd0b45b7	-0.034002032
66	0xbdda1647	-0.1064878
67	0x3e350d82	0.17680934
68	0xbcd18675	-0.02557681
69	0xbcf83eca	-0.030303378
70	0xbd385b6f	-0.045009073
71	0xbd84bc0d	-0.0648118
72	0xbdaa5c38	-0.083183706
73	0xbd2c0063	-0.041992556
74	0xbdec1a2c	-0.115284294
75	0x3cd85d3c	0.026411645
76	0x3e155765	0.1458412
77	0xbe3d46a6	-0.18483981
78	0xbde51c50	-0.11187041
79	0x3dd7381c	0.10508749
80	0xbc8de0d3	-0.017319119
81	0x3d8b1d6f	0.067927234
82	0x3d910cd1	0.07082523
83	0x3d08c5b5	0.033391673
84	0x3df1c167	0.11804467
85	0xbd065d2f	-0.03280371
86	0xbe71087d	-0.23538394
87	0x3e09e326	0.13465557
88	0x3e3fac4f	0.18718074
89	0x3ccce9a2	0.025013749
90	0x3e7b0182	0.24512294
91	0x3e579771	0.21053864
92	0xbe1b0529	-0.15138687
93	0x3e2ef0fb	0.17084114
94	0x3e5fbe88	0.21850026
95	0x3d78b8c6	0.06072309
96	0xbe064afa	-0.13114539
97	0xbccb1aef	-0.024793116
98	0x3db4a7f3	0.08821096
99	0xbbcaf87e	-0.0061941734
100	0x3e3f8629	0.18703522
101	0x3e59c984	0.21268278
102	0xbe11f5a9	-0.14253868
103	0xbce6e3a8	-0.028184727
104	0x3de890b0	0.11355722
105	0x3e38c34e	0.18043253
106	0x3d46bbff	0.04851913
107	0x3e1aa5a1	0.15102245
108	0x3dd86904	0.10566905
109	0xbde275d6	-0.11057632
110	0xbd4fa3c3	-0.050693285
111	0xbd1475d0	-0.036245167
112	0x3d4a7981	0.04943228
113	0xbd7c6a5f	-0.06162488
114	0xbe399576	-0.18123421
115	0x3e598812	0.21243313
116	0x3e11e607	0.14247905
117	0x3e4f7dca	0.20262828
118	0xbdb71d09	-0.08941085
119	0x3d904e4d	0.07046185
120	0x3c28901f	0.010288267
121	0x3e0d7e65	0.13817747
122	0xbc87144a	-0.016489167
123	0x3e92e3ff	0.28689572
124	0x3dd06374	0.10175219
125	0x3d46d6a0	0.048544526
126	0x3e7e733b	0.24848644
127	0x3d613f96	0.05499228
128	0x3e37b50f	0.17940162
129	0x3ce4a4f9	0.027910696
130	0x3e7581d8	0.23975313
131	0xbd3d3764	-0.046195403
132	0x3e367a72	0.17820147
133	0xbe046764	-0.12930065
134	0x3e73abb5	0.2379597
135	0x3dd8687a	0.10566802
136	0xbdf9afdf	-0.12191748
137	0xbe19869a	-0.14992753
138	0x3d8447a4	0.06458977
139	0x3e64cc7f	0.22343634
140	0xbdebf9e4	-0.11522272
141	0x3e269f03	0.16271596
142	0xbdb6fc4f	-0.08934843
143	0x3e350a5a	0.1767973
144	0x3cdebc25	0.027189324
145	0xbdb52fa7	-0.088469796
146	0x3dccf767	0.10008126
147	0xbd49d4f7	-0.049275365
148	0x3de2fe71	0.11083687
149	0x3c738176	0.014862409
150	0x3e2fd0f2	0.1716955
151	0xbd95d1d5	-0.07315413
152	0x3e54f8c6	0.20798025
153	0xbe3c889c	-0.18411487
154	0x3e4c2219	0.19934882
155	0xbe015d10	-0.12633157
156	0x3ddf113b	0.10891958
157	0x3beeb74c	0.0072850343
158	0xbe28bc6d	-0.16478129
159	0x3e1b31b5	0.1515568
160	0x3dc42e3b	0.0957913
161	0x3e39c955	0.18143208
162	0xbd947a73	-0.07249918
163	0xbcd9d533	-0.02659092
164	0xbc11f61d	-0.008908776
165	0xbdf000f1	-0.117189296
166	0x3dcee2fa	0.10101886
167	0x3df51969	0.11967737
168	0x3c26aa31	0.010172413
169	0xbe38e80d	-0.1805727
170	0x3db2dbd1	0.08733333
171	0x3e27fe5f	0.16405629
172	0x3d3d0aa8	0.04615274
173	0xbe33ee15	-0.1757129
174	0x3e025a8d	0.12729855
175	0x3e311250	0.17292142
176	0xbd652e7c	-0.055952534
177	0x3d6c2411	0.057651583
178	0x3d6d2b97	0.0579029
179	0x3ded8ea0	0.11599469
180	0x3e4d2160	0.20032263
181	0x3e4489f0	0.19193244
182	0x3d809b68	0.062796414
183	0xbe0677b2	-0.13131598
184	0x3e55caee	0.20878193
185	0x3e09d268	0.1345917
186	0x3e649c30	0.22325206
187	0xbcc1e7d8	-0.023670122
188	0x3db80621	0.08985544
189	0x3e233cd4	0.15941173
190	0x3e0f1099	0.13971175
191	0xbbaf84b4	-0.0053563956
192	0xbcc3d622	-0.023905817
193	0xbb2f48c6	-0.0026746257
194	0x3dff5e1a	0.1246912
195	0x3d1426c2	0.036169775
196	0xbe2eadf7	-0.1705855
197	0x3ce5bb27	0.028043343
198	0xbe4a0495	-0.1972831
199	0xbddc49ec	-0.10756287
200	0x3e5521ae	0.20813629
201	0xbdf7b180	-0.12094402
202	0x3e33f0c3	0.17572312
203	0xbe0e989a	-0.139254
204	0xbe389104	-0.18024069
205	0xbcc20ff1	-0.023689242
206	0x3df77bb0	0.120841384
207	0x3d93221a	0.07184239
208	0x3e43f7d0	0.19137502
209	0xbcc9ab04	-0.02461768
210	0xbd8f5310	-0.06998265
211	0x3de3b59e	0.11118625
212	0x3d9e9017	0.07742327
213	0xbd1971d8	-0.037462085
214	0xbd56fda9	-0.052488003
215	0x3ddff949	0.10936219
216	0xbc6dd71a	-0.014516616
217	0x3d1234d7	0.035694923
218	0x3d27b4e7	0.040944006
219	0x3d143f64	0.036193267
220	0x3dfd04b9	0.123544164
221	0xbcf4d06b	-0.029884538
222	0x3e45c951	0.19315077
223	0x3d8513e0	0.064979315
224	0xbcd78ec3	-0.026313191
225	0x3d9f540a	0.07779701
226	0x3d90fe6b	0.070797764
227	0xbda5dba3	-0.08098533
228	0xbe1e9033	-0.15484695
229	0x3e81013a	0.25196248
230	0xbd9c6344	-0.07636121
231	0x3e3351c7	0.17511664
232	0x3d988c46	0.0744863
233	0x3e18d92c	0.14926594
234	0x3d2667e8	0.040626436
235	0x3d5ee4f3	0.05441756
236	0xbd4c8ae2	-0.049937136
237	0xbe0a0e1d	-0.13481946
238	0x3c8607fc	0.01636123
239	0x3e6f7e8c	0.23388118
240	0x3d747bef	0.059688505
241	0x3b80182c	0.0039091315
242	0xbdf526e5	-0.11970309
243	0x3d58fb0b	0.05297379
244	0x3c7de544	0.015496556
245	0x3e4df208	0.20111859
246	0x3daf601a	0.08563252
247	0x3dfe1b65	0.12407569
248	0x3d84c79c	0.06483385
249	0x3d423f71	0.047423784
250	0x3ccbe5df	0.024889885
251	0x3d852651	0.06501449
252	0x3e39956e	0.18123409
253	0x3d307db9	0.04308865
254	0x3dbe2023	0.09283473
255	0x3d34d745	0.04415061

fc2.weight f4 [2, 256]
0	0xbd59041c	-0.052982435
1	0x3ea72f55	0.326533
2	0xbdd135b6	-0.10215323
3	0xbd79fd69	-0.061032686
4	0xbe21529f	-0.15754174
5	0xbe2749e0	-0.16336775
6	0xbdb998dd	-0.090623595
7	0xbc81b626	-0.015833925
8	0xbdf8d300	-0.1214962
9	0x3be77b6e	0.0070642745
10	0x3ec14a30	0.37751913
11	0xbdd92b20	-0.106039286
12	0x3e79238a	0.24329963
13	0xbe15bd94	-0.146231
14	0x3e4129aa	0.1886355
15	0x3d8ba118	0.068178356
16	0xbdf59a21	-0.119922884
17	0x3d77131b	0.060320955
18	0x3e26f407	0.16304027
19	0x3d76af42	0.060225733
20	0x3e06b5fa	0.13155356
21	0x3d049f55	0.032378513
22	0x3bc749a5	0.006081777
23	0x3d29790f	0.041375216
24	0x3df3125a	0.11868735
25	0xbe78c7fe	-0.24295041
26	0x3d99970b	0.07499512
27	0x3ce4baee	0.027921166
28	0xbd32bd1b	-0.043637376
29	0x3d878da9	0.066188164
30	0xbdf53863	-0.119736455
31	0xbd1db160	-0.038499236
32	0xbd9edd5d	-0.077570654
33	0xbdac43c8	-0.08411366
34	0x3d860bc5	0.065452136
35	0x3daa885a	0.08326788
36	0xbe082b9f	-0.1329789
37	0xbd57e224	-0.0527059
38	0x3c85b82c	0.016323172
39	0x3e0249fe	0.12723538
40	0xbd9784f4	-0.07398406
41	0xbcd03fdc	-0.025421076
42	0x3d74f12b	0.05980031
43	0x3c662ba5	0.014048492
44	0xbde6c43f	-0.112679
45	0x3e1bec22	0.15226796
46	0xbe3143fb	-0.17311089
47	0xbd83ef00	-0.0644207
48	0x3dbe12f2	0.09280957
49	0x3df05ced	0.11736474
50	0xbd77444f	-0.06036788
51	0xbdf4d0a7	-0.1195386
52	0x3defc9ad	0.117083885
53	0xbde05f1d	-0.109556414
54	0x3d8b67a5	0.06806878
55	0x3d444176	0.04791399
56	0xbd6a668e	-0.05722671
57	0x3d4c928c	0.049944445
58	0x3d6ebd0b	0.058285754
59	0xbd654291	-0.055971686
60	0x3d9c8404	0.076423675
61	0x3dc70a6a	0.09718783
62	0xbd879a8d	-0.06621275
63	0x3d3ba03f	0.04580712
64	0xbd8f294a	-0.06990297
65	0x3da9d570	0.08292663
66	0xbe0812ec	-0.13288468
67	0x3d94c6c9	0.07264478
68	0x3dddb30c	0.10825166
69	0xbd835d9b	-0.06414338
70	0x3dc613c8	0.09671742
71	0x3dbd5cef	0.09246241
72	0xbd79ba01	-0.060968403
73	0xbcec1d41	-0.028822543
74	0x3dc79e7a	0.09747024
75	0x3d92e0c9	0.071717806
76	0xbd02ea53	-0.03196175
77	0x3c1c387a	0.009534949
78	0x3e1a9998	0.15097654
79	0xbd4d1c81	-0.05007601
80	0xbc81d5d5	-0.015849033
81	0xbcae6471	-0.021288129
82	0x3e8894f1	0.26676133
83	0x3dca0797	0.09864729
84	0x3e1b3524	0.1515699
85	0xbd490613	-0.04907806
86	0xbdaafe46	-0.0834928
87	0x3d03f027	0.03221145
88	0x3e1ccfb7	0.15313612
89	0x3d03e02d	0.032196213
90	0x3de78c91	0.11306108
91	0xbd2e5690	-0.04256302
92	0x3dc1d5c7	0.09464603
93	0x3dad1f72	0.08453263
94	0x3da5f56b	0.081034504
95	0xbe1127cc	-0.14175338
96	0xbd3fd53a	-0.046834208
97	0x3c0f0193	0.008728403
98	0x3d31ccf9	0.043408368
99	0xbd3edd77	-0.046597924
100	0xbdbdb42d	-0.092628814
101	0xbe0bdc7a	-0.13658324
102	0x3dd15ed0	0.10223162
103	0xbd8aa543	-0.067698024
104	0x3e8b8bed	0.27255192
105	0x3e01a626	0.12661037
106	0xbdad2cf4	-0.0845584
107	0xbda65f9c	-0.08123705
108	0xbdd3264a	-0.103100374
109	0x3d763bd3	0.060115647
110	0xbd462d7c	-0.04838322
111	0xbdb48446	-0.08814292
112	0x3e0badc1	0.136405
113	0xbd015221	-0.031572465
114	0xbdbe1fd3	-0.09283414
115	0x3dc9e35b	0.09857818
116	0xbd326ffc	-0.043563828
117	0x3e441a9b	0.19150774
118	0xbcaca2f2	-0.021073792
119	0xbd33a7c9	-0.043861184
120	0xbd14488a	-0.03620199
121	0xbce9a080	-0.028518915
122	0x3de4f902	0.11180307
123	0xbdc5f329	-0.0966552
124	0x3e085296	0.13312754
125	0xbd9f8d3d	-0.07790611
126	0x3df04e7c	0.1173372
127	0xbe209afc	-0.15684122
128	0xbdeec86c	-0.11659321
129	0x3dae23ff	0.085029595
130	0xbde18d40	-0.110132694
131	0xbce11ccc	-0.027479552
132	0xbd44ed7b	-0.04807804
133	0x3c1fdb0e	0.009756817
134	0xbe26b039	-0.16278161
135	0xbbdf4432	-0.0068135494
136	0xbc7806f7	-0.015138379
137	0xbde86989	-0.11348254
138	0x3e0431e6	0.1290966
139	0x3e424a1f	0.18973587
140	0x3dcdf9f9	0.10057444
141	0xbd059fe2	-0.03262318
142	0xbd3fa1d0	-0.046785176
143	0xbd66e547	-0.056371
144	0x3d3b162d	0.045675445
145	0xbdeed897	-0.11662405
146	0x3dd0e0e3	0.10199144
147	0xbdab6697	-0.08369177
148	0xbd966ef3	-0.07345381
149	0x3ea851d7	0.3287494
150	0x3d676f71	0.056502763
151	0x3e015de6	0.12633476
152	0x3da5f7e5	0.08103923
153	0x3da26fc3	0.07931473
154	0x3ddd690b	0.10811051
155	0x3d53f595	0.051747877
156	0xbd80ffe7	-0.062988095
157	0xbdcb8dfb	-0.0993919
158	0xbd1b992c	-0.037987873
159	0x3d12f5f6	0.035879098
160	0xbda90059	-0.082520194
161	0xbc500c5a	-0.012698257
162	0x3db3f10b	0.0878621
163	0x3d555fa1	0.052093152
164	0x3e0ca942	0.13736442
165	0xbd8e82b7	-0.06958526
166	0xbd50d2b7	-0.050982203
167	0x3de9a67d	0.11408708
168	0x3dce89ee	0.10084902
169	0x3f063903	0.5243074
170	0xbd8dd2a4	-0.06924942
171	0x3e51d1df	0.20490216
172	0x3db00b83	0.08595946
173	0xbdc55480	-0.09635258
174	0x3ccc258a	0.024920244
175	0xbd8433ab	-0.064551674
176	0xbcd4026d	-0.025880063
177	0xbdafa0d1	-0.08575595
178	0xbdaa288c	-0.08308515
179	0xbd5ca0c6	-0.053864263
180	0xbdbbccbd	-0.0916991
181	0xbe0c9d6a	-0.13731924
182	0x3d9cc903	0.076555274
183	0x3d12066d	0.03565066
184	0x3e0b64ef	0.13612722
185	0xbdaa8136	-0.08325426
186	0xbd3b863a	-0.045782305
187	0xbd77bfa1	-0.060485486
188	0xbcf01c2a	-0.029310305
189	0x3db13b6e	0.086539134
190	0x3d84e4cc	0.06488952
191	0x3e06b597	0.13155209
192	0x3e9af3f7	0.30264255
193	0x3e6081eb	0.2192456
194	0x3d523bed	0.05132668
195	0xbde773d6	-0.11301391
196	0x3dc18bfe	0.094505295
197	0xbd66e360	-0.056369185
198	0xbcd6b57e	-0.02620959
199	0x3dc29282	0.095006004
200	0x3d9382fb	0.07202717
201	0x3c33bde9	0.010970571
202	0xbd7fcef9	-0.062453244
203	0x3e0b5dbf	0.1360998
204	0x3dee1520	0.11625123
205	0x3baef899	0.0053396937
206	0xbcbe1756	-0.023204487
207	0xbe8ec40c	-0.27883947
208	0x3e707d6b	0.23485343
209	0xbda93657	-0.08262318
210	0x3e4f6cb6	0.20256314
211	0xbce1de46	-0.027571809
212	0xbdaf5ac5	-0.08562235
213	0x3cf88f13	0.03034166
214	0x3e64d5df	0.2234721
215	0x3d9bbcff	0.076044075
216	0x3da9b2f4	0.08286086
217	0x3e1be23a	0.15223017
218	0xbe098ab8	-0.13431823
219	0xbca9fad5	-0.020749489
220	0x3d9570a4	0.07296875
221	0x3cce6435	0.025194267
222	0xbd61f695	-0.0551668
223	0xbea84167	-0.32862398
224	0x3e152299	0.14563979
225	0xbe1e5db9	-0.1546544
226	0x3d6ad2d8	0.057329983
227	0xbdd016b3	-0.101605795
228	0x3d70e822	0.05881513
229	0xbd232778	-0.039832562
230	0xbe1200d6	-0.14258131
231	0x3e117009	0.14202894
232	0x3d89ab38	0.067221105
233	0xbdaa81f5	-0.083255686
234	0xbd05535a	-0.032550193
235	0x3e24bea5	0.1608835
236	0x3d884d8c	0.06655416
237	0xbd62f8c4	-0.055413023
238	0x3df8efdf	0.12155127
239	0x3d947fd0	0.07250941
240	0x3e3deef2	0.18548182
241	0x3bfb337e	0.0076660505
242	0x3dff9a1e	0.124805674
243	0x3ddb237b	0.10700127
244	0x3e5c1a5d	0.21494432
245	0x3d5f3b86	0.054500125
246	0x3d1053b7	0.035236087
247	0x3e4b506a	0.19854894
248	0xbd4de4dc	-0.050267085
249	0x3deb32c1	0.1148429
250	0xbe2570e4	-0.16156346
251	0x3d79f733	0.061026763
252	0x3e11fcbd	0.14256568
253	0xbd595ae0	-0.05306518
254	0x3e1a2358	0.15052545
255	0x3e9f4d90	0.31113863

fc2.bias f4 [2]
0	0xbd93f369	-0.07224161
1	0x3bcd6d18	0.0062691085
