p2_continuous-control/checkpoint_actor.pth (torch_old, 39709 bytes, 4 tensors)

fc1.weight f4 [256, 33]
000000 19 d4 ce be f5 92 b4 3e 3c 90 03 bd 0b 13 4c be
       -0.40396193 0.3526837 -0.032119974 -0.1992914
000010 20 f7 22 be c1 9b 16 3e 9c a2 6f bd 6e 87 6b 3e
       -0.15914583 0.14707853 -0.058504686 0.23000881
000020 ac 40 d2 3b 81 00 6b 3d 99 a9 84 bc e3 78 a1 bc
       0.006416401 0.057373527 -0.016194152 -0.019710964
000030 70 4a 01 be 6b 9b 77 be fd ef 81 be ff 1f 1d 3d
       -0.12626052 -0.24180381 -0.2537841 0.038360592
000040 69 e4 fa 3e a9 53 48 bd 9c 83 29 3d 06 dd 4c be
       0.49002388 -0.04890791 0.041385278 -0.20006189
000050 4b 89 57 be 0a 77 c3 be 9d 71 52 be 08 80 ba bd
       -0.21048467 -0.38176757 -0.20551153 -0.09106451
000060 f2 ca 88 3b 42 b6 22 3e e4 8c 17 3e de 43 23 3c
       0.0041745836 0.15889838 0.1479984 0.009964911
000070 9b 01 ff 3d b8 fd 86 3c 4e 30 a7 bd f0 47 45 3c
       0.12451478 0.016478404 -0.0816351 0.012041077
000080 d5 11 cf 3e 8f 65 54 3d 6d 57 72 be 88 21 9f 3d
       0.40443292 0.051854666 -0.23666163 0.077700675
000090 5f dc 29 3d 23 4c 9c bd 02 d2 1f be 12 52 d3 bd
       0.041469928 -0.076317094 -0.15607455 -0.10318388
0000a0 f4 78 74 3d 57 70 d3 bd 9b e7 f3 3c a4 b8 ab 3d
       0.059685662 -0.103241615 0.029773524 0.08384827
0000b0 95 bc f1 3d 93 fc 3c bd 5e c0 e0 bc fb 27 39 3b
       0.11803547 -0.04613931 -0.027435478 0.002825259
0000c0 78 db 39 be 98 7a f7 3d 09 f2 0a 3c 81 4f 22 bd
       -0.18150127 0.1208393 0.008480557 -0.039626602
0000d0 3c 05 54 bd 87 f8 fd bc a6 2a 84 be e3 f1 55 3d
       -0.051762804 -0.031002296 -0.25813788 0.052232634
0000e0 ea ac e0 bd 14 9d 1f 3d 5b dc 2c 3e 2e 95 fd bb
       -0.10970481 0.03896816 0.16880934 -0.007738731
0000f0 4b 56 39 be 8d 41 0e 3e e4 65 1a bd 3b 06 7e 3e
       -0.18099324 0.13892193 -0.037694827 0.24807064
000100 46 63 33 bd 22 87 81 bf 9f 7c 38 bd ad 90 82 3d
       -0.043795846 -1.0119364 -0.045040723 0.06375251
000110 23 09 1a be 29 b7 38 3d 45 d7 5d be 62 ef 38 3d
       -0.15042548 0.04509655 -0.2166415 0.04515017
000120 75 26 d5 bc bd 77 d6 3d 07 36 8d 3e 79 ce 4c 3e
       -0.026019314 0.10472057 0.27580282 0.20000638
000130 f5 72 1e 3e d2 fb ae bc ba b5 00 be 46 6c d1 be
       0.1547354 -0.021360312 -0.12569323 -0.4090292
000140 5b 46 46 3e bc 72 9e 3c 5a 4d fe bd 5f 0b ae bd
       0.19362776 0.019341819 -0.124170974 -0.084982626
000150 17 c2 bb 3d 0d 48 8b bd 1b 06 90 be c5 71 1a 3d
       0.09167879 -0.06800852 -0.28129658 0.037706155
000160 a5 50 e3 bd ea 32 c1 3d 4a 26 b6 3d 6d 85 11 bd
       -0.11099366 0.09433539 0.08894022 -0.035527635
000170 49 09 7d 3e 8d 74 4f be 8b 6b 68 3d 40 43 61 3b
       0.24710573 -0.20259304 0.056743186 0.003437236
000180 0f 74 55 3e 00 1e 22 bd d1 e8 7f 3e da 5d 65 bd
       0.20845054 -0.03957939 0.24991156 -0.055997707
000190 d8 b1 89 be 44 e9 1c 3e 0a 08 01 bd 29 64 80 bd
       -0.26893497 0.15323359 -0.031501807 -0.06269104
0001a0 7a a4 f0 bd 5a 5f 85 3b 7e 5c 90 3d 01 10 33 bc
       -0.117501214 0.0040702047 0.070488915 -0.010929109
0001b0 3e f2 06 3e 28 54 d9 3d 0d 1b db bd 38 06 4d 3d
       0.13178346 0.10611755 -0.10698519 0.05005476
0001c0 55 0e 6a 3d 58 b6 22 3e 6c 5c 0d be 3e 64 e7 3d
       0.057142574 0.15889871 -0.13804787 0.112984166
0001d0 d7 1c a7 3d 5a b7 04 3d f8 f8 cb bc a9 6a c3 bc
       0.08159798 0.03240142 -0.024898991 -0.02385457
0001e0 0e 21 24 3d 26 d5 e8 3c e6 1b 6d 3e db 04 ad 3d
       0.040070586 0.02842195 0.23155174 0.08448192
0001f0 77 4f 5e 3c 5d 9e 91 3b 5d 9f 43 be bb 35 cc 3e
       0.013568751 0.004443927 -0.19103761 0.39884743
000200 e0 7b f2 3c 99 30 1c 3e 8e 05 4c 3d bd 96 9d be
       0.029600084 0.15252914 0.049809985 -0.30779067
000210 4c 93 11 3e 83 4d 29 bd c1 e8 ae 3e b3 56 08 be
       0.14216346 -0.041333687 0.34161952 -0.13314323
000220 ed 8b 3d bd 15 ce 28 3b 50 23 f2 3d 24 9e c2 3d
       -0.04627602 0.00257576 0.118231416 0.09502819
000230 0f fa a2 3d ae 13 c2 bc a8 f9 4a ba e1 a7 fb 3d
       0.07957851 -0.023691025 -0.000774289 0.1228788
000240 cc 18 5d bb 23 b3 84 be 9d f7 c1 3e 5e 69 60 be
       -0.0033736704 -0.2591792 0.37884226 -0.21915194
000250 20 1c 61 be 6c de a8 bd c1 d0 39 3e 43 8d 02 be
       -0.21983385 -0.082455486 0.1814604 -0.127492
000260 de 37 29 bd bb 1e c2 bd 50 4e 41 bc 80 d6 e3 bc
       -0.041313045 -0.094785176 -0.011798456 -0.027812243
000270 02 4a 28 bd 43 e2 27 3c 79 fc 37 3e 69 64 f0 3a
       -0.041086204 0.010246816 0.17967404 0.0018340471
000280 c7 28 54 3d a8 fa 81 3c 75 4f cf bc 58 3c 71 3c
       0.0517967 0.015866593 -0.025306443 0.01472386
000290 11 28 3e bf 35 a7 c6 3e 3d 47 11 be 93 45 83 3e
       -0.74279886 0.38799444 -0.14187331 0.25639018
0002a0 e6 e9 16 bd d4 7a e8 3d 8d 7c e1 3c 62 50 21 3e
       -0.036844157 0.113515526 0.02752521 0.1575332
0002b0 f6 40 4d bd 21 93 34 be 53 b2 7e bc 04 66 1e 3d
       -0.05011078 -0.1763425 -0.0155454455 0.03867151
0002c0 b0 eb 34 be 1f 7d 96 3d e6 ce 47 bd fc 82 63 bd
       -0.17668033 0.07348084 -0.048781298 -0.05554484
0002d0 69 66 92 bd 23 73 54 be 82 a7 52 3d 9b 82 fd 3d
       -0.071484394 -0.20747046 0.05142928 0.12378427
0002e0 2e 04 0f 3b 05 ec 8f 3d b3 71 57 bd dd e2 fa bd
       0.002182256 0.07027439 -0.052598666 -0.12250302
0002f0 4c a1 a9 3c 27 55 c4 bc d1 21 ba 3d ea 55 1a bd
       0.020706795 -0.023966385 0.09088481 -0.03767959
000300 6b f0 6b 3c 38 86 3e 3e 6c 5f 73 3d 81 40 c9 3c
       0.014400582 0.18605888 0.059417173 0.02456689
000310 60 b7 00 bc 7b 60 cc be 71 4e d9 be 0d 95 8f 3e
       -0.00785622 -0.3991736 -0.4244266 0.28043404
000320 d7 46 a4 be 7b a3 c1 3b f1 72 cf be 3e 4d bf be
       -0.32085297 0.005909381 -0.4051738 -0.3736362
000330 ce 7a 0c be bd 1b 48 3c 19 da 8f be 40 ae ea bb
       -0.13718721 0.012213645 -0.28096083 -0.0071618855
000340 fc f5 d1 3d 1a 0d 5d 3d f1 8a 95 3d 68 5d 9a 3e
       0.10251996 0.053967573 0.073018916 0.30149388
000350 9a ee 73 3d 89 a0 97 3d 45 cc bf be 7a fb 59 3d
       0.05955372 0.074036665 -0.37460533 0.053218342
000360 50 af 38 be 7e 48 47 bd 4e c3 0e 3c c5 7e dd 3c
       -0.18035626 -0.04865312 0.008713556 0.027037987
000370 37 16 a2 bd 57 4e 52 3e fa cd 4c bc 76 b5 54 3c
       -0.079143934 0.20537697 -0.0125002805 0.012982717
000380 0a d4 38 be 2a df 95 3e 35 96 bf be 18 3f c2 bc
       -0.18049636 0.29271823 -0.37419286 -0.023711726
000390 a0 2e 83 be 4e ab 5a 3d 12 52 c3 3f a1 bf 7d be
       -0.2562151 0.053386025 1.5259421 -0.24780132
0003a0 82 39 b0 3d b4 3a 10 3e 8b 0b 72 bd 0e 69 94 bd
       0.08604719 0.14084893 -0.05909304 -0.072466
0003b0 12 44 51 3e ea 22 a5 bd dd 7e b4 3d 37 48 b8 bd
       0.20436123 -0.080633 0.0881326 -0.08998149
0003c0 01 1c b7 bd 1b b0 03 3e d1 d8 1d 3e 4d 2d 0f be
       -0.08940888 0.12860148 0.1541474 -0.13982125
0003d0 9c f4 55 3e c5 5a a4 be 11 70 3b be 90 54 5d 3d
       0.20894092 -0.32100502 -0.18304469 0.054035723
0003e0 cb 97 20 bd 3b d2 18 3e 8f 3a 84 3c 87 80 0a be
       -0.03920726 0.14923947 0.016141204 -0.13525592
0003f0 80 1d f2 3c 62 92 b4 bd 41 e9 e7 3b 27 9d 94 3d
       0.029555082 -0.08816983 0.0070773666 0.07256537

fc1.bias f4 [256]
000000 86 3f 6c bd 59 4e 01 3e 54 3f a6 3e 08 33 cf 3d
       -0.05767777 0.12627544 0.3247019 0.10117155
000010 05 44 78 3c f0 2c 67 bc 18 9a eb be 5b 99 32 be
       0.015152936 -0.014109835 -0.46016002 -0.17441313
000020 b1 cc 5e be 87 b7 b1 3d cc 63 9a be af 5f 38 3e
       -0.21757771 0.08677583 -0.30154264 0.1800525
000030 23 32 ae bd 49 50 eb bd b0 fc 09 3e 40 ed 98 3e
       -0.085056566 -0.114899226 0.13475299 0.29868507
000040 ac b8 de bd 18 98 ac 3c e8 a5 04 be df 9d a7 be
       -0.10875067 0.021068618 -0.12953913 -0.32737634
000050 09 d3 67 3e bd e4 d6 3d 7f eb 32 3d 62 8b 0f 3e
       0.22639097 0.10492847 0.043681618 0.14018014
000060 72 f7 9a bd 26 2f b2 be c8 80 7b 3e d0 34 3d 3e
       -0.07566728 -0.34801596 0.24560845 0.18477178
000070 90 20 a0 bd db 80 b0 bd ad f8 f1 bd d4 04 20 bd
       -0.07818711 -0.08618327 -0.11815009 -0.039067104
000080 bb d4 30 bd 7b 1d a8 bd 05 a4 83 bd f1 83 0e be
       -0.043171626 -0.08208748 -0.064277686 -0.13917519
000090 97 76 49 bd b7 e1 72 bd 51 a0 86 3e 50 46 3b be
       -0.04918536 -0.05929729 0.26294187 -0.18288541
0000a0 17 5d dc 3c d6 c4 a6 3e 7d cf 5d 3e e5 6f ce 3e
       0.026899857 0.3257205 0.21661182 0.40319744
0000b0 18 56 a2 3d fb ac 3e be 91 bb 27 bd 1a 3f 59 3e
       0.07926577 -0.18620674 -0.04095036 0.21215478
0000c0 78 3e 6e 3e 38 19 85 bc 70 13 de 3d 6f 3f 96 bd
       0.23266017 -0.016247377 0.10843551 -0.07336318
0000d0 53 12 ab bd 84 03 3e 3e 29 dc 62 be 77 c5 50 bd
       -0.083531044 0.18556029 -0.22154297 -0.050969567
0000e0 13 ce 28 3e d7 54 2e 3d 97 c5 9c 3d 8c 66 36 be
       0.16484861 0.04256138 0.07654875 -0.17812556
0000f0 86 7e cb 3d 3d b9 8e be f2 da 0b bd a4 39 c2 3d
       0.09936242 -0.278757 -0.03414435 0.0948365
000100 e0 d5 2c 3d 20 37 05 bd 6f 77 2e be 39 cc 02 3e
       0.042196155 -0.032523274 -0.17037748 0.12773217
000110 8a 56 a7 3d 91 80 f7 be 09 f4 91 3e dd a5 9d be
       0.08170803 -0.48340276 0.28506497 -0.30790606
000120 1d ba 6f be 62 4a be 3c 52 9f d8 3e 1d 9a 5b be
       -0.2341084 0.023228828 0.42309052 -0.21445508
000130 50 f7 4f be 7f c7 c1 bc b2 69 5f bd 7d b5 ac 3e
       -0.20309186 -0.023654697 -0.05454416 0.33732215
000140 c9 6e 32 3e 6b 9c b9 3d 10 bb d5 bc e7 6c 7c 3d
       0.17425074 0.090630375 -0.026090175 0.061627295
000150 8c e5 b1 bd 47 17 98 3e ec 62 02 be 87 1c bf 3d
       -0.08686361 0.2970526 -0.12733048 0.09331613
000160 0b 58 07 3e d5 8b 4a 3e 16 58 02 be ac bd 6a be
       0.1321718 0.19779904 -0.12728915 -0.22923917
000170 8f 88 8e 3e e5 2b 8e 3e d5 50 f7 3c 3d 49 24 3e
       0.2783856 0.27767864 0.03018991 0.16043563
000180 18 2c 70 be 1b 9b b9 be 7d d1 17 3e ff e8 88 be
       -0.2345432 -0.3625115 0.14826007 -0.26740262
000190 21 8b 98 bd 68 c2 96 3e bc 96 2f 3e 00 64 ca 3e
       -0.07448412 0.29445195 0.17147344 0.3952942
0001a0 cb fa be bc 64 62 cb 3d 48 07 25 bc 62 31 7d bc
       -0.023312947 0.09930876 -0.010072537 -0.015453668
0001b0 31 2f 63 be b1 99 a8 3e bb cb 0a 3e 5f cb 61 3e
       -0.22185971 0.32929757 0.1355428 0.22050236
0001c0 c1 cd 87 3d 2a f9 85 be 5d 74 de 3d a2 03 26 be
       0.06631041 -0.2616666 0.10862038 -0.16212323
0001d0 c1 77 8d bd 34 63 dc 3c 2b 35 c1 3e 06 61 00 3e
       -0.06907607 0.026902772 0.37735876 0.12537012
0001e0 30 41 a4 3e 4e 20 11 be 2e 42 87 bc 7d f8 92 3e
       0.32080984 -0.1417248 -0.01651105 0.28705207
0001f0 7f b7 eb 3b b4 ad 09 3e 03 9a 29 be 80 42 5f be
       0.0071935053 0.13445169 -0.16562657 -0.21802711
000200 7e 16 79 3b 1b 41 d1 bd 23 76 3e 3e 81 f0 de 3d
       0.003800779 -0.10217496 0.18599753 0.10885716
000210 85 ce c9 3b 05 b8 db bd f4 24 6d be 73 53 3c 3e
       0.0061586522 -0.10728458 -0.23158628 0.18391208
000220 ec e4 0e 3c 17 41 97 3d 5e fd 00 3c 48 cc 39 be
       0.008721571 0.07385462 0.007872907 -0.18144333
000230 46 e1 4f be 32 86 c4 bc 61 37 d4 bd 2d be e5 bd
       -0.20300779 -0.02398977 -0.10362125 -0.11217914
000240 aa cf 96 be 3f 85 c0 3d ae 5b 50 bd 39 1b 69 3e
       -0.2945531 0.09400415 -0.050868683 0.22764291
000250 71 ca 8f bc 9b 4f 3a 3b ee 87 89 be 46 0e f3 bd
       -0.017552586 0.0028428796 -0.2686152 -0.11867957
000260 25 06 c3 3d 75 ce 61 be b6 1e de 3d 6a 04 03 be
       0.09522656 -0.22051413 0.108457014 -0.12794653
000270 4d ed 86 be 4a 95 40 bd 8f 02 49 be f3 3f cd 3c
       -0.2635292 -0.047017373 -0.19629882 0.025054907
000280 c2 5c 53 3d 65 88 92 be b2 29 98 3e e8 06 1c 3e
       0.051602133 -0.28619686 0.2971931 0.1523701
000290 f0 03 87 3e 51 b2 bc be 70 25 f2 bd 62 05 eb be
       0.26370192 -0.36854795 -0.11823547 -0.45902544
0002a0 e2 cd e7 bd 62 73 b7 bd 1e ed c8 3c 1e c0 e5 3d
       -0.11318566 -0.089575544 0.024527129 0.11218284
0002b0 96 18 89 be 8d 75 60 be 67 02 7d 3d 54 ab 69 3e
       -0.2677657 -0.21919842 0.06176987 0.22819263
0002c0 26 a2 f1 3d e4 32 b4 3d d7 c8 ba 3b a9 f1 aa bd
       0.117985055 0.08798769 0.0057002115 -0.08346874
0002d0 be d6 26 bc a0 4b a4 3e bd e1 34 3e ea 2a 10 be
       -0.010183034 0.32088947 0.17664237 -0.1407887
0002e0 8f 8e 9d bd c1 2d d5 bd f6 d4 42 3e 41 3a 49 bd
       -0.076932065 -0.104091175 0.1902655 -0.04912782
0002f0 5f b6 d6 bd a4 79 0f bd 46 ce 78 3e 80 ed a2 3e
       -0.10484003 -0.035028115 0.24297437 0.31821823
000300 53 be 73 3e 1d 48 9d be b5 ff 59 3d aa 34 10 3e
       0.23803072 -0.3071908 0.053222377 0.1408259
000310 21 21 f5 3d e8 d2 98 3d 5f 6f 15 3e 42 be 5f be
       0.119692095 0.07462102 0.14593266 -0.21849921
000320 cf 40 a5 3e ba e2 39 3e 7d e3 9c 3e 6a 33 cd 3e
       0.32276008 0.18152896 0.3064231 0.40078288
000330 8b df 4d be b1 73 c7 be aa 8a 92 bd c1 f5 58 3d
       -0.20104806 -0.38955453 -0.07155354 0.052968744
000340 d6 41 4b 3e 6f ea 7d 3e a6 d1 de bd e2 0f b5 3c
       0.19849333 0.2479646 -0.10879831 0.0221023
000350 bd 13 ae be 49 b5 70 be 29 ca 10 be 8e 80 0a 3e
       -0.33999434 -0.23506655 -0.14139618 0.13525602
000360 4e a7 04 3e 29 b2 0a 3e c9 46 70 be 26 2d 8d bc
       0.12954447 0.13544525 -0.23464502 -0.017233443
000370 77 17 57 3e 62 1f 8e be be c2 2b 3d ab 72 89 be
       0.21005045 -0.27758318 0.041933767 -0.26845297
000380 c9 6a 83 3d b7 e2 62 bd 29 3d d5 bd e8 1c f0 bc
       0.06416852 -0.055391993 -0.10412056 -0.029310659
000390 7d d5 a0 be d4 a8 27 bc cf 11 a1 3d 11 5e 3b 3e
       -0.3141288 -0.010233123 0.07864725 0.18297602
0003a0 29 c1 b1 bd 28 a0 f4 bc 71 32 fc bd 99 f0 4f 3d
       -0.086794205 -0.029861525 -0.123143084 0.05076656
0003b0 19 85 69 3e d6 6f 56 3d 0d 63 1b be 2b ad 95 3d
       0.22804679 0.05235275 -0.15174504 0.0730842
0003c0 42 81 e6 bd 91 1f 76 bd a2 f3 11 3d 5f bf b0 3e
       -0.11255123 -0.060088698 0.035632737 0.34521005
0003d0 a4 1f f2 bc bd 7b 47 3e 45 2a 16 3d c8 67 0b 3e
       -0.029556103 0.19480796 0.036661405 0.13613808
0003e0 38 71 69 3d 42 ff c4 3e 9b c8 b0 3d 61 51 aa be
       0.05699274 0.38475996 0.086320125 -0.33265212
0003f0 9c bb 9c be 39 ad c0 be 0c e9 1a 3e 1b 7f 90 be
       -0.30611885 -0.37632158 0.15127963 -0.28221974

fc2.weight f4 [4, 256]
000000 c9 1c 9a 3e 32 7a 7f 3c 5f 2c 1b bf 9b 8b 88 be
       0.30100086 0.0155930985 -0.6061458 -0.2666901
000010 46 13 5c 3e 4a 6a 23 3d 17 05 10 bf 82 e4 ca 3e
       0.21491727 0.039896287 -0.56257766 0.39627463
000020 dd 98 fe be c1 9d ee 3e a0 6c de bd 4a 72 35 bf
       -0.49726 0.46604732 -0.10860562 -0.70877516
000030 0c 96 27 bf 64 8a 97 3f cc 8d 5d 3f 06 00 5f 3d
       -0.6546333 1.1839108 0.8654449 0.05444338
000040 26 c3 23 3f 30 80 91 bc 49 e1 8e bf 51 22 26 c0
       0.6396965 -0.01776132 -1.1162502 -2.5958445
000050 ac e9 8e bd f4 48 0e 3f 37 5b 5b 3c 9f 94 1a be
       -0.06978163 0.5558007 0.0133884465 -0.15095757
000060 88 a2 0a 3b cc c3 0c bf c8 0b 91 3e 2a cd 07 be
       0.0021154005 -0.5498626 0.283293 -0.13261858
000070 a0 5f 0e be 6c 38 bb bc 4c a3 46 bf cf fe ab 3e
       -0.13903666 -0.022854052 -0.7759292 0.3359284
000080 02 5a 0a 3e f9 f5 06 3f 53 b9 1d bd 09 b9 35 bd
       0.13510898 0.52719074 -0.038506817 -0.044365916
000090 33 ea 17 3e 6b aa c2 3e 23 60 86 3b 19 66 35 be
       0.14835434 0.38020644 0.004100816 -0.17714728
0000a0 37 34 9d be 2a 18 8c 3e 30 f9 08 bf c6 a4 f0 3e
       -0.307039 0.27362186 -0.5350523 0.47000712
0000b0 94 5b ed 3e 06 07 86 3e 48 07 01 3f 8f a3 82 3e
       0.4635893 0.26177233 0.50401735 0.2551541
0000c0 37 95 de be 54 c8 8f be 1f 84 0f bf 28 db f9 3d
       -0.43473217 -0.28082526 -0.56060976 0.12200004
0000d0 a6 94 2f be 2f 15 98 3e 43 f1 08 be 43 40 10 bf
       -0.17146549 0.29703662 -0.13373284 -0.56348056
0000e0 ae 4c 25 be eb 23 2a 3f 24 f3 fb be 10 12 2e bf
       -0.16142532 0.66461056 -0.4920894 -0.6799631
0000f0 48 7d aa 3e 29 ea 19 be c3 94 1e be 27 7c 83 3e
       0.33298707 -0.15030731 -0.15486436 0.25680658
000100 18 f4 3d be f4 04 6c bf cc 92 3d be 5e 87 01 bd
       -0.18550146 -0.9219506 -0.1851303 -0.031623237
000110 2f 89 9d be 95 26 df bf 14 7d e2 3e 0e fd 0c 3f
       -0.30768725 -1.7433649 0.44236052 0.5507363
000120 ce ab 0e be fd c5 ad 3d 53 08 80 3e 17 0a 80 be
       -0.13932726 0.08485029 0.2500635 -0.25007698
000130 94 9d 0a 3e c3 17 26 be 90 85 ce be 8b ee a0 3d
       0.13536674 -0.16220002 -0.40336275 0.078579985
000140 5a 27 35 be 47 a5 03 bf 46 ae 5f be 07 45 ac be
       -0.17690793 -0.5142407 -0.21843824 -0.33646414
000150 48 1c 6e bf b5 6d e7 3e f3 3d 13 be 33 0c e4 bc
       -0.93011904 0.45200887 -0.143791 -0.027837848
000160 88 01 f0 3d f7 de 29 bd 25 18 76 be 33 17 a8 3e
       0.11719042 -0.0414724 -0.24032648 0.328302
000170 95 75 c7 3e 2a 17 4c 3d 65 0a 45 3d ef f1 c4 3d
       0.38956895 0.04982678 0.048105616 0.09616458
000180 c9 88 79 be 9e ec e4 be 9a a8 a0 be a6 a5 d8 bd
       -0.24368586 -0.44711775 -0.31378633 -0.1057847
000190 4f c7 03 3f fb 40 03 bf 3f e1 60 3d 3c 3c 8e bd
       0.51475996 -0.5127103 0.05490231 -0.069450825
0001a0 c1 56 e4 be 5c e0 10 3f 26 a4 ad 3d a7 8a 16 3f
       -0.44597438 0.56592345 0.084785745 0.58805317
0001b0 b2 92 2a bf 76 13 92 3e f1 03 89 3e e7 e7 74 3e
       -0.6663009 0.28530473 0.2676082 0.23916589
0001c0 15 64 bf 3e 9a c4 8e be 28 66 06 3f 84 33 bd 3e
       0.37381044 -0.2788437 0.5249963 0.36953366
0001d0 85 a4 38 bc b2 6f 71 bc 64 84 32 3d 5d cb f7 3e
       -0.011269693 -0.014736103 0.04358329 0.4839734
0001e0 fe a4 d7 3d 93 e8 81 bf 1d 7b d7 3d f4 39 3d 3f
       0.10529517 -1.0149101 0.10521529 0.73916554
0001f0 93 59 8d be 97 24 04 3d 25 1b 3d 3e b8 51 4c bf
       -0.27607402 0.032261457 0.18467386 -0.7981219
000200 67 bd 61 be de a2 3b 3e 0a 09 23 3e 06 78 4a bc
       -0.22044908 0.18323848 0.15921417 -0.012357717
000210 ce c1 1a 3f ae 20 96 3e 88 b5 06 bf 54 ea d6 be
       0.6045197 0.29321808 -0.52620745 -0.41975653
000220 94 45 55 3d b8 a4 1a 3d 58 b0 16 be 15 4f 0c be
       0.052068308 0.037754744 -0.14715707 -0.13702042
000230 55 73 0d 3f 7e 8d 27 be 02 3c 01 bf 6c 0e da be
       0.5525411 -0.16362569 -0.5048219 -0.42589128
000240 80 51 24 be ba 5f 1f 3e d4 62 9c 3e 33 b9 ed bd
       -0.16046715 0.1556386 0.3054415 -0.116075896
000250 2f 00 80 3e f0 46 95 3f 42 b4 5d 3e 57 83 2e be
       0.2500014 1.1662273 0.21650794 -0.1704229
000260 e0 86 42 3e 2c 56 2c be 1e 19 b3 be 17 44 5a 3e
       0.18996763 -0.16829747 -0.349801 0.21315037
000270 fa 32 93 bf 4b 9f 22 3e 3d 90 8b 3f f5 5d 12 bf
       -1.1499932 0.15881078 1.0903393 -0.5717462
000280 ad 28 08 3f aa 4b ec 3d dc 26 99 bd b2 0d cb 3e
       0.53187066 0.11537869 -0.07478115 0.39658886
000290 36 be 9a be 62 e3 86 bf 1a 1f cd bd 80 98 8c be
       -0.30223244 -1.0538142 -0.10015698 -0.27460098
0002a0 1f a9 d4 3e 2e a9 5d 3e d5 3d e4 bd e6 d1 5c be
       0.4153528 0.21646568 -0.11144606 -0.21564445
0002b0 64 4f 4b bd 92 24 00 3d cc 98 a5 bf 38 c9 80 3e
       -0.04963626 0.031284876 -1.2937255 0.25153518
0002c0 f7 6f 36 3e d0 1d 89 3e eb 54 9b be eb 06 0d 3f
       0.17816149 0.26780558 -0.30338225 0.5508868
0002d0 ef 64 42 bb 9f b7 ea be 15 2c 4b 3e 4f 84 b2 3e
       -0.0029662212 -0.45843217 0.19841035 0.34866568
0002e0 aa 15 9e 3e 88 bf 79 3c 60 de 8a 3c 0f 27 55 3f
       0.30875903 0.0152434185 0.01695174 0.83262724
0002f0 b6 41 55 bd fc c7 1a be 97 c7 84 be 5f 0b 30 3d
       -0.05206462 -0.1511535 -0.25933525 0.042979594
000300 2d a6 86 3e 41 9a 4b bf 96 53 9e 3e fd 34 0e bf
       0.26298657 -0.7953225 0.30923146 -0.55549604
000310 e1 95 e9 be 06 67 db 3d 99 f2 05 be e6 f3 e7 be
       -0.4562216 0.107130095 -0.13080825 -0.45303267
000320 54 e2 26 3e 6e 18 00 be ca 46 fd 3c 63 4f 01 3e
       0.16297275 -0.12509319 0.030917544 0.1262794
000330 32 66 d2 3d 18 df 0e 3f 1b 8b fc 3e 1c 66 c4 be
       0.102733985 0.55809164 0.4932488 -0.38359153
000340 e7 ef 9b 3d 8c 3c 8e bc 2f b0 62 3d bd af cf 3d
       0.07614117 -0.017362855 0.055343803 0.10140941
000350 a0 66 12 bd 6b d1 fb be 1e 1a 82 3e b1 e6 8f 3e
       -0.035742402 -0.4918321 0.2541055 0.2810569
000360 e9 b2 4f bd 95 bb 4e 3e 7a 8a 7c 3e 6b 9f 13 3f
       -0.05070773 0.20188744 0.246622 0.5766513
000370 82 2d e4 3d 5e ee 63 3f cf a5 88 3c 71 96 6a 3f
       0.111414924 0.89035594 0.016680626 0.91635805
000380 7f 13 f0 be 80 d2 e1 3e 66 2f 32 3e bf a2 b6 bd
       -0.46889874 0.4410591 0.17400894 -0.0891776
000390 1c b8 24 bf 47 f7 9c be 5f 80 b9 3e 17 de 96 3e
       -0.6434343 -0.30657408 0.36230752 0.29466316
0003a0 eb 89 e3 be a3 be da 3d 26 80 33 be ce 78 4e be
       -0.4444116 0.10680892 -0.17529353 -0.20163271
0003b0 e1 c0 0d bd bc 12 83 3e 4e 20 c2 3d 4b b8 84 bd
       -0.03460777 0.2560023 0.09478818 -0.064804636
0003c0 da f0 c2 3e b3 f7 4c bc 9a 7c 03 3f 7e 29 1a be
       0.3807438 -0.012510228 0.51362 -0.1505489
0003d0 2c 46 ac bd 7e e9 40 be 2c c0 1d 3e 48 0a 6d 3e
       -0.08411822 -0.1883907 0.15405339 0.23148453
0003e0 fd 22 67 3e 2a 4b a7 bf b7 39 f8 3e 77 06 03 3f
       0.2257194 -1.3069813 0.48481533 0.5118174
0003f0 20 2d 83 bf d7 b5 08 3f 07 23 9c bf 18 68 30 bf
       -1.0248146 0.53402466 -1.219819 -0.68908834

fc2.bias f4 [4]
000000 84 77 48 3c 07 f0 05 3c 8d 5c 2d 3d 41 72 da bd
       0.012235526 0.008174903 0.04232459 -0.106663235
