p2_continuous-control/checkpoint_critic.pth (torch_old, 435436 bytes, 7 tensors)

fcs1.weight f4 [256, 33]
0	0xbee04e02	-0.43809515
1	0xbe5b6655	-0.21425755
2	0x3f406d6c	0.75166965
3	0xbeb34d3f	-0.35019872
4	0xbe9978ef	-0.29975078
5	0x3f4671f1	0.7751761
6	0x3bd379fb	0.00645375
7	0x3bfde903	0.0077487244
8	0xbe5a690d	-0.21329136
9	0xbddab80f	-0.10679638
10	0xbcd3a5e1	-0.025835933
11	0xbd501d2b	-0.050809067
12	0xbe88215f	-0.2658796
13	0x3f0ffff4	0.5624993
14	0x3e163208	0.14667523
15	0xbf62f25d	-0.88651067
16	0xbd6a1cb7	-0.05715629
17	0xbef3eb9a	-0.47640687
18	0x3e4a3ec4	0.19750506
19	0xbda93796	-0.08262555
20	0xbdba0386	-0.09082703
21	0xbe1bbb73	-0.15208225
22	0xbe78feec	-0.24315995
23	0xbd3068a8	-0.043068558
24	0x3e27bccb	0.16380613
25	0xbe35991b	-0.17734186
26	0xbf026476	-0.5093454
27	0x3ed38258	0.41310382
28	0x3ec35c18	0.381562
29	0x3a9773c0	0.0011554882
30	0xbeed824c	-0.4638847
31	0x3d629d1a	0.055325605
32	0x3fe49dd8	1.786067
33	0xbeeb4152	-0.45948273
34	0x3e36a46c	0.1783616
35	0xbc3ae7bc	-0.011407789
36	0x3e926238	0.2859056
37	0xbf0f7e07	-0.5605168
38	0x3cf2a22b	0.029618343
39	0x3e158199	0.14600219
40	0xbe30697a	-0.17227736
41	0x3e12c693	0.14333563
42	0xbc4a6250	-0.012352541
43	0xbd7d5d64	-0.061856642
44	0xbd746f90	-0.059676707
45	0xbc9a3d3c	-0.018828027
46	0xbe690ba8	-0.22758353
47	0xbc4460be	-0.011985956
48	0xbdc186d8	-0.094495475
49	0x3deffc5f	0.11718058
50	0x3eab23de	0.33425802
51	0x3db457f2	0.08805837
52	0xbe44c428	-0.19215453
53	0x3de41b9e	0.1113808
54	0xbdc759ec	-0.09733948
55	0xbd18466b	-0.03717653
56	0xbdd77ce9	-0.105218716
57	0xbc80b78b	-0.01571252
58	0x3cf0d27d	0.029397244
59	0x3e9e3585	0.30900207
60	0x3e8bb745	0.2728826
61	0x3e487e5e	0.19579455
62	0xbd4d98a6	-0.050194405
63	0xbe88a562	-0.26688677
64	0xbd5340d6	-0.051575504
65	0x40a9f117	5.31068
66	0xbf8c9054	-1.0981545
67	0x3dc71091	0.09719957
68	0xbe85ba33	-0.2611862
69	0xbef27661	-0.4735594
70	0xbeac656c	-0.3367113
71	0xbf196efb	-0.5993497
72	0x3e3a28b1	0.18179585
73	0xbec611b5	-0.38685384
74	0xbde27889	-0.110581465
75	0x3f2e1fab	0.6801707
76	0xbe182c7d	-0.14860721
77	0x3e575e0f	0.21031974
78	0xbe99385b	-0.29925808
79	0x3f18a2a7	0.5962319
80	0x3f1c7394	0.6111386
81	0xbe85c94c	-0.2613014
82	0xbd8d1a5c	-0.06889793
83	0x3f02a967	0.5103974
84	0x3f61125b	0.87918633
85	0xbf070a01	-0.5274964
86	0x3ec9f4ca	0.39444572
87	0xbd4868cd	-0.04892807
88	0x3e5ebc88	0.21751606
89	0xbe06cca6	-0.13164005
90	0xbd500fe7	-0.050796416
91	0x3e603167	0.21893845
92	0x3e2fdbdd	0.17173715
93	0x3f5d3d94	0.86422086
94	0x3e32a863	0.17447047
95	0xbb4d1260	-0.003129147
96	0xbf553b40	-0.83293533
97	0x3ca7ff98	0.020507619
98	0xbe93fe5c	-0.28904998
99	0x3dd127cc	0.10212669
100	0xbeddbf0d	-0.43309823
101	0x3e9ad974	0.3024403
102	0xbf0c1dba	-0.5473286
103	0xbec9d84c	-0.39422834
104	0xbecea49c	-0.40359962
105	0xbd0ea4a4	-0.034824982
106	0xbe1eb2c3	-0.1549788
107	0xbf1eee1b	-0.6208207
108	0x3c97f896	0.018551152
109	0x3e628b5e	0.22123477
110	0xbd50e947	-0.05100372
111	0xbdac2bbd	-0.0840678
112	0x3e5099b4	0.20371133
113	0x3ead0191	0.33790258
114	0xbedd01ab	-0.43165335
115	0x3e847617	0.25871345
116	0xbf1b2324	-0.60600495
117	0xbd1d5b57	-0.038417187
118	0xbebcc6b5	-0.3687035
119	0xbd98d659	-0.074627586
120	0xbe641f27	-0.22277509
121	0xbe8479c2	-0.25874144
122	0x3e81061a	0.25199968
123	0x3e044450	0.12916684
124	0x3e3c9665	0.18416746
125	0xbe871744	-0.26384938
126	0x3f8299d5	1.0203196
127	0xbdcfa936	-0.10139696
128	0x3d7d1bf0	0.06179422
129	0xbf6be6d8	-0.92149115
130	0xbce0dde0	-0.027449548
131	0x401c09c9	2.4380972
132	0x3ed9e804	0.42559826
133	0x3d557b6b	0.052119654
134	0x3ea07c46	0.31344813
135	0xbf67caad	-0.90543634
136	0xbe727488	-0.23677266
137	0xbcccf4e5	-0.025019119
138	0xbdcd6d8f	-0.10030662
139	0x3e93f1bd	0.2889537
140	0x3f7cb262	0.9870969
141	0xbe863a0d	-0.26216164
142	0x3e94296c	0.28937852
143	0xbe20b323	-0.15693335
144	0xbe43e5b5	-0.19130595
145	0xbe815c88	-0.25265908
146	0x3e5eec3f	0.21769808
147	0xbd04cfd0	-0.032424748
148	0xbebcb9ec	-0.36860597
149	0x3e76ac46	0.24089155
150	0x3dfd8969	0.123797245
151	0xbe252b9e	-0.1612992
152	0xbde35d3b	-0.11101767
153	0xbe491b75	-0.1963938
154	0xbe8cab33	-0.27474365
155	0xbe1a5aa1	-0.15073635
156	0xbba3af53	-0.0049952655
157	0x3e5c6dfd	0.21526332
158	0x3ee0d010	0.4390874
159	0x3fe14bf5	1.7601305
160	0xbd0988f5	-0.033577878
161	0x3ca6f550	0.020380646
162	0xbfdca1a9	-1.7236835
163	0xbd4fe138	-0.050751895
164	0xbf2e5e46	-0.681126
165	0xbf248f96	-0.64281595
166	0x3f15924e	0.5842637
167	0x3e98d1d6	0.29847592
168	0xbea9088e	-0.3301434
169	0xbecfe4ed	-0.40604344
170	0x3f2221b0	0.63332653
171	0x3f3c2da7	0.7350716
172	0x3d76e52e	0.060277157
173	0xbecc839b	-0.39944157
174	0x3cb8ec6f	0.022573678
175	0x3dc5132a	0.09622796
176	0xbe3ef113	-0.1864665
177	0xbcad31ba	-0.021141876
178	0x3e92993e	0.2863254
179	0x3d43f0be	0.04783701
180	0x3e86c783	0.2632409
181	0xbe5c64c6	-0.21522817
182	0xbf282dc3	-0.65694827
183	0x3e71e1ee	0.23621342
184	0x3dd6af22	0.10482623
185	0x3df24717	0.118299656
186	0x3d30f3eb	0.04320137
187	0xbdb16b3b	-0.08663031
188	0x3cafed7e	0.02147555
189	0x3d94961b	0.07255193
190	0x3da30726	0.07960348
191	0xbd4aea8a	-0.04954008
192	0x3f99f90d	1.2029129
193	0xbef68512	-0.481484
194	0x3cdd7be0	0.027036607
195	0xbf91b98b	-1.1384748
196	0xbb857810	-0.0040731505
197	0xbd554487	-0.052067306
198	0x3d5d2c39	0.053997252
199	0x3dcdbc6b	0.100457035
200	0xbf9c732b	-1.2222646
201	0xbf4493a5	-0.7678779
202	0x3cf6c5a9	0.030123549
203	0x3eb81dc6	0.35960215
204	0x3cad75ee	0.021174397
205	0x3e3379c6	0.17526922
206	0x3f3b7b22	0.7323476
207	0xbeb7f5d4	-0.3592974
208	0xbe86d61f	-0.26335236
209	0xbd48d9fa	-0.049036004
210	0xbe1d3c4c	-0.15355033
211	0xbeac9b89	-0.33712414
212	0x3dae71c5	0.085177936
213	0x3ec139c5	0.37739387
214	0x3f1c9b91	0.61174875
215	0x3d93ceb4	0.0721716
216	0x3e0cdda4	0.13756424
217	0x3d3c2281	0.045931343
218	0x3cc330d9	0.023827003
219	0x3eed1d1e	0.46311277
220	0xbe1ab396	-0.15107569
221	0x3ed3bcbd	0.41354933
222	0xbe1d0085	-0.1533223
223	0x3e508507	0.20363246
224	0x3e1c162a	0.1524283
225	0x3fbd0bdf	1.4769248
226	0x3e2da1c4	0.1695624
227	0x3d5ed8ea	0.054406084
228	0xbfc17acf	-1.5115603
229	0xbd1f0c7a	-0.038830258
230	0x3fdc075f	1.718975
231	0x3cdfc3af	0.027314989
232	0x3f4b6946	0.7945751
233	0x3f47f18b	0.7810294
234	0xbf4136e4	-0.7547438
235	0xbe54c58f	-0.20778488
236	0x3e20376a	0.15646139
237	0x3ec82b83	0.39095697
238	0xbd26404d	-0.040588666
239	0xbe86dd40	-0.26340675
240	0x3e914377	0.28371784
241	0x3d85da4e	0.06535779
242	0x3d3e61f7	0.046480145
243	0xbf0b0e6c	-0.5431888
244	0xbeade44d	-0.33963242
245	0x3cb65cc2	0.022261027
246	0xbef4e293	-0.47829112
247	0xbe91e03f	-0.284914
248	0xbdf81640	-0.12113619
249	0xbe035110	-0.12823892
250	0xbdecaed0	-0.1155678
251	0x3ca02992	0.019551072
252	0x3abf2bb0	0.0014585163
253	0x3ce59b98	0.028028294
254	0xbd939651	-0.07206405
255	0x3d71d8cc	0.059044644

fcs1.bias f4 [256]
0	0xbefb95ca	-0.49137717
1	0xbe9e10e2	-0.30872256
2	0xbf2d1385	-0.6760791
3	0xbf844874	-1.0334611
4	0xbfd19726	-1.6374252
5	0xbf93649a	-1.1515076
6	0xbfd1de9a	-1.6396058
7	0xbf977ad6	-1.1834362
8	0xbf3c8a4d	-0.7364853
9	0xbf1b389e	-0.60633266
10	0xbfdecd74	-1.7406449
11	0xbfc9c013	-1.5761741
12	0xbf820508	-1.0157785
13	0xbf60224a	-0.8755232
14	0x3f8b8535	1.0900027
15	0xbf9a46fd	-1.2052914
16	0xbfcab67c	-1.583694
17	0xbfdd43f4	-1.7286363
18	0xbf9196cd	-1.1374146
19	0xbfe05e8c	-1.7528853
20	0xbf5a2d3a	-0.8522526
21	0xbdda6763	-0.10664251
22	0xbfd7e0c8	-1.6865473
23	0xbfb268e8	-1.3938265
24	0xbec98f30	-0.39367056
25	0xbf635d2d	-0.8881405
26	0xbed3ead7	-0.41390106
27	0xbfc0e119	-1.5068694
28	0xbf0f89fa	-0.5606991
29	0xbfe04562	-1.7521174
30	0xbfdfa966	-1.7473571
31	0x3f8dd6f2	1.1081221
32	0xbfb8d643	-1.4440387
33	0xbfe972a4	-1.823811
34	0xbf464450	-0.77447987
35	0xbfbbac01	-1.4661866
36	0xbf587c39	-0.8456455
37	0xbff01712	-1.875704
38	0xbfb96e87	-1.4486855
39	0x3e9facc6	0.31186503
40	0xbfdefd74	-1.7421098
41	0xbfea7f7a	-1.8320153
42	0xbff6399e	-1.9236333
43	0xbfa48300	-1.2852478
44	0xbfd1a09e	-1.6377141
45	0xbf63ca4a	-0.88980544
46	0xbf2a271c	-0.66465926
47	0x3fadb069	1.3569461
48	0xbfe17389	-1.7613384
49	0xbfbab152	-1.4585364
50	0xbf8fc800	-1.123291
51	0xbf6ba079	-0.92041737
52	0x3f0cdbba	0.55022776
53	0xbf96f1ad	-1.1792504
54	0xbeceab6c	-0.4036516
55	0xbfed66b7	-1.8546971
56	0xbf264194	-0.64943814
57	0xbfff8a85	-1.9964148
58	0xbfd1ac64	-1.6380734
59	0xbf9090c2	-1.1294177
60	0xc0058bbd	-2.086654
61	0xbf900b4b	-1.1253446
62	0x3f38c555	0.72176105
63	0xbcf773a4	-0.030206509
64	0xbfef232c	-1.8682609
65	0xbe6595f9	-0.22420491
66	0xbf62c0d1	-0.88575464
67	0xc0009fb1	-2.0097468
68	0xbf411cf7	-0.7543482
69	0xbf81a39f	-1.0128058
70	0x3fa17da9	1.2616473
71	0xbf46ae61	-0.7760983
72	0xbf89fe92	-1.0780814
73	0xbfa2f76f	-1.2731761
74	0xbfc42f73	-1.532698
75	0xbfcd5765	-1.6042296
76	0xbe420ef5	-0.18951018
77	0xbf866f27	-1.0502671
78	0xbf862df3	-1.0482773
79	0xbf4ee76d	-0.8082188
80	0xbfdc2905	-1.7200018
81	0xbff27112	-1.8940756
82	0xbf82143b	-1.0162424
83	0xbfee1cd3	-1.8602546
84	0xbfeb15f7	-1.8366078
85	0x3dbad339	0.09122319
86	0xbf5c3756	-0.86021936
87	0xbfe97855	-1.8239847
88	0xbfc53cae	-1.5409143
89	0xbfa7e2f0	-1.3116131
90	0xbf691129	-0.9104181
91	0xbfcfb9ea	-1.6228611
92	0xbf7eca07	-0.9952702
93	0x3fdc34d3	1.7203621
94	0xbf9c977e	-1.2233732
95	0xbf802581	-1.0011445
96	0xbff0b042	-1.880379
97	0xbf6969f4	-0.91177297
98	0x3f093b4d	0.5360611
99	0xbf8ef530	-1.1168575
100	0xbeb4bc96	-0.3530013
101	0xbfeb3cba	-1.8377907
102	0xbf81d937	-1.0144414
103	0x3fa8b8a9	1.3181354
104	0xbfedf8f9	-1.8591605
105	0xbf08a274	-0.53372884
106	0xbfe4767a	-1.7848656
107	0xbf5e12f7	-0.8674769
108	0xbfa6cd1f	-1.3031348
109	0xbfdcbc45	-1.7244955
110	0xbfb2d7ef	-1.3972148
111	0xbf3f0ed4	-0.74632
112	0xbfdac7cf	-1.7092227
113	0xbf4589ed	-0.77163583
114	0xbfcb6dec	-1.589292
115	0xbf6e896a	-0.9317843
116	0xbfbf99d5	-1.4968821
117	0xbf8c5277	-1.0962666
118	0xbfbc7562	-1.4723322
119	0xbfa3efbf	-1.280754
120	0xbf1e7818	-0.61902
121	0xbf0860da	-0.53272784
122	0xbf4be7e4	-0.7965071
123	0xbfc8e695	-1.5695368
124	0xbd2bf2da	-0.04197965
125	0xbfa58038	-1.2929754
126	0xbfff57bd	-1.9948651
127	0xbfdac792	-1.7092154
128	0xbf87cd52	-1.0609534
129	0xbfb4303a	-1.4077218
130	0xc003f88a	-2.0620446
131	0xbfe37c3a	-1.7772286
132	0xbfd3aa49	-1.6536342
133	0xbf9963c3	-1.198357
134	0x3f2ee5e9	0.68319565
135	0xc0002eb7	-2.0028512
136	0xbf8586f1	-1.0431806
137	0xbfa80b21	-1.3128396
138	0xbff6c32d	-1.9278313
139	0xbfe216f4	-1.7663255
140	0xbf9f2448	-1.2432947
141	0xbf985d74	-1.190352
142	0xbf2ab5a7	-0.6668343
143	0xbf8515bf	-1.0397261
144	0xbfb5216b	-1.4150823
145	0xbfe90a54	-1.8206277
146	0xbf8053a5	-1.0025526
147	0xbf6fa085	-0.9360431
148	0xbfae2d31	-1.3607541
149	0xbfdb80c5	-1.7148672
150	0x3e969c1d	0.2941598
151	0xbf0297bf	-0.51012796
152	0xc00a6e3b	-2.162978
153	0xbf865d04	-1.0497136
154	0xbfa57d15	-1.2928797
155	0xbf34c1cf	-0.7060823
156	0xbfd1b221	-1.6382486
157	0xbfb1da13	-1.3894676
158	0xbfb1823d	-1.386787
159	0xbf47c50f	-0.7803506
160	0x3ef5645c	0.4792813
161	0xbf8eb27d	-1.114822
162	0xbfe07b24	-1.753758
163	0xbf4c2a35	-0.797519
164	0xbfbaf77c	-1.4606776
165	0xbf82891d	-1.0198094
166	0xc00f5e36	-2.2401252
167	0xbfe10791	-1.7580434
168	0xbf7cbb37	-0.9872317
169	0xbf864307	-1.0489205
170	0xbfc1fca0	-1.515522
171	0xbf26ea9d	-0.6520174
172	0xbfc8ca10	-1.5686665
173	0xbfc63bf2	-1.5487044
174	0xbfed849b	-1.8556093
175	0xbfc4a0a1	-1.536152
176	0xbfc78d4a	-1.5589993
177	0xc0034c34	-2.051526
178	0xbf826b7e	-1.0189054
179	0xbffbdbcb	-1.967645
180	0xbe8781c5	-0.26466194
181	0xbf529053	-0.8225147
182	0xbf7ca6ef	-0.9869222
183	0x3e8025f1	0.25028947
184	0xbfc5d75d	-1.5456349
185	0xbff3a5dc	-1.9034991
186	0xbfddb18a	-1.7319806
187	0xbfacec14	-1.3509545
188	0xbf4ecfaa	-0.8078562
189	0xbfd3e27c	-1.6553493
190	0xbfd7959e	-1.6842535
191	0xbf6b38ba	-0.9188343
192	0xbfa230f3	-1.2671188
193	0x3f634063	0.8877012
194	0xbf29e9be	-0.6637229
195	0xbfc686de	-1.5509908
196	0xbfdb357f	-1.7125701
197	0xbfce1c6b	-1.6102422
198	0xbf94ee53	-1.1635231
199	0xbf9f8270	-1.2461681
200	0xbfee3cb8	-1.861228
201	0xbf858074	-1.0429826
202	0xbf5f261c	-0.87167525
203	0xbfa2d359	-1.2720748
204	0xbfe724bd	-1.8058087
205	0xbfbdc699	-1.4826232
206	0xbf80aa05	-1.0051886
207	0xbfe748ce	-1.8069093
208	0xbfa56c74	-1.2923722
209	0xbfa61e48	-1.2977991
210	0xbf1798a5	-0.5921729
211	0xbf96f4bb	-1.1793436
212	0xc0051119	-2.0791686
213	0xbfff6950	-1.9954014
214	0xc00df018	-2.2177792
215	0xbfe67ceb	-1.8006872
216	0xbf6b24b6	-0.9185289
217	0xbfa19c95	-1.262591
218	0xbfb49a59	-1.4109603
219	0xbef86d15	-0.48520723
220	0xbf14538e	-0.57939994
221	0xbffe8df4	-1.9887071
222	0xbcc11317	-0.023568673
223	0xbfe4df98	-1.7880735
224	0x3fc1567e	1.510452
225	0xc00ff914	-2.2495775
226	0xbf865b61	-1.0496637
227	0xbfa0b7f2	-1.2556136
228	0xbfe88d7e	-1.816818
229	0xbfb99c94	-1.4500909
230	0xbf3f8e25	-0.7482627
231	0xbfc8ea23	-1.5696453
232	0xbfbdceee	-1.4828775
233	0xbf79d4e2	-0.9759046
234	0xbdbcd306	-0.09219937
235	0xbfbc1f34	-1.4697022
236	0xbf24d906	-0.6439365
237	0xbf9aebaa	-1.2103169
238	0xbf5e4eb0	-0.8683882
239	0xbf3c0150	-0.734395
240	0x3f6b4663	0.91904277
241	0xbfa32353	-1.2745155
242	0xbfb8486e	-1.4397104
243	0xbea9f14e	-0.33191913
244	0xbfe0e646	-1.7570274
245	0xbf7ea644	-0.9947245
246	0xbfb78b6c	-1.4339423
247	0xbfa09378	-1.2545004
248	0xbfc1559b	-1.510425
249	0xc006e263	-2.1075675
250	0xbfd8b214	-1.6929345
251	0xbfc439c3	-1.5330127
252	0xc0098c69	-2.149195
253	0xbfa539fd	-1.2908322
254	0xbfd31575	-1.6490923
255	0xbf5d9e46	-0.8656963

fc2.weight f4 [256, 260]
0	0xbe0b4763	-0.1360145
1	0x3d950390	0.0727607
2	0xbe6641fa	-0.22486106
3	0x3e273790	0.16329789
4	0x3e9967bc	0.29961956
5	0x3de16fd0	0.11007655
6	0xbd845499	-0.06461448
7	0xbdbbb0e4	-0.091645986
8	0x3e1fe3b8	0.15614212
9	0xbe05829f	-0.13038109
10	0x3dc1c62d	0.09461627
11	0x3e677272	0.22602251
12	0xbca8b6f8	-0.020595059
13	0xbe230c1e	-0.15922591
14	0xbeb9952b	-0.3624662
15	0xbda86aeb	-0.08223518
16	0x3c0ddc8a	0.008658538
17	0xbc8f0eda	-0.017463136
18	0xbdccc597	-0.09998625
19	0x3ebdaf8f	0.37048003
20	0xbe0a600b	-0.135132
21	0xbe93b2d7	-0.2884738
22	0x3ea5aa93	0.323567
23	0x3e234828	0.15945494
24	0xbdcd2e54	-0.10018602
25	0xbe5b74f9	-0.2143134
26	0x3e89dfab	0.26928458
27	0x3ec55a31	0.38545373
28	0x3ed95358	0.424464
29	0xbe65a3be	-0.22425744
30	0x3edd06e2	0.43169314
31	0xbefef17f	-0.49793622
32	0x3da4b8f2	0.08043088
33	0x3e164367	0.1467415
34	0xbea80658	-0.3281734
35	0xbbafef7a	-0.005369124
36	0x3eb388a4	0.35065186
37	0x3e0f4722	0.13991979
38	0x3e967286	0.2938425
39	0xbefb3481	-0.49063495
40	0x3e4bd023	0.19903617
41	0x3e7928c1	0.24331953
42	0x3f41df90	0.75731754
43	0x3c4939b8	0.012281828
44	0x3ea55e2c	0.3229841
45	0x3dddb2bf	0.10825109
46	0xbe9a69a7	-0.3015873
47	0xbf5d830f	-0.86528105
48	0x3dbf0089	0.09326274
49	0xbd992135	-0.07477037
50	0x3e679eaf	0.22619127
51	0x3e68efb0	0.22747684
52	0x3d840d6e	0.06447874
53	0x3e7c3a9e	0.24631736
54	0xbe1d43fb	-0.15357964
55	0x3d4bc72b	0.04975049
56	0xbe99d408	-0.3004458
57	0x3ed7847e	0.4209327
58	0x3ead0b1d	0.3379754
59	0xbd9b5e43	-0.07586338
60	0x3e0479eb	0.12937133
61	0xbe9c4194	-0.30518782
62	0xbe53161e	-0.20613906
63	0xbd91223e	-0.07086609
64	0x3f3ab9f3	0.72939986
65	0xbe2dfc5a	-0.16990796
66	0xbcff742a	-0.031183321
67	0x3eecd5b6	0.46256799
68	0x3e4a5a17	0.19760929
69	0xbf10ab66	-0.56511533
70	0xbf2b04f0	-0.6680441
71	0xbe294399	-0.16529693
72	0xbca8f089	-0.020622509
73	0xbc7225fe	-0.014779566
74	0xbe4e3c70	-0.20140243
75	0x3eb30a2a	0.34968692
76	0x3d8c216b	0.068423115
77	0xbe80086d	-0.25006428
78	0xbe212214	-0.15735656
79	0xbd43503a	-0.047683932
80	0x3d9a73ec	0.075416416
81	0x3ea04ac4	0.31307042
82	0xbe6d9f46	-0.23205289
83	0x3eac4c82	0.3365212
84	0x3e1021e1	0.14075424
85	0xbe042754	-0.12905627
86	0xbe73a7a3	-0.23794417
87	0xbdee79ef	-0.11644351
88	0x3d7ad49d	0.06123792
89	0x3eaa2dcf	0.33238074
90	0x3cdf21c6	0.027237784
91	0x3edd5a7c	0.43233097
92	0x3d338fd1	0.043838326
93	0xbf426f7d	-0.7595137
94	0x3d799ec4	0.060942426
95	0x3f00fc3f	0.50384897
96	0x3e855362	0.2604018
97	0xbd9bf766	-0.07615547
98	0xbed24436	-0.41067666
99	0xbc0328d2	-0.008005338
100	0xbe0c73f8	-0.13716114
101	0x3f305eb6	0.6889452
102	0x3e60a985	0.21939667
103	0xbec674a2	-0.3876086
104	0x3d970925	0.07374791
105	0x3ee6726b	0.4500917
106	0x3f0a1650	0.53940296
107	0xbed8c229	-0.42335632
108	0x3e650e19	0.22368659
109	0x3c82cee4	0.015967794
110	0x3c9b5252	0.018960152
111	0xbd850ae7	-0.0649622
112	0x3ecf82fc	0.4052962
113	0xbe1217e8	-0.14266932
114	0x3e26c623	0.1628652
115	0xbe9a4164	-0.30128014
116	0xbe9efbea	-0.3105157
117	0xbe794bd0	-0.24345326
118	0x3f0e686b	0.5562808
119	0x3d8099d7	0.062793426
120	0xbe0ebcbf	-0.13939188
121	0xbe221cb5	-0.15831263
122	0xbe7fcff3	-0.2498167
123	0x3e4edb83	0.20200925
124	0xbe87c6c0	-0.26518822
125	0x3e2308d6	0.1592134
126	0x3eedabda	0.46420175
127	0x3d4c5d90	0.049893916
128	0x3c0f5d85	0.008750324
129	0x3c124eae	0.0089298915
130	0x3e9b9dde	0.3039388
131	0x3ebed434	0.37271273
132	0x3ecd4f3c	0.40099514
133	0x3e662554	0.22475177
134	0xbe5042ad	-0.20337935
135	0x3e463466	0.19355926
136	0xbe42874e	-0.18996927
137	0x3df5c370	0.12000167
138	0x3ed522dd	0.4162816
139	0x3da12169	0.078677006
140	0xbf1e2415	-0.61773807
141	0x3b4e7b28	0.0031506512
142	0xbea07c3f	-0.31344792
143	0x3eae3ace	0.3402924
144	0x3cb5dbd7	0.022199554
145	0x3edba5ae	0.4289984
146	0xbe9a1efd	-0.30101767
147	0x3d4a6f6a	0.04942266
148	0xbe09d37e	-0.13459584
149	0xbe026e94	-0.12737495
150	0xbdc0ff24	-0.09423664
151	0xbe235204	-0.15949255
152	0x3ec6705e	0.38757604
153	0xbe866e58	-0.2625606
154	0xbc08397a	-0.008314485
155	0xbe4391b0	-0.19098544
156	0x3e04b837	0.12960897
157	0x3da5f332	0.081030264
158	0xbe9e41a6	-0.3090946
159	0xbda397c3	-0.079879306
160	0xbc93e137	-0.018051727
161	0x3eaace7e	0.33360666
162	0x3edfe4cc	0.43729246
163	0xbd083815	-0.03325661
164	0x3ea5da52	0.32393128
165	0xbd57b8ee	-0.052666597
166	0x3f36c5e8	0.7139573
167	0xbcbdda9c	-0.02317553
168	0xbdd87299	-0.10568733
169	0xbe0448eb	-0.12918441
170	0xbc763f8c	-0.015029799
171	0x3dbf4e8f	0.09341156
172	0x3e68fc8c	0.22752589
173	0x3f241277	0.64090675
174	0x3ef95fcb	0.48705897
175	0x3dc20ea7	0.09475451
176	0x3eb49f84	0.3527795
177	0x3dd71a4a	0.10503061
178	0xbe920866	-0.28522032
179	0x3e87b645	0.26506248
180	0xbdd9bc70	-0.10631645
181	0xbdaacf3c	-0.08340308
182	0xbec5baa0	-0.38618946
183	0x3de28efc	0.11062428
184	0x3d826836	0.06367533
185	0x3f213f55	0.6298726
186	0x3e80a1a6	0.25123328
187	0x3f08f9af	0.53505987
188	0x3ed03a67	0.40669557
189	0x3e8803de	0.2656545
190	0xbcc52fe2	-0.024070684
191	0xbcefc82b	-0.029270252
192	0x3c7325d3	0.014840561
193	0xbea5c34e	-0.32375568
194	0xbd39be30	-0.045347393
195	0x3ef89bcc	0.48556364
196	0x3d369e61	0.044584636
197	0x3e850958	0.2598369
198	0xbec8e777	-0.39239094
199	0x3d0d63ac	0.034518883
200	0x3e407c8e	0.18797514
201	0xbe45e71b	-0.19326441
202	0xbd06a498	-0.032871813
203	0xbe595b33	-0.21226196
204	0x3ea323c5	0.31863227
205	0x3dc6be7b	0.097043
206	0xbd8df51f	-0.06931519
207	0x3e794109	0.24341215
208	0x3e35228d	0.17688961
209	0x3e1252b9	0.14289369
210	0xbd809e30	-0.06280172
211	0x3e640c93	0.22270422
212	0x3f0538dd	0.5203989
213	0x3ebf8eac	0.37413538
214	0x3f2cce5f	0.675024
215	0x3eac809c	0.3369187
216	0x3c21a2e8	0.0098655
217	0x3e4f9119	0.20270194
218	0xbec14d69	-0.37754372
219	0xbeabf58e	-0.3358578
220	0xbb5ebc89	-0.0033986887
221	0x3eaadd0f	0.3337178
222	0xbe180f81	-0.14849664
223	0x3de0ef5d	0.10983155
224	0xbf4cac0e	-0.79950035
225	0x3f2b5c8e	0.669381
226	0xbd1b1ee7	-0.037871268
227	0xbc1afe76	-0.009460082
228	0x3e524457	0.20533882
229	0x3e2212b0	0.15827441
230	0xbe75eb8e	-0.24015638
231	0xbca8d854	-0.020610966
232	0xbdbaa445	-0.09113363
233	0xbd1fe695	-0.03903826
234	0xbe237a60	-0.15964651
235	0x3e81dd2a	0.25364047
236	0x3d3990a6	0.045303963
237	0xbe01f0a5	-0.12689455
238	0x3cbbb58e	0.02291372
239	0xbcbe7aaf	-0.02325186
240	0xbefe4ed6	-0.49669522
241	0xbd06c1af	-0.032899555
242	0x3dd00f4d	0.101591684
243	0x3d8d015c	0.06885025
244	0x3f0549dc	0.52065825
245	0xbc20a801	-0.00980568
246	0x3ee909b0	0.45515203
247	0x3e89c36e	0.26906914
248	0x3eb4c386	0.35305423
249	0x3f7fe6f0	0.9996176
250	0x3e16f3e3	0.14741473
251	0x3e499383	0.19685178
252	0x3f3898d3	0.7210819
253	0x3cc0ef69	0.02355166
254	0xbd0dd0a1	-0.034622792
255	0xbf0486a3	-0.5176794

fc2.bias f4 [256]
0	0xc00f4f74	-2.2392244
1	0xbfd16806	-1.635987
2	0x3eff93ed	0.49917546
3	0x3e6281c0	0.22119808
4	0xc01d369f	-2.4564588
5	0xbf873a34	-1.0564637
6	0xc01db695	-2.464269
7	0x3f61b5c8	0.88168
8	0xc01ca74e	-2.4477115
9	0xbec05ad5	-0.375693
10	0xbfbba103	-1.4658512
11	0x3f468c85	0.77558166
12	0xbf86ce18	-1.0531645
13	0x3f65ed7a	0.89815485
14	0xc0246c68	-2.5691166
15	0xbfc4605f	-1.534191
16	0xbffc2b60	-1.9700737
17	0xbe2f1d09	-0.1710092
18	0xbf569a07	-0.8382878
19	0xbfbb2362	-1.4620173
20	0xc022f238	-2.5460339
21	0xbdc65d00	-0.09685707
22	0xbe444682	-0.19167522
23	0xc01e9e73	-2.478421
24	0xc00c6af3	-2.1940277
25	0xbf556ccd	-0.8336914
26	0xc0043e08	-2.066286
27	0x3ec7a84c	0.38995588
28	0xc00962cc	-2.146655
29	0xbfa7970e	-1.3092973
30	0xbebfac2c	-0.37436044
31	0x3f119703	0.5687105
32	0x3edbc668	0.4292481
33	0xbeff0741	-0.49810222
34	0xbfb08a1a	-1.3792145
35	0xbeeed722	-0.46648508
36	0x3f43c66d	0.7647465
37	0xbfbacf0f	-1.4594439
38	0xbff59d17	-1.9188565
39	0x3fbec8d7	1.4905041
40	0xbf4d7f50	-0.8027239
41	0xbedbeca4	-0.4295398
42	0xbfacb5a0	-1.3492928
43	0x3f96746a	1.1754277
44	0xbf626ba5	-0.884455
45	0xbfd95f00	-1.6982117
46	0xbfd3d5d9	-1.6549636
47	0xc0212751	-2.5180247
48	0xc016d035	-2.356458
49	0xc0290e91	-2.641514
50	0xbf2dd26d	-0.6789921
51	0xbfb18b1b	-1.3870577
52	0xbf95e901	-1.1711732
53	0x3e8248b2	0.25446087
54	0x3ee28f29	0.44249848
55	0xbf79f690	-0.9764185
56	0xc01ade26	-2.4198089
57	0xbf98cda1	-1.1937753
58	0xbeb23359	-0.348048
59	0xbf0e6a4d	-0.5563095
60	0x3ea192f8	0.3155744
61	0x3f31b5e5	0.69418174
62	0xbede5919	-0.4342735
63	0x3f895ab4	1.0730805
64	0xc0081762	-2.1264272
65	0xc01f6e27	-2.4910982
66	0xbe8f4c5f	-0.27987954
67	0xbe705569	-0.23470081
68	0xc0074ccd	-2.1140625
69	0x4004a426	2.0725188
70	0xc02622f5	-2.5958836
71	0xbf97949a	-1.1842225
72	0xbe546ef7	-0.20745455
73	0xc02028c3	-2.502488
74	0xbfbf0ba4	-1.4925427
75	0xc0208bda	-2.5085359
76	0xbff26ffb	-1.8940424
77	0xbe78ae5c	-0.24285263
78	0xbf939e22	-1.1532633
79	0xc0195fb3	-2.396466
80	0xc022b896	-2.5425162
81	0xbfe85a6b	-1.8152593
82	0xc0290755	-2.6410725
83	0xc01c5831	-2.4428828
84	0xbf9b97ac	-1.2155662
85	0xbfafba2f	-1.3728694
86	0xc01d5b8c	-2.4587126
87	0xc004ef53	-2.0771072
88	0xbfc91e76	-1.5712421
89	0x3e9032ae	0.28163666
90	0xbfce2410	-1.6104755
91	0xc01fabac	-2.494853
92	0xbfa54031	-1.2910215
93	0xc0087f5e	-2.1327739
94	0xbfa7ab7e	-1.309921
95	0x3efd560e	0.49479717
96	0xbfea7355	-1.8316447
97	0xbf5d0f79	-0.86351734
98	0xc022e755	-2.5453694
99	0xbca3e8f2	-0.020008538
100	0xbe81df8d	-0.25365868
101	0xc028fb8c	-2.6403532
102	0xbf0dd7e9	-0.5540758
103	0xc007832a	-2.1173806
104	0xc005f487	-2.0930498
105	0xbf1f330c	-0.62187266
106	0xbee2b9ff	-0.4428253
107	0xbe0680d8	-0.13135087
108	0xbef7197d	-0.48261634
109	0xbe387e75	-0.1801699
110	0xbfce5e19	-1.6122466
111	0xc01e7a8f	-2.4762304
112	0xbfe96fd3	-1.8237251
113	0xbfc28e2f	-1.5199641
114	0xc01ca47a	-2.4475389
115	0xbf0f8861	-0.5606747
116	0xbf16065a	-0.5860344
117	0xbf6505cd	-0.89461976
118	0x3e57d953	0.21078996
119	0xbf1d3e95	-0.6142362
120	0xbfcc49e0	-1.5960045
121	0xbfe546c4	-1.7912221
122	0xbea7f671	-0.32805207
123	0xbff5fa73	-1.9217056
124	0xbff191d0	-1.8872623
125	0xbfdc0259	-1.7188216
126	0xc01dc410	-2.4650917
127	0xbe82a945	-0.25519767
128	0xc00fa9da	-2.244742
129	0xbeb332ca	-0.34999686
130	0xbf2679f5	-0.6502984
131	0xbefc9969	-0.49335793
132	0xc0256b41	-2.5846713
133	0xbf02f2d9	-0.51151806
134	0x3edf12e8	0.43569112
135	0x3f117cdd	0.5683115
136	0xbf829008	-1.0200205
137	0xbf5b8314	-0.85746884
138	0xbf155267	-0.5832886
139	0xbf3379b9	-0.7010761
140	0xbff7a47c	-1.9347072
141	0xbdcd5155	-0.100252785
142	0xbd2b1878	-0.041771382
143	0x3f97da24	1.1863446
144	0xbfed428f	-1.8535937
145	0xbf849e0c	-1.0360732
146	0xc0242d83	-2.5652778
147	0x3f2dcc8c	0.6789024
148	0xbdaaf3d5	-0.083472885
149	0xbf93f3f6	-1.1558826
150	0xc002db97	-2.0446527
151	0xbfdf4114	-1.7441735
152	0x3e8e8102	0.278328
153	0xbfcb69e5	-1.5891691
154	0xbfd65df1	-1.6747419
155	0x3eb34f19	0.35021284
156	0xbfc9fd96	-1.5780513
157	0xc02556d6	-2.583425
158	0xbf713c9f	-0.94233125
159	0xc0124880	-2.285675
160	0xbff5d334	-1.9205079
161	0xbfc96c6e	-1.5736215
162	0xbed7f80d	-0.42181435
163	0xbe45d4c7	-0.1931945
164	0xbfdbaeda	-1.7162735
165	0xbde52bb5	-0.11189977
166	0x3dacd20a	0.08438499
167	0xc01de366	-2.4670043
168	0xbfd0c519	-1.631015
169	0xbfe57791	-1.7927114
170	0xbf5b29be	-0.8561057
171	0xbfcffd5d	-1.6249195
172	0xbedd19af	-0.43183658
173	0xc01f518e	-2.4893527
174	0xbfc3ab0f	-1.5286578
175	0xbdbfde54	-0.093685776
176	0xc01b9857	-2.431173
177	0x3e1bea79	0.15226163
178	0xbfcabb34	-1.583838
179	0x3f57a134	0.8423035
180	0x3f302548	0.68806887
181	0xc0107257	-2.2569788
182	0x3f08b795	0.53405124
183	0xc02529ed	-2.580684
184	0x3da67ff4	0.08129874
185	0xbec52c8f	-0.38510558
186	0xbf3b3f84	-0.7314379
187	0xbfc9d3f9	-1.5767814
188	0xc01c3696	-2.4408317
189	0xbe728d84	-0.23686796
190	0x3f870673	1.0548843
191	0x3e503154	0.20331317
192	0xbf62184e	-0.88318336
193	0xbf64a7a5	-0.89318305
194	0xbfb7163c	-1.430366
195	0xc01d79bd	-2.4605553
196	0xbedd90b2	-0.43274456
197	0xbfee094d	-1.8596588
198	0xbf45c6df	-0.7725658
199	0xc01d1995	-2.4546864
200	0xbf58b2b9	-0.8464771
201	0xbff13f72	-1.8847487
202	0xc0243449	-2.5656912
203	0xbf361b08	-0.71134996
204	0xbf5e6308	-0.8686986
205	0x3ec502b2	0.3847862
206	0xbf82eae8	-1.0227938
207	0x3f379133	0.7170593
208	0xbe55d366	-0.20881423
209	0x3dc1c8a0	0.09462094
210	0xbfc7ad36	-1.5599735
211	0xc010429a	-2.254065
212	0xbf6b3f7b	-0.9189374
213	0xc01aba75	-2.4176304
214	0x3dc76c06	0.09737401
215	0xbf83d963	-1.0300716
216	0xbf9f0c65	-1.2425658
217	0xbe9e718e	-0.3094601
218	0xbee8c3a1	-0.45461753
219	0xbfa8e2aa	-1.3194172
220	0x3ea1af14	0.31578887
221	0xbf3eca38	-0.7452731
222	0xc02081f6	-2.5079322
223	0xc01aba61	-2.4176257
224	0xbf8f894e	-1.1213777
225	0xbfac92b0	-1.3482265
226	0xbe008a9e	-0.12552878
227	0xbd83b4c9	-0.064309664
228	0xc01fea8f	-2.4986913
229	0xc00a180c	-2.1577177
230	0xc00b4528	-2.176096
231	0x3f528963	0.82240885
232	0x3ea4c5a1	0.3218203
233	0x3f19fff7	0.60156196
234	0xbe9448a1	-0.2896166
235	0xbf182dba	-0.59444773
236	0xc01517d6	-2.3295798
237	0x3ef87345	0.48525444
238	0xbfb62767	-1.4230775
239	0xbebe5bb2	-0.37179333
240	0xbd06c03e	-0.03289818
241	0xbfcb9c5c	-1.5907092
242	0xbde84816	-0.11341874
243	0xc01f270b	-2.486758
244	0x3d13f328	0.036120564
245	0xbfc40a86	-1.5315711
246	0xbf9eafb9	-1.2397376
247	0xbfd6623f	-1.6748732
248	0xbf37d452	-0.7180835
249	0xc027b54a	-2.62044
250	0xbe4de28e	-0.20105955
251	0x3e27d0c5	0.16388233
252	0xbf9bbda7	-1.2167252
253	0x3fbb0ca4	1.4613233
254	0xc01bb7d6	-2.4330955
255	0xc0197ac8	-2.398119

fc3.weight f4 [128, 256]
0	0x3e72b459	0.2370161
1	0xbda4e82d	-0.080520965
2	0x3e7c8c6b	0.2466294
3	0x3dfcc2cc	0.12341842
4	0x3e912b78	0.28353477
5	0x3da6f01c	0.08151266
6	0x3e828d46	0.25498408
7	0x3e92ddb1	0.28684762
8	0x3e806d4f	0.25083396
9	0x3e953b62	0.29146868
10	0x3ed61695	0.41814104
11	0x3e83e3a8	0.25759625
12	0xbd5e07f0	-0.05420679
13	0x3e2ae612	0.16689327
14	0x3e74e4f6	0.23915467
15	0x3e8f1d75	0.2795216
16	0x3da1561f	0.078777544
17	0x3dc638f0	0.09678829
18	0x3e79e848	0.24405015
19	0x3e268512	0.162617
20	0x3e859f83	0.2609826
21	0xbd8e3913	-0.0694448
22	0x3d6c1d7c	0.057645306
23	0x3e696ab2	0.22794607
24	0x3e96fd5f	0.29490182
25	0x3ea41ab3	0.3205162
26	0xbd0463c3	-0.032321703
27	0xbd5eb868	-0.054375082
28	0x3e09f4e7	0.13472329
29	0x3e6b7013	0.22991972
30	0x3ea43833	0.32074127
31	0xbd5cdcd9	-0.053921554
32	0x3e829a60	0.25508404
33	0x3d9798b3	0.07402172
34	0x3d618318	0.05505666
35	0x3eb63528	0.3558743
36	0xbea190d9	-0.31555822
37	0x3e4d6c43	0.2006083
38	0x3efcdbd7	0.49386474
39	0x3e3572ca	0.1771957
40	0x3ec0670b	0.37578616
41	0x3e3d9f19	0.18517722
42	0x3e856202	0.26051337
43	0x3e4daf93	0.20086507
44	0xbcef4fd2	-0.029212866
45	0x3cc9b6e9	0.024623351
46	0x3e509384	0.20368773
47	0x3e954ae4	0.291587
48	0x3e5e6189	0.21716894
49	0x3e8b1406	0.27163714
50	0x3d139d9d	0.036038984
51	0x3eab66ef	0.3347697
52	0x3e0f3cd3	0.13988046
53	0x3e26b67c	0.1628055
54	0x3ee32564	0.44364464
55	0x3f03bb28	0.5145745
56	0x3ea90b3d	0.33016387
57	0x3e89068c	0.26762807
58	0x3e3741ad	0.17896147
59	0xbdc969c3	-0.098346256
60	0x3f131029	0.57446533
61	0xbeab2d51	-0.3343301
62	0x3d8e1e03	0.06939318
63	0x3d50c003	0.050964367
64	0x3e4ff10c	0.20306796
65	0x3e761e2b	0.24034946
66	0x3c378f51	0.011203603
67	0x3e719744	0.2359286
68	0x3d8d4063	0.068970464
69	0x3e53d5ab	0.20686977
70	0x3e6fa368	0.23402178
71	0x3e6a39dd	0.22873636
72	0x3e8f5429	0.27993897
73	0x3e987688	0.29777932
74	0x3dcc8aa2	0.099873796
75	0x3e808387	0.25100347
76	0x3dada0be	0.08477925
77	0x3e8225e3	0.2541953
78	0x3e8785b0	0.26469183
79	0x3e368761	0.1782508
80	0x3e835777	0.25652668
81	0x3e1cb7ff	0.15304564
82	0x3e889f55	0.2668406
83	0x3e1a3d5b	0.15062468
84	0x3ed7ebd4	0.4217211
85	0x3e759ec0	0.2398634
86	0x3e3ef6fe	0.18648908
87	0x3d80def5	0.06292526
88	0x3e8c107a	0.2735632
89	0xbe469cae	-0.19395706
90	0x3eb7d79c	0.35906684
91	0x3e1fc1aa	0.1560122
92	0x3ddfdafa	0.10930438
93	0x3ebd7b4f	0.3700814
94	0x3e9c66bf	0.3054714
95	0x3eaf2092	0.34204537
96	0x3e3cbfdd	0.18432565
97	0x3d999dee	0.07500826
98	0x3ea4ffa5	0.3222629
99	0x3d13faf1	0.03612799
100	0xbd4bd68e	-0.049765162
101	0x3dc8123e	0.097691044
102	0x3c932217	0.017960591
103	0x3e14550d	0.1448557
104	0x3ed230de	0.41052908
105	0x3d004ad9	0.03132138
106	0x3dae649c	0.085152835
107	0x3e23b2b9	0.15986146
108	0x3e6f4132	0.23364714
109	0x3e7e90ba	0.24859896
110	0x3e72c2e9	0.23707165
111	0x3e643ff4	0.22290021
112	0x3ed0733e	0.40712923
113	0x3e596b23	0.21232276
114	0x3e2dbb0d	0.16965885
115	0xbd788fed	-0.060684133
116	0x3e8a778c	0.27044332
117	0x3e10fa15	0.14157899
118	0x3da8ab33	0.08235779
119	0x3db23631	0.087017424
120	0x3e52ac73	0.20573597
121	0x3e7e7d48	0.24852479
122	0xbd4bb843	-0.049736273
123	0xbc801f47	-0.015639914
124	0x3ede4772	0.43413883
125	0x3e6381eb	0.22217529
126	0x3ecf3b72	0.4047504
127	0x3ee0978d	0.43865624
128	0x3e538ec2	0.20659927
129	0x3e5c80d4	0.21533519
130	0x3e26add3	0.16277246
131	0x3e963033	0.29333648
132	0x3e5864dc	0.21132225
133	0x3e26faa2	0.16306546
134	0x3f0c2b16	0.54753244
135	0x3e79d615	0.24398072
136	0x3d11188d	0.035423804
137	0x3e5ff7ce	0.21871874
138	0x3e51a639	0.20473565
139	0x3da4a850	0.080399156
140	0x3e86ab61	0.26302627
141	0x3dc7687f	0.09736728
142	0x3de03b56	0.109488174
143	0x3db0a9d9	0.08626146
144	0x3e47a6fa	0.1949729
145	0x3e76c76f	0.24099515
146	0x3ea5bb80	0.32369614
147	0x3ec541d5	0.38526788
148	0x3e3e601d	0.18591352
149	0x3d935add	0.07195065
150	0x3ed00ddf	0.40635583
151	0x3e4c1709	0.19930662
152	0x3d76c72c	0.06024854
153	0x3e012e0a	0.12615219
154	0x3e8da0ad	0.27661648
155	0x3ee4df2b	0.44701514
156	0x3ee53a3b	0.4477099
157	0x3e583d1b	0.2111706
158	0x3e8848d2	0.26618057
159	0x3eb20eab	0.34776816
160	0x3e15532c	0.14582509
161	0x3eb9b590	0.36271334
162	0x3ef51403	0.4786683
163	0x3dae3086	0.08505349
164	0x3e85910f	0.26087233
165	0x3e9a455a	0.30131036
166	0x3e120e6a	0.14263311
167	0x3e75d7f9	0.24008168
168	0x3e6e811c	0.23291439
169	0x3efe9885	0.49725738
170	0x3e903fbf	0.28173634
171	0x3df04a4c	0.11732921
172	0x3ee83083	0.45349512
173	0x3e9a697d	0.30158606
174	0xbe39df82	-0.18151668
175	0x3e01f2b0	0.12690234
176	0x3eba5b6e	0.3639788
177	0x3ead434e	0.33840412
178	0x3e47e4dc	0.19520897
179	0xbe7a0d09	-0.24419035
180	0x3d908ae5	0.07057742
181	0x3e5de1c0	0.21668148
182	0x3e3f1d90	0.18663621
183	0x3ead57e9	0.33856133
184	0x3e09922f	0.13434671
185	0xbed8728f	-0.422749
186	0x3e815cc8	0.252661
187	0x3ea1d3c5	0.3160688
188	0x3e4608d8	0.19339311
189	0x3e9a86c7	0.30180952
190	0x3d93553f	0.07193994
191	0x3f06e1bc	0.52688193
192	0x3d856b22	0.065145746
193	0x3ed2b411	0.41153005
194	0x3e41bac9	0.18918909
195	0x3ea70dd5	0.3262774
196	0x3da1e006	0.07904057
197	0x3e9b6a9e	0.3035478
198	0x3ea0de58	0.31419635
199	0x3e933ad6	0.28755826
200	0x3e0a5864	0.13510281
201	0x3e8c5e9c	0.2741593
202	0x3e05533e	0.13020036
203	0x3e5d30fd	0.21600719
204	0x3ee3c32a	0.44484836
205	0x3e0bbbb7	0.13645826
206	0x3e543e89	0.2072698
207	0x3e49b8c8	0.19699395
208	0x3eaba235	0.33522192
209	0x3e36cf69	0.17852558
210	0xbd6ad263	-0.057329547
211	0x3e81efcc	0.25378263
212	0x3ea88846	0.32916468
213	0x3e17a916	0.14810595
214	0x3e5daab4	0.2164715
215	0x3e9f1313	0.3106924
216	0xbd98f637	-0.07468837
217	0x3e6b0b78	0.22953594
218	0x3e779df4	0.24181348
219	0x3ebe2396	0.37136525
220	0xbc0ced33	-0.008601475
221	0x3daeaeca	0.08529432
222	0x3e7450fc	0.23859018
223	0x3e3b0130	0.18262172
224	0x3e88795b	0.26655087
225	0xbbc43eea	-0.0059889453
226	0x3e5d84e1	0.2163272
227	0xbcd84580	-0.026400328
228	0x3e71b848	0.23605454
229	0x3db0f891	0.0864116
230	0x3ec734ef	0.38907573
231	0x3df9ad24	0.12191227
232	0x3e990c2b	0.29892096
233	0x3d1ef441	0.038807157
234	0x3e75d847	0.24008285
235	0x3e20f39b	0.15717928
236	0x3e9d30b4	0.3070122
237	0x3e2ab5b7	0.16670881
238	0x3d9cad68	0.07650262
239	0x3dbcfd72	0.09228028
240	0x3dece548	0.115671694
241	0xbdb9e651	-0.090771325
242	0x3eabee9a	0.33580476
243	0x3e5c21f1	0.21497323
244	0xbed301f5	-0.4121243
245	0x3f047982	0.51747906
246	0x3efb62d8	0.4909885
247	0x3e9b80e3	0.3037177
248	0x3e2d5cb0	0.16929889
249	0x3e6544f0	0.22389579
250	0x3d67de48	0.05660847
251	0x3f002f9d	0.5007265
252	0x3e2af87c	0.16696352
253	0xbe059253	-0.130441
254	0x3ea6d261	0.3258238
255	0x3e79d27d	0.24396701

fc3.bias f4 [128]
0	0xbf037066	-0.5134338
1	0xbf0697a8	-0.5257516
2	0xbf12a415	-0.5728162
3	0xbee0329f	-0.4378862
4	0xbeb34a08	-0.3501742
5	0xbea4570f	-0.3209767
6	0xbf245a2c	-0.6420009
7	0xbeccfb53	-0.40035495
8	0xbf2de588	-0.6792836
9	0xbfcc2a9b	-1.5950502
10	0xbf23742c	-0.6384914
11	0xbe2be38f	-0.16786025
12	0xbef6b03d	-0.48181334
13	0xbf2bfb13	-0.67179984
14	0xbf215c6f	-0.6303167
15	0xbeadebbb	-0.3396891
16	0xbf375d89	-0.716271
17	0xbf183c72	-0.5946723
18	0xbf2c4bb3	-0.6730301
19	0xbedcb9a3	-0.4311038
20	0xbf0a350e	-0.53987205
21	0xbe085303	-0.13312916
22	0xbf19d54f	-0.6009111
23	0xbdf80bc1	-0.12111617
24	0xbf33391a	-0.70009005
25	0xbf0bdca7	-0.54633564
26	0xbf34a154	-0.7055867
27	0xc03086e6	-2.7582335
28	0xbf4b64cd	-0.79450685
29	0xbf1d772e	-0.6150998
30	0xbe9ab509	-0.30216244
31	0xbf21e395	-0.6323789
32	0xbf4b30f8	-0.79371595
33	0xbf14288e	-0.5787438
34	0xbf1eeb00	-0.6207733
35	0xbe6981f9	-0.22803487
36	0xbefd3aae	-0.49458832
37	0xbe811413	-0.25210628
38	0xbeeed301	-0.46645358
39	0xbe977e2f	-0.29588458
40	0xbd5d6376	-0.05404993
41	0x3ff7bf5a	1.9355271
42	0xbf10457d	-0.5635603
43	0xbf22ef9c	-0.63646865
44	0xbf04c536	-0.5186342
45	0xbf5a6ec1	-0.8532525
46	0xbf1ef1eb	-0.6208789
47	0xbf06adfc	-0.5260923
48	0xbf821801	-1.0163575
49	0xbf02e484	-0.5112994
50	0xbfb039aa	-1.3767598
51	0xbf3442df	-0.7041454
52	0xbed0ac57	-0.40756485
53	0xbefb87bb	-0.49126992
54	0xbf3e47ab	-0.74328107
55	0xc020080e	-2.5004916
56	0xbf05d847	-0.5228314
57	0xbdf7b15f	-0.12094378
58	0xbf36f44a	-0.71466506
59	0xbf100b00	-0.56266785
60	0xbf11a3c0	-0.5689049
61	0xbf551f3b	-0.8325078
62	0xbf1d0817	-0.6134047
63	0xbf3940e4	-0.7236464
64	0xbe52c7e5	-0.20584066
65	0x40325914	2.786687
66	0xbf10e1c7	-0.5659451
67	0xbf08b615	-0.53402835
68	0xbf83cf32	-1.0297606
69	0xbe9afa6c	-0.30269182
70	0xbf0efa69	-0.55850846
71	0xbf4f400e	-0.80957115
72	0x3e18d9f0	0.14926887
73	0x3f95e446	1.1710289
74	0xbeda19ca	-0.425978
75	0xbec15c93	-0.3776594
76	0xbe83081c	-0.25592124
77	0xbe2f5c79	-0.1712512
78	0xbf3fda81	-0.74942786
79	0xbdf03c25	-0.11730222
80	0xbf184158	-0.59474707
81	0xbed611cb	-0.4181045
82	0xbf0736c9	-0.5281797
83	0x3f17123c	0.590122
84	0xbe3aed20	-0.18254519
85	0xbef96495	-0.4870955
86	0xbf1f83bd	-0.6231039
87	0xbddef4be	-0.108865246
88	0xbfb45555	-1.4088541
89	0xbf311b42	-0.6918222
90	0xbf4f7600	-0.8103943
91	0xbea39d2f	-0.3195586
92	0x3b0752ea	0.0020648786
93	0xbf0cc251	-0.54984003
94	0x3e93b461	0.28848556
95	0x3e6a8dc8	0.22905648
96	0xbf007269	-0.50174576
97	0xbf3ef0fd	-0.7458647
98	0xbeb54a2c	-0.3540815
99	0xbf298784	-0.66222405
100	0xbf08c546	-0.53426015
101	0xbedc5f8b	-0.43041644
102	0xbfc72216	-1.5557277
103	0xbeef17fe	-0.46697992
104	0xbf19cfad	-0.60082513
105	0xbe36b984	-0.17844206
106	0xbf222001	-0.63330084
107	0xbf0abbb1	-0.54192644
108	0xbf27d7f7	-0.6556391
109	0xbec72107	-0.38892385
110	0x3ff2d6a0	1.8971748
111	0xbee1cc59	-0.44101217
112	0xbef010a4	-0.46887696
113	0xbeedbb93	-0.4643217
114	0xbf1cb73b	-0.6121709
115	0xbedc84e8	-0.4307015
116	0xbf370aca	-0.7150084
117	0xbf00f5b1	-0.50374895
118	0xbf18c4ee	-0.5967549
119	0xbf050398	-0.5195861
120	0xbf458b9b	-0.77166146
121	0xbf11ab61	-0.5690213
122	0xbfa84f84	-1.3149266
123	0xbf0d5874	-0.55213094
124	0xbf33bbfb	-0.7020871
125	0xbf28b028	-0.65893793
126	0xbf1c1d88	-0.6098256
127	0xbf3cbae8	-0.73722696

fc4.weight f4 [1, 128]
0	0xbbbef0cb	-0.0058270446
1	0x3b33db49	0.0027443937
2	0xbb3fb923	-0.0029254637
3	0x38f53eab	0.00011694183
4	0x3b31541e	0.0027058194
5	0x3a2b9100	0.0006544739
6	0x3b89b1af	0.0042020897
7	0x3bb29053	0.0054493337
8	0x3bc6d145	0.0060674273
9	0xbcf6f894	-0.030147828
10	0x3ab04eeb	0.0013451254
11	0xb8be6401	-9.078533e-05
12	0xbbb31848	-0.005465541
13	0xbc183bbc	-0.009291586
14	0xbad6be68	-0.001638365
15	0x3af33c19	0.0018557339
16	0x3a9d9d6d	0.0012025066
17	0x387f246a	6.083065e-05
18	0xbab63ff8	-0.0013904562
19	0x3c48f14e	0.012264563
20	0x3b1af892	0.0023646695
21	0x3c4826c4	0.012216274
22	0x3c0108ad	0.007875604
23	0x3b9a5e07	0.004710916
24	0x3cb7f2dd	0.022454673
25	0x3c3c14b1	0.011479543
26	0xbb613018	-0.0034360941
27	0xbe9443c3	-0.28957948
28	0xba6f522c	-0.0009129371
29	0xba2a969e	-0.0006507429
30	0xbbce3705	-0.00629318
31	0x3c4da7ac	0.012552183
32	0xbb11ea97	-0.002226507
33	0x3b9ab3e7	0.004721153
34	0xb941ef4b	-0.00018495058
35	0x3ad6b7e1	0.0016381704
36	0x3b39e5be	0.0028365697
37	0x3b70bf77	0.0036735216
38	0x3a6620b1	0.0008778675
39	0x3c727aa1	0.014799745
40	0xb95b21cd	-0.0002089806
41	0x3cebc592	0.028780732
42	0x3b677bf6	0.003532169
43	0x3bd0e25b	0.00637464
44	0xbb4cfee3	-0.0031279854
45	0x3caf05ab	0.021365007
46	0xbad24a4d	-0.0016043872
47	0x3c63477e	0.013872026
48	0xbbc9dd01	-0.006160379
49	0x3c88e3ff	0.01671028
50	0xbb56086e	-0.0032658833
51	0xbc2981ef	-0.01034592
52	0x3c40d300	0.011769056
53	0xbbab8340	-0.005234152
54	0x3abce137	0.0014410381
55	0xbe167447	-0.14692794
56	0x3be89a65	0.0070984834
57	0x3c98237a	0.018571604
58	0x3ba62507	0.005070332
59	0x3c4452ab	0.0119826
60	0x3cbb2a78	0.0228474
61	0xbb9ae605	-0.0047271275
62	0x3bfd90de	0.007738217
63	0xbc16e785	-0.009210472
64	0x3acdda03	0.0015705231
65	0x3e0037e4	0.1252132
66	0x398bdda4	0.0002667728
67	0x3b8110df	0.003938779
68	0xbc1d9975	-0.009619107
69	0x3ad830fc	0.0016494091
70	0x3ad7903b	0.0016446182
71	0xba6e2286	-0.0009084124
72	0x39e1cb00	0.0004306659
73	0xbbaaf916	-0.0052176816
74	0x3a8baba1	0.0010656008
75	0x39ae144a	0.00033202983
76	0xba563376	-0.00081711204
77	0xbb4bac57	-0.0031078064
78	0xbb8ef50c	-0.004362708
79	0x3bc2f0ea	0.0059491294
80	0xba8a39ec	-0.0010545827
81	0x3bc477bc	0.0059957188
82	0x3b60ff88	0.0034331996
83	0xb8f51ee8	-0.00011688267
84	0x3b900290	0.0043948367
85	0x3b048901	0.0020223262
86	0x39a64e15	0.00031720163
87	0x3b32ef62	0.0027303328
88	0xbca18a45	-0.019719252
89	0x3a0b7662	0.00053200696
90	0x3af915cc	0.0019003688
91	0x3a0dc1c5	0.0005407597
92	0x3aab8c9b	0.0013088168
93	0xbbd05d00	-0.0063587427
94	0xb996d9c2	-0.00028772472
95	0x3ab2dcab	0.0013646086
96	0xbbe47be8	-0.0069727786
97	0xbb752551	-0.0037406276
98	0x3ba7394a	0.005103265
99	0x3ba32f28	0.0049799867
100	0x3c909739	0.017650234
101	0x3b141fe3	0.0022602014
102	0xbcd52011	-0.026016267
103	0x3bdcb1ef	0.0067350785
104	0xb7ee4d40	-2.8407783e-05
105	0x3b43f099	0.0029898046
106	0x39df2914	0.0004256448
107	0xbb87042f	-0.004120372
108	0xb9ac3f03	-0.00032853344
109	0xba2cdf31	-0.00065945374
110	0x3c462027	0.012092627
111	0x391139e2	0.0001384984
112	0xba4a0fa4	-0.0007708019
113	0xbc87d441	-0.016580703
114	0xbb27905e	-0.0025568227
115	0x3a8333cd	0.0010009945
116	0x3be21dab	0.0069005094
117	0x3b8be96b	0.004269769
118	0x3a922d77	0.0011152466
119	0xbb1a1e80	-0.0023516715
120	0xb9a5f9fe	-0.0003165751
121	0xbb365232	-0.0027819988
122	0x3c654951	0.013994531
123	0x39e1163f	0.0004293192
124	0xba5b62a6	-0.0008368887
125	0xb96f6edf	-0.00022834119
126	0xbbd7cc69	-0.006585647
127	0x3a202670	0.0006109243
