p2_continuous-control/saved_critic_model.pth (torch_old, 435436 bytes, 7 tensors)

fcs1.weight f4 [256, 33]
0	0x3f247d2d	0.64253503
1	0xbf026d4b	-0.5094802
2	0x3d4c859c	0.049932107
3	0x3eedb1b4	0.4642464
4	0x3ef2a096	0.47388142
5	0x3dc11a5a	0.09428854
6	0xbc0c698e	-0.008570088
7	0xbe55289d	-0.20816274
8	0xbe0bf5b5	-0.13667949
9	0xbdc12e09	-0.09432609
10	0x3e138aba	0.14408389
11	0xbdc8a369	-0.09796793
12	0xbd9d98b3	-0.07695141
13	0xbe2bb7bb	-0.16769306
14	0x3e43baa3	0.19114165
15	0xbe19bc5e	-0.15013263
16	0x3d8d753d	0.06907127
17	0x3e766b81	0.24064447
18	0x3b1a6a60	0.002356194
19	0x3cfedd20	0.0311113
20	0xbc4ad00c	-0.012378704
21	0x3c8ba434	0.017046072
22	0xbdad97f1	-0.08476246
23	0xbe87e09f	-0.2653856
24	0x3d28cce4	0.041211024
25	0x3e641ecc	0.22277373
26	0xbf3352ab	-0.70048016
27	0xbea7a741	-0.32744792
28	0x3ec4e9b3	0.38459548
29	0x3a9773c0	0.0011554882
30	0x3e8da6dd	0.2766637
31	0x3d629d1a	0.055325605
32	0x3e7c0996	0.24613032
33	0xbefdc01f	-0.4956064
34	0x3e7077ab	0.2348315
35	0x3ee2a502	0.44266516
36	0xbe970014	-0.29492247
37	0xbf28eb1c	-0.6598375
38	0xbda06a54	-0.078327805
39	0x3f0d46c9	0.55186135
40	0xbe1bb805	-0.15206917
41	0x3f2d2276	0.6763071
42	0xbe7b2a8b	-0.24527948
43	0xbe3416ad	-0.17586775
44	0x3ccdfb8e	0.025144365
45	0x3e421ab0	0.18955493
46	0x3e562eab	0.2091624
47	0x3e62247d	0.22084232
48	0x3f64c458	0.89362097
49	0x3eb14038	0.34619308
50	0xbd96d500	-0.07364845
51	0xbe1ddc3e	-0.15416047
52	0x3e2a81fd	0.16651149
53	0xbda846a7	-0.08216601
54	0x3c03d3d8	0.008046113
55	0x3e2b1bd0	0.16709828
56	0xbeea3c45	-0.45749107
57	0xbd25df4f	-0.040496167
58	0x3ec3e137	0.38257763
59	0x3e68f8f2	0.22751215
60	0x3f871426	1.0553024
61	0xbf59b1aa	-0.8503672
62	0xbd4d98a6	-0.050194405
63	0xbf864fa4	-1.0493054
64	0xbd5340d6	-0.051575504
65	0x3f644feb	0.89184445
66	0x3a0e6156	0.00054313743
67	0x3e6e8f96	0.23296961
68	0xbe0fd999	-0.1404785
69	0xbb9a4ff8	-0.00470924
70	0x3d562054	0.052276924
71	0xbe1b29f5	-0.15152724
72	0xbd76775d	-0.060172427
73	0xbe31c762	-0.17361215
74	0xbd451422	-0.048114903
75	0x3e2c4334	0.16822511
76	0xbc87f9c8	-0.016598597
77	0x3e014098	0.12622297
78	0xbc58ee78	-0.013240449
79	0x3e762ee3	0.24041323
80	0xbdacf3ac	-0.08444914
81	0xbdab52b1	-0.083653815
82	0x3d81f7fb	0.06346127
83	0x3d7e1c2d	0.06203859
84	0x3e125395	0.14289697
85	0x3e3f24ba	0.18666354
86	0x3c00aedf	0.0078541925
87	0xbe5b21e8	-0.21399653
88	0x3d42c30f	0.047549304
89	0x3e024a48	0.12723649
90	0xbe0c50e6	-0.13702735
91	0xbd146258	-0.0362266
92	0xbe52a8d0	-0.2057221
93	0x3f8592eb	1.0435461
94	0xbe16e082	-0.1473408
95	0xbb4d1260	-0.003129147
96	0xbf819183	-1.0122532
97	0x3ca7ff98	0.020507619
98	0x40a31a3b	5.096952
99	0x3eb90f85	0.36144653
100	0x3e50861b	0.20363657
101	0xbcff868e	-0.03119209
102	0x3e0b7558	0.13618982
103	0x3ea3d1a3	0.31995878
104	0xbe41948e	-0.18904325
105	0xbcd39890	-0.025829583
106	0xbe763f1c	-0.24047512
107	0xc00956ed	-2.1459305
108	0xbe6c5f05	-0.23083122
109	0x3f0eb785	0.5574878
110	0xbea34aca	-0.31892997
111	0x3ea6dbee	0.32589668
112	0x3e69a68b	0.22817437
113	0x3e9fc5e8	0.31205678
114	0x3e6968ff	0.22793959
115	0xbf00acd2	-0.502637
116	0xbe00220d	-0.1251299
117	0x3ea19e53	0.31566104
118	0x3e2ffc64	0.17186123
119	0x3d9471ef	0.072482936
120	0x3e6d4175	0.23169501
121	0xbec4e911	-0.38459066
122	0xbe930115	-0.28711763
123	0x3d617945	0.055047292
124	0x3e03c5cd	0.12868424
125	0x3ec3b5e2	0.38224703
126	0x3f6cf097	0.9255461
127	0xb9fa36a3	-0.00047724423
128	0x3d7d1bf0	0.06179422
129	0xbf53a45f	-0.82672685
130	0xbce0dde0	-0.027449548
131	0x3f7bd2b1	0.98368365
132	0x3f1d7d71	0.61519533
133	0x3e521aa4	0.20517975
134	0xbb8324ed	-0.0040022046
135	0xbeda8d77	-0.42686054
136	0x3e5e4236	0.21704945
137	0x3df74b33	0.1207489
138	0x3ee0b5e6	0.43888777
139	0x3e4ee0c4	0.20202929
140	0x3e0881ee	0.13330814
141	0xbfdd0fd6	-1.7270458
142	0x3c6d4037	0.014480642
143	0x3d37dbd1	0.044887368
144	0xbe093d13	-0.13402204
145	0xbe691f18	-0.22765768
146	0xbea133d6	-0.3148486
147	0xbf5643d9	-0.8369728
148	0xbdcc77a7	-0.099837594
149	0x3d1eafdd	0.038741935
150	0xbd1fdb64	-0.039027587
151	0xbddece4a	-0.1087919
152	0x3d751932	0.05983848
153	0xbe98eec7	-0.29869673
154	0xbe7465ce	-0.2386696
155	0x3e29f13d	0.16595931
156	0xbddf3272	-0.108982936
157	0xbea8caaf	-0.32967135
158	0x3e2b265d	0.16713853
159	0x3fc561c2	1.5420458
160	0x3e0f86dd	0.1401629
161	0x3ca6f550	0.020380646
162	0xbfc0b76c	-1.5055976
163	0xbd4fe138	-0.050751895
164	0xbf752f59	-0.9577537
165	0x3f859b71	1.0438062
166	0xbea2a6cd	-0.31767884
167	0xbede5bce	-0.43429416
168	0xbdbbd18c	-0.09170827
169	0x3eb4c06c	0.35303056
170	0x3de043f7	0.10950463
171	0x3e20378a	0.15646186
172	0x3e05b9cf	0.13059162
173	0xbf68eb8f	-0.90984434
174	0x3f3f8806	0.7481693
175	0x3e96e744	0.29473317
176	0xbe4f6269	-0.20252384
177	0xbe0cc92b	-0.13748614
178	0xbe674e63	-0.22588496
179	0xbd7ee05a	-0.062225677
180	0x3e4b2743	0.19839196
181	0x3d944987	0.07240587
182	0x3c4f0dc3	0.012637558
183	0xbbc39734	-0.0059689526
184	0x3cd70954	0.026249565
185	0xbdd6eadf	-0.10494017
186	0xbe9d7817	-0.30755684
187	0x3be4c04a	0.0069809305
188	0xbc7db2a9	-0.01548449
189	0xbe1353ef	-0.14387487
190	0x3e62c343	0.22144799
191	0xbb4f11d4	-0.003159632
192	0x3f52e375	0.8237832
193	0xbf134499	-0.57526547
194	0x3cdd7be0	0.027036607
195	0xbf4263a1	-0.7593327
196	0xbb857810	-0.0040731505
197	0x407e8cbe	3.9773402
198	0xbd4e32ff	-0.050341602
199	0x3f553862	0.8328916
200	0x3e624b1d	0.22098966
201	0xbb3980d3	-0.0028305545
202	0xbeee5ecc	-0.465567
203	0xbf1b0682	-0.60556805
204	0x3edd46d9	0.43218115
205	0x3f369301	0.7131806
206	0x3ed3f97f	0.41401288
207	0xbe5f2117	-0.21789967
208	0xbe0be2d2	-0.13660744
209	0x3e8bd4b4	0.27310717
210	0x3ea15ae5	0.3151466
211	0xbe1e21c6	-0.15442571
212	0x3e2f9d41	0.17149831
213	0x3ea19637	0.31559917
214	0x3e9549df	0.29157922
215	0x3d4f8329	0.050662193
216	0xbed1ed76	-0.4100148
217	0x3ccfbda5	0.025358984
218	0xbf4adb80	-0.7924118
219	0xbee57508	-0.4481585
220	0x3e76c062	0.24096826
221	0xbeffd03d	-0.4996356
222	0xbd3b5d6f	-0.045743402
223	0x3dfc03e0	0.123054266
224	0x3c1d649c	0.009606507
225	0x3f958cde	1.1683614
226	0xbd5193df	-0.05116641
227	0x3d5ed8ea	0.054406084
228	0xbf99fbae	-1.2029932
229	0xbd1f0c7a	-0.038830258
230	0xbeea215a	-0.4572857
231	0x3e7ed87a	0.24887267
232	0x3edbd343	0.42934617
233	0xbe8895c4	-0.26676762
234	0xbe9dafc0	-0.3079815
235	0xbf11c92c	-0.5694759
236	0x3eecff3c	0.46288478
237	0xbf801eea	-1.0009434
238	0xbe2a5771	-0.16634919
239	0xbf01861e	-0.5059527
240	0x3e98556b	0.2975267
241	0x3c7e8bd6	0.015536269
242	0x3e9e422f	0.3090987
243	0x3d9cb799	0.07652206
244	0xbed6aed5	-0.4193026
245	0xbe9bea93	-0.30452403
246	0x3f137133	0.57594603
247	0x3d198851	0.037483517
248	0xbd91ee2a	-0.07125504
249	0x3ebac479	0.36478022
250	0xbe9a2435	-0.3010575
251	0xbe5bf023	-0.21478324
252	0xbf314235	-0.6924165
253	0xbe23333e	-0.15937516
254	0x3ee03cff	0.43796536
255	0xbf03266e	-0.51230514

fcs1.bias f4 [256]
0	0x3e7f2597	0.24916683
1	0xbf8baa37	-1.091132
2	0xbf5afa69	-0.85538346
3	0xbf704e03	-0.93869036
4	0xbfb5ad68	-1.4193544
5	0xbf45ba5c	-0.77237487
6	0xbfaa5f5c	-1.3310351
7	0xbfa5fae2	-1.2967188
8	0xbebf3af7	-0.37349674
9	0xbf8546a7	-1.0412186
10	0xbf8a7d27	-1.0819443
11	0xbf4987be	-0.7872275
12	0xbee79c2e	-0.45236343
13	0xbe00b98e	-0.12570783
14	0xbf1da7f0	-0.6158438
15	0xbfa5eda8	-1.2963152
16	0xbd417beb	-0.047237318
17	0xbfa94f82	-1.3227389
18	0xbe753a70	-0.23948073
19	0xbfd51ced	-1.6649452
20	0xbf4d8e20	-0.8029499
21	0xbf9871b2	-1.1909697
22	0xbf8df47f	-1.1090239
23	0xbef4fe30	-0.4785018
24	0xbf7f78cd	-0.997937
25	0xbf836f5a	-1.0268357
26	0xbe228ce0	-0.15874052
27	0xbf5434f2	-0.8289329
28	0xbf19e283	-0.60111254
29	0xbf59e3d7	-0.8511328
30	0xbe6ba4f2	-0.2301214
31	0xbff201d2	-1.8906806
32	0xbfa1e123	-1.2646831
33	0xbfd863bb	-1.6905435
34	0x3dae0120	0.08496308
35	0xbe53ef64	-0.20696789
36	0xbf13d09a	-0.57740176
37	0xbf921f7c	-1.1415858
38	0xbf9ed811	-1.2409688
39	0xbef71382	-0.4825707
40	0xbf4ff985	-0.8124011
41	0xbf83cc70	-1.0296764
42	0xbf171d03	-0.59028643
43	0xbefea354	-0.49733984
44	0xbec42638	-0.3831041
45	0xbfc971cc	-1.5737853
46	0xbf5e9a66	-0.86954343
47	0xbf9a1fb8	-1.204093
48	0xbf91a597	-1.1378659
49	0xbfcc7793	-1.5973991
50	0xbf0ed397	-0.5579161
51	0xbf5d522a	-0.864535
52	0xbe896a58	-0.26838946
53	0xbf46a2cd	-0.77592164
54	0xbf0acd25	-0.54219276
55	0x3f4c608a	0.79834807
56	0xbf362cca	-0.7116209
57	0x3f0894f7	0.533523
58	0xbfaf7ac9	-1.3709346
59	0xbf859a73	-1.0437759
60	0xbee18fe9	-0.44055107
61	0xbfabfd54	-1.3436685
62	0xbf305fc6	-0.6889614
63	0xbe0941c9	-0.13404001
64	0xbfaf8924	-1.3713727
65	0xbf064f24	-0.5246451
66	0xbf6d4f32	-0.9269897
67	0xbfbc935e	-1.4732473
68	0xbf401f05	-0.7504733
69	0xbfa40409	-1.2813731
70	0xbf11a913	-0.5689861
71	0xbfa9d0fd	-1.3266903
72	0xbefc0be7	-0.4922783
73	0xbfa3c759	-1.2795211
74	0xbfc08d44	-1.5043111
75	0xbf5dba4a	-0.8661238
76	0xbfc3a462	-1.5284541
77	0xbf2e46c1	-0.6807671
78	0xbf951e0a	-1.1649792
79	0xbf60420b	-0.87600774
80	0x3f761d6d	0.9613865
81	0xbfa4388f	-1.282976
82	0xbfac6f8c	-1.3471541
83	0xbe4aa53f	-0.19789599
84	0xbf8533aa	-1.0406392
85	0xbe9fb93d	-0.31196013
86	0xbf180f0b	-0.59397954
87	0xbedef3d6	-0.43545407
88	0xbf9ecc23	-1.2406048
89	0xbf144120	-0.5791187
90	0xbe865e3b	-0.26243767
91	0xbf9dcbae	-1.2327783
92	0xbeea552e	-0.45768112
93	0x3f6e6679	0.9312511
94	0xbec50f3e	-0.3848819
95	0xbf9ee3b0	-1.2413235
96	0xbf8cbf1f	-1.0995826
97	0xbf7f2592	-0.996667
98	0xbec1f9c6	-0.37885875
99	0xbeb2e3d7	-0.34939453
100	0xbee04eff	-0.4381027
101	0xbed5f1a3	-0.41785917
102	0xbf090783	-0.53527087
103	0xbf53381c	-0.8250749
104	0xbf808e9a	-1.0043519
105	0xc009887b	-2.148955
106	0xbfd95c50	-1.6981297
107	0xbebc11cb	-0.36732325
108	0xc017556c	-2.3645887
109	0xbf5945fb	-0.84872407
110	0xbf2cd00f	-0.6750497
111	0xbf83caf3	-1.029631
112	0xbf2a7ab6	-0.6659349
113	0xbffc342d	-1.9703423
114	0xbd689877	-0.056786027
115	0xbf9ea017	-1.2392606
116	0xbf2d6d89	-0.6774526
117	0xbdd01154	-0.10159555
118	0x3f216dbb	0.6305806
119	0xbfc6741d	-1.5504185
120	0x3ed2f2e5	0.4120094
121	0xbf3006c4	-0.68760324
122	0xbf1d2e6c	-0.6139896
123	0xbeb65431	-0.35611108
124	0xbf3b22b9	-0.7309986
125	0x3e1c45f3	0.15261059
126	0xbf9ef983	-1.2419895
127	0xbfbf78b8	-1.4958715
128	0xbf2fb3af	-0.6863355
129	0xbf233a09	-0.6376043
130	0xbfa270bd	-1.2690655
131	0xbf478d9c	-0.77950454
132	0x3d6aa783	0.057288658
133	0xbf60b429	-0.877749
134	0xbef7aed7	-0.4837558
135	0xbfeba991	-1.8411123
136	0xbf6fa5c4	-0.93612313
137	0xbf906402	-1.128052
138	0xbecc87be	-0.39947313
139	0xbf5b0093	-0.8554775
140	0xbf7792d0	-0.96708393
141	0xbff5f51a	-1.9215424
142	0x3f4fc587	0.8116078
143	0xbf209908	-0.6273351
144	0xbf210e4c	-0.6291244
145	0xbfa3d27f	-1.2798613
146	0xbf5605ec	-0.83602786
147	0x3f6d7991	0.9276362
148	0xbf34affa	-0.7058102
149	0xbf65cd67	-0.89766544
150	0xbfd89f8f	-1.6923693
151	0x3f927703	1.144257
152	0xbf998ee6	-1.1996734
153	0xbf9df85a	-1.2341416
154	0xbfcf4b27	-1.619481
155	0xbf4b6f97	-0.7946715
156	0xbfdbdf92	-1.7177603
157	0xbf935323	-1.1509746
158	0xbfb7edc9	-1.4369441
159	0xbfe4f084	-1.78859
160	0xbf5bdbb9	-0.85882145
161	0xbfde0334	-1.7344728
162	0xbfbbaeaa	-1.4662678
163	0xbf95296a	-1.1653264
164	0xbf33d899	-0.70252377
165	0xbf724ce7	-0.94648594
166	0x3d3b5d23	0.04574312
167	0x3d85b6e3	0.065290235
168	0xbfb21c86	-1.3914955
169	0xbf5be34a	-0.8589369
170	0xbf8aa892	-1.0832694
171	0xbf4c4bd4	-0.79803205
172	0xbf5f3a9b	-0.871988
173	0xbf8d57f2	-1.1042464
174	0xbfaea03c	-1.364265
175	0xbe5f9996	-0.21835932
176	0x3f61b131	0.88161
177	0xbfd46229	-1.6592456
178	0xbf0c3c29	-0.547793
179	0xc00a0a12	-2.1568646
180	0xbfd21278	-1.6411886
181	0xbee2e0cf	-0.4431214
182	0xbfad47f6	-1.3537586
183	0xbecd3315	-0.40078035
184	0xbfa2712c	-1.2690787
185	0xbfb22ff9	-1.392089
186	0xbf1efc0e	-0.62103355
187	0xbfddd188	-1.7329569
188	0xbf98b388	-1.1929789
189	0xbf68b38f	-0.90898985
190	0xbf4f9973	-0.8109352
191	0xbf9d811c	-1.2305026
192	0xbfb8338d	-1.4390732
193	0xbf437c2f	-0.76361364
194	0xbf996822	-1.1984904
195	0xbf33e190	-0.70266056
196	0xbf5b4b29	-0.8566156
197	0xbf577660	-0.84165
198	0xbf8863a8	-1.0655413
199	0xbef8565d	-0.4850339
200	0xbfb3f463	-1.4058956
201	0xbec17896	-0.37787312
202	0xbfbd79cd	-1.4802796
203	0xbf68c4ea	-0.90925467
204	0x3faf104d	1.367685
205	0xbf1b4fdf	-0.6066875
206	0xbe9b142f	-0.30288836
207	0xbfeb741e	-1.8394811
208	0xbf02506e	-0.50903976
209	0xbf80760b	-1.0036024
210	0xbf430f1d	-0.76194936
211	0xbf4b8d80	-0.79512787
212	0xbfb182de	-1.3868062
213	0x3f755f73	0.9584877
214	0xbff1a08d	-1.8877121
215	0xc005936e	-2.0871234
216	0xbfc9d9da	-1.5769608
217	0xbf83918d	-1.0278794
218	0x3f9d4a4e	1.2288301
219	0xbe7908f0	-0.24319816
220	0xbf8ad7d6	-1.0847118
221	0xbfa779bb	-1.3084024
222	0xbfeb4ee1	-1.8383447
223	0xbf604c55	-0.87616473
224	0xbf8e20d2	-1.1103766
225	0xbf2bb1e2	-0.670683
226	0xbf9a75ed	-1.2067238
227	0xbfc50b49	-1.5394069
228	0xbf887eeb	-1.0663732
229	0xbfa9aa7f	-1.3255156
230	0xbf5458e0	-0.8294811
231	0xc0160624	-2.3441248
232	0xbfd9c891	-1.7014333
233	0xbf6cf4f4	-0.9256127
234	0xbfa5e010	-1.2959003
235	0xbf737caa	-0.951121
236	0xbe3363f6	-0.17518601
237	0xbfa1f45c	-1.2652698
238	0xbfe4f34d	-1.788675
239	0xbf9673fb	-1.1754144
240	0xbfd659b4	-1.6746125
241	0xbf78f2b7	-0.97245353
242	0xbf68fa00	-0.9100647
243	0xbf0472c2	-0.51737607
244	0xbfdef5dc	-1.741878
245	0xbfbdc8f1	-1.4826947
246	0xbf5077fb	-0.81433076
247	0xbf8f297c	-1.1184535
248	0xbec3c36a	-0.38235027
249	0xbf16f3d4	-0.589658
250	0xbec214ee	-0.37906593
251	0xbf906d61	-1.128338
252	0xbf60a3ca	-0.8774992
253	0xbf030aef	-0.5118856
254	0xbfa0b0de	-1.2553976
255	0xbf07e66b	-0.53085965

fc2.weight f4 [256, 260]
0	0xbf0b6b22	-0.54460347
1	0x3e945ca2	0.28976923
2	0xbf3a6f7e	-0.72826374
3	0xbed430b7	-0.41443416
4	0xbf8b2fbe	-1.0873945
5	0xbfc1a9e6	-1.5129974
6	0x3cab8270	0.02093622
7	0xbf01328c	-0.50467753
8	0xbf2c48d5	-0.6729863
9	0xbeaf8924	-0.34284317
10	0xbebeef85	-0.37292114
11	0xbf424196	-0.75881326
12	0xbe5767e4	-0.21035725
13	0xbe2cd5d5	-0.16878445
14	0xbf9dad5f	-1.2318534
15	0xbf2649c5	-0.64956313
16	0x3f2558e3	0.64588755
17	0x3eae04a8	0.33987927
18	0x3eb77b28	0.35836148
19	0xbdbbcc4c	-0.09169826
20	0x3ea7f904	0.3280717
21	0xbe5d3edd	-0.21606012
22	0xbf915e42	-1.135689
23	0xbededb49	-0.43526676
24	0x3e1fac5c	0.15593094
25	0xbf8aaccc	-1.0833983
26	0xbd6f4794	-0.05841787
27	0xbfb6ae1c	-1.4271884
28	0x3e53f248	0.20697892
29	0xbf6dda9f	-0.92911714
30	0xbf41d4a7	-0.75715107
31	0x3f363f4c	0.71190333
32	0xbf29aa18	-0.6627517
33	0x3ec90eac	0.39269006
34	0xbf09df60	-0.5385647
35	0x3e7ce1f8	0.24695575
36	0xbe39cdf2	-0.18144968
37	0x3e5930f3	0.21210079
38	0xbe0596b5	-0.13045771
39	0xbf3ab3ac	-0.7293041
40	0x3e85f5d8	0.26164126
41	0xbc69afac	-0.014263075
42	0x3e804a55	0.2505671
43	0xbe056235	-0.13025744
44	0x3ec1a068	0.37817693
45	0xbe51a8d9	-0.20474567
46	0xbe95db13	-0.29268703
47	0x3e0efa4a	0.13962665
48	0x3ea53edf	0.3227453
49	0xbf4bf467	-0.79669803
50	0x3e6f7ecf	0.23388217
51	0x3dcfdc6c	0.10149464
52	0x3f496da8	0.7868295
53	0x3e6848f6	0.22684082
54	0x3e8b5767	0.2721512
55	0xbfb6cc7b	-1.4281152
56	0x3db71c96	0.08940999
57	0xbe56497e	-0.20926473
58	0xbf65e08d	-0.8979576
59	0xbe844910	-0.25836992
60	0xbf037594	-0.51351285
61	0x3f1d502d	0.61450464
62	0xbecfe4fc	-0.4060439
63	0xbed2387f	-0.41058728
64	0x3fc8f107	1.5698556
65	0x3e5bbeeb	0.21459548
66	0xbf3bd680	-0.73374176
67	0xbd0836e9	-0.03325549
68	0xbf3b2942	-0.7310983
69	0xbef2568f	-0.47331664
70	0x3ec3fa90	0.38277102
71	0x3f01e032	0.5073272
72	0xbf59d5d5	-0.85091907
73	0xbe383b32	-0.17991331
74	0xbdce0332	-0.10059203
75	0xbec273d8	-0.37979007
76	0xbf35b495	-0.7097867
77	0xbe34c531	-0.17653348
78	0x3f76dfa1	0.9643498
79	0x3e625e55	0.22106297
80	0xbed0c207	-0.4077303
81	0xbf1bc130	-0.60841656
82	0xbe262c00	-0.16227722
83	0xbe2e4b24	-0.17020851
84	0x3f059ddc	0.52194
85	0xbeac265e	-0.33623022
86	0x3f51d012	0.81958115
87	0x3e5df77d	0.2167644
88	0xbc0f8249	-0.00875909
89	0xbe89abab	-0.26888785
90	0x3ec01638	0.37516952
91	0x3ead4232	0.33839566
92	0x3d2865ae	0.041112594
93	0xbee5d974	-0.44892466
94	0x3ed34efd	0.412712
95	0xbf359a59	-0.7093864
96	0xbfda5ead	-1.7060143
97	0xbf922fe8	-1.142087
98	0xbf681cd2	-0.90668976
99	0x3b5dd4b5	0.0033848707
100	0xbe20c161	-0.15698768
101	0x3e56a36d	0.2096078
102	0xbf34fd40	-0.7069893
103	0xbf2ac9db	-0.66714257
104	0x3e629228	0.22126067
105	0x3f0abd4c	0.54195094
106	0xbe2095d3	-0.15682153
107	0xbfb1fbdf	-1.390499
108	0xbd7b5308	-0.06135848
109	0x3eb7547e	0.3580665
110	0xbf4d1b15	-0.8011945
111	0xbe260c4f	-0.16215633
112	0xbf1063fe	-0.56402576
113	0xbf3776a3	-0.716654
114	0x3e86e4a4	0.26346314
115	0xbed4515f	-0.4146833
116	0xbf89fa81	-1.0779573
117	0x3e1cab1d	0.1529965
118	0xbe96f7c1	-0.29485896
119	0x3e4d62f1	0.20057274
120	0xbd3da7c8	-0.046302587
121	0x3eccf38d	0.40029564
122	0x3f82143f	1.0162429
123	0xbf5cd663	-0.8626463
124	0xbf51a2ae	-0.81888855
125	0x3efacdcd	0.4898514
126	0xbe0d6545	-0.13808163
127	0xbf83c5b1	-1.0294706
128	0xbeb1bb5d	-0.3471326
129	0xbd35410f	-0.044251498
130	0xbdb13883	-0.08653357
131	0xbe4c9504	-0.1997872
132	0xbf8d8228	-1.1055346
133	0x3e279847	0.16366683
134	0x3ddee489	0.10883433
135	0xbd933c9c	-0.07189295
136	0x3ecf3e06	0.40477008
137	0x3e229041	0.15875341
138	0xbe955c7c	-0.29172122
139	0xbefe52ff	-0.49672696
140	0xbf63014b	-0.8867385
141	0xbe8ebea6	-0.27879828
142	0xbf964f3b	-1.1742929
143	0xbdd43c90	-0.10363114
144	0xbe0caa39	-0.1373681
145	0xbf51a84d	-0.8189743
146	0xbde938f2	-0.113878146
147	0xbdb96492	-0.090523854
148	0xbe52f70a	-0.2060205
149	0x3eb5ef4f	0.3553414
150	0xbf09b968	-0.5379853
151	0xbe423f6e	-0.18969509
152	0x3f47868a	0.77939665
153	0xbe394c10	-0.18095422
154	0x3e354df2	0.17705515
155	0x3ddefb01	0.10887719
156	0x3e8af369	0.27138832
157	0xbea12b38	-0.31478286
158	0x3e32f665	0.17476805
159	0xbea2fb4e	-0.31832355
160	0xbede5552	-0.4342447
161	0x3d659065	0.05604591
162	0x3f0a522c	0.54031634
163	0xbf5922b7	-0.84818596
164	0x3ed8e496	0.42361897
165	0xbea23615	-0.31681886
166	0xbe7dc121	-0.24780704
167	0xbed71f85	-0.42016235
168	0xbfca7f02	-1.582001
169	0xbf3911d9	-0.7229286
170	0x3dd3e438	0.10346264
171	0xbf6ff111	-0.93727213
172	0xbe5614af	-0.20906328
173	0x3d412091	0.0471502
174	0xbce724d1	-0.028215798
175	0xbe3b5d1b	-0.18297236
176	0xbee49555	-0.4464518
177	0xbe1725fb	-0.14760582
178	0xbf0cecc3	-0.5504877
179	0x3ed3c95e	0.41364568
180	0xbeba8dcb	-0.36436304
181	0xbf6c9838	-0.9241977
182	0xbe53b70c	-0.20675296
183	0xbee6878c	-0.4502529
184	0xbeb22273	-0.34791908
185	0xbe0603cb	-0.13087384
186	0x3e8a09c7	0.26960585
187	0xbe0376cf	-0.1283829
188	0x3ec846a9	0.3911641
189	0xbf7e735b	-0.9939477
190	0xbf45b1a2	-0.7722417
191	0x3dada858	0.08479375
192	0xbf44785d	-0.7674616
193	0x3eafab10	0.34310198
194	0x3d3ebcc4	0.04656674
195	0xbde8a333	-0.11359253
196	0x3dc93538	0.09824604
197	0xbf1b681e	-0.60705745
198	0x3e0e85ef	0.13918279
199	0xbc2ed68a	-0.010671267
200	0xbe97fc64	-0.29684746
201	0x3ed3e788	0.41387582
202	0xbf872c06	-1.056031
203	0x3f315e11	0.6928416
204	0xbf3cd97e	-0.73769367
205	0xbe8b7657	-0.27238724
206	0x3e2ffe01	0.17186739
207	0xbe9c692a	-0.30548984
208	0xbf10b5be	-0.56527317
209	0xbf255912	-0.64589036
210	0x3f6e7f81	0.93163306
211	0xbee3bb0f	-0.44478652
212	0x3e27fa1b	0.16404001
213	0x3e8b74d1	0.2723756
214	0x3e2351c0	0.15949154
215	0xbf32eacf	-0.6988954
216	0xbe5db520	-0.21651125
217	0x3dc65e66	0.09685974
218	0xbe8eef10	-0.27916765
219	0x3dd978c4	0.10618737
220	0xbea97b15	-0.33101717
221	0xbe914a1d	-0.28376856
222	0xbe0dc663	-0.1384521
223	0xbf09fe58	-0.5390372
224	0x3f0820d7	0.5317511
225	0x3f4dc2fd	0.80375654
226	0xbf053a4f	-0.52042097
227	0x3e4c3402	0.19941714
228	0x3e811e13	0.25218257
229	0xbe917542	-0.28409773
230	0xbebc5a5e	-0.36787695
231	0x3f5ceadc	0.86295867
232	0x3eb3da4a	0.3512748
233	0xbe2b63cf	-0.16737293
234	0xbeb3415f	-0.35010812
235	0xbed34320	-0.4126215
236	0x3d9a771e	0.07542251
237	0x3ee0f732	0.43938595
238	0xbf1632b5	-0.5867112
239	0xbea08565	-0.31351772
240	0x3e9dd98d	0.3083004
241	0xbee8baf4	-0.45455134
242	0xbde0ef3a	-0.10983129
243	0xbebefd4c	-0.37302625
244	0x3f813b43	1.009621
245	0xbec1716b	-0.37781844
246	0x3e68234f	0.22669719
247	0xbe8287c6	-0.25494212
248	0xbf476657	-0.77890533
249	0xbe9e6b5d	-0.30941287
250	0x3dc7f375	0.097632326
251	0x3eeec85c	0.46637237
252	0xbf244927	-0.6417412
253	0xbe0fce6a	-0.14043584
254	0x3e044683	0.12917523
255	0x3e094b9f	0.13407753

fc2.bias f4 [256]
0	0xbf26158f	-0.64876646
1	0xbe65084c	-0.22366446
2	0xbf39f41f	-0.72638124
3	0x3ec60ee5	0.3868324
4	0xbe228453	-0.1587079
5	0xbfd0a027	-1.6298875
6	0xbe405496	-0.18782267
7	0xbf4ce76b	-0.80040616
8	0x3f58bce1	0.84663206
9	0x3f05e655	0.52304584
10	0xbd83063d	-0.06397674
11	0x404c5f35	3.193311
12	0xbf11974f	-0.56871504
13	0x3d6e804f	0.058227833
14	0xbf2a2126	-0.6645683
15	0xbe75e083	-0.24011426
16	0xbeda3e40	-0.42625618
17	0x3cd5cf6b	0.026099881
18	0xc00a2ddc	-2.159049
19	0xbf9e8da9	-1.2386981
20	0xc03021b1	-2.7520564
21	0xc045429a	-3.08219
22	0xc02d5ce7	-2.7087953
23	0xbf1edf18	-0.62059164
24	0x3de623e8	0.11237317
25	0xbf3fd5b6	-0.7493547
26	0xbfd882fb	-1.6914972
27	0xbf308d8f	-0.68966
28	0xbe86b593	-0.26310405
29	0xbc9dc77f	-0.019260166
30	0xc051928f	-3.2745702
31	0x3e0d66a1	0.13808681
32	0xbef59fe8	-0.4797356
33	0xbf1fad43	-0.6237375
34	0xc02c3a50	-2.691059
35	0xc049fef1	-3.1561854
36	0x3f3e27e5	0.74279624
37	0x3f666b7b	0.9000775
38	0x3de5e78b	0.11225804
39	0x3f9e02bb	1.2344583
40	0xbedcb2f1	-0.4310527
41	0xbf350418	-0.7070937
42	0x3d601ecd	0.054716874
43	0xbf457c97	-0.77143234
44	0xc04cdf7b	-3.2011402
45	0x3f09385c	0.5360162
46	0xbf720017	-0.9453139
47	0xbf4b7b58	-0.7948508
48	0xbf7b1b69	-0.980887
49	0xc0503462	-3.2531972
50	0xbe27f8af	-0.16403459
51	0x3ed2bbe6	0.4115898
52	0x3f76b12a	0.9636408
53	0xc03fc67f	-2.9964902
54	0xbf9e98f5	-1.2390429
55	0x3c0dba68	0.0086504
56	0xbd3e86c4	-0.04651524
57	0xbf5c5c36	-0.860782
58	0x4016fa9e	2.3590465
59	0xbe8e62cd	-0.27809754
60	0x3f9a5e3c	1.2060008
61	0x3e31b464	0.1735397
62	0xbf80be6f	-1.0058116
63	0xbfb3dfc2	-1.405266
64	0xbe8ea60f	-0.27861068
65	0x3faea5a8	1.3644304
66	0x3e65b47e	0.22432134
67	0x3f0a3b45	0.5399669
68	0xc0385242	-2.8800206
69	0x3f96f535	1.1793581
70	0xbfc14d5e	-1.5101736
71	0xc0293fd9	-2.644522
72	0x3d80a255	0.062809624
73	0xc0413606	-3.0189223
74	0xbe541c42	-0.20713905
75	0xbf1448af	-0.57923406
76	0xc001ba80	-2.027008
77	0xbf5c57d4	-0.86071515
78	0x3f948b91	1.1605092
79	0x3f715820	0.94275093
80	0xbf8b9cb4	-1.0907197
81	0xbe6f025a	-0.23340741
82	0xc03b84a7	-2.9299715
83	0xc01f899f	-2.4927747
84	0xc015b7b3	-2.339337
85	0xbe11a459	-0.1422285
86	0xc00de4ef	-2.217098
87	0x3f92a3d7	1.145625
88	0x3fa41b9f	1.2820929
89	0x3f266aed	0.65006906
90	0xc01011cc	-2.2510862
91	0xc01e7f43	-2.4765174
92	0xbe5580af	-0.2084987
93	0xbf07a618	-0.52987814
94	0xc02f51fa	-2.7393785
95	0x3f17228a	0.5903708
96	0xbf1c8fec	-0.6115711
97	0x3eaf986f	0.34295985
98	0xbf842d95	-1.032641
99	0xc04c439f	-3.1916273
100	0xbf0ba5ef	-0.5455007
101	0xc0339861	-2.8061755
102	0xbf8da440	-1.106575
103	0xbc30c82a	-0.01078991
104	0xc0391b9a	-2.8923097
105	0xbe040e21	-0.12896015
106	0xbf4d7e3f	-0.8027076
107	0x3e412f4b	0.18865697
108	0xbf478cb7	-0.7794909
109	0xc0376bee	-2.8659625
110	0xbf112100	-0.5669098
111	0xbff55f3c	-1.9169688
112	0xbe890cf9	-0.2676771
113	0xbeda0b75	-0.42586866
114	0x3e6bc74f	0.23025249
115	0x3ea1cd1e	0.31601804
116	0xbeb850e6	-0.3599922
117	0xbf486489	-0.78278404
118	0xc0453a7f	-3.0816953
119	0xbf86bb78	-1.0525961
120	0x3e20664e	0.15664026
121	0xbf7190db	-0.94361657
122	0xbf90da1f	-1.1316565
123	0x3f261648	0.6487775
124	0xbf296e43	-0.6618387
125	0xc046d3b3	-3.106671
126	0xc0536e27	-3.3035982
127	0x3f51ad2d	0.8190487
128	0x3f9c9a16	1.2234523
129	0xc00cadc8	-2.1981068
130	0x40047c99	2.0701048
131	0xbef1cd5c	-0.4722699
132	0xc057fdea	-3.3748727
133	0xbfb235cf	-1.3922671
134	0x3fc7c491	1.5606862
135	0x3e1f85e1	0.15578414
136	0xbef49f2b	-0.47777686
137	0xc036bd65	-2.8553097
138	0xbf5813ca	-0.84405196
139	0x3f9672f0	1.1753826
140	0x3cbff2b7	0.023431165
141	0xc05ba5a1	-3.4319842
142	0xbe9f0eda	-0.31066018
143	0xbfabee78	-1.343215
144	0xc026f38e	-2.6086154
145	0xc04b57b2	-3.1772275
146	0x3edf1ebc	0.43578136
147	0xbf5f720e	-0.8728341
148	0x3f055d3f	0.5209541
149	0xbf9d5941	-1.2292863
150	0xbf6561ba	-0.89602244
151	0x3edb7d7e	0.4286918
152	0xbf85f702	-1.0466006
153	0xbff83724	-1.9391828
154	0x3ed4b411	0.4154363
155	0x3e9bf19b	0.30457768
156	0xbf8d7d0d	-1.1053787
157	0xbef243bb	-0.473173
158	0x3cbb4ad5	0.022862831
159	0xc02739d2	-2.612904
160	0xbd882bc8	-0.066489756
161	0x3d8bc09d	0.068238474
162	0xc05794cf	-3.3684576
163	0x3f1126f7	0.5670008
164	0xbf5831d2	-0.8445102
165	0x3e0c0370	0.13673186
166	0x3f6035e4	0.8758223
167	0x3e9e5eb7	0.30931637
168	0xc016c662	-2.3558583
169	0xbe729ac8	-0.23691857
170	0x3f8c59e6	1.0964935
171	0xbf0aa636	-0.5415987
172	0xbebd50dc	-0.36975753
173	0xbfa08b94	-1.2542596
174	0xbd8d1dfd	-0.068904854
175	0xbf7fa260	-0.9985714
176	0xc04f09b4	-3.2349672
177	0xc04939ae	-3.1441455
178	0xbf0fed05	-0.5622104
179	0xbfb85a7c	-1.4402614
180	0xc010c99b	-2.262305
181	0xbf3e01d4	-0.7422154
182	0xc04dd85b	-3.2163303
183	0x3e81e285	0.25368133
184	0x3f241a31	0.64102465
185	0xbe98b4e4	-0.2982551
186	0xbf574a21	-0.84097487
187	0x3e0b4f0b	0.13604371
188	0xbf43bac0	-0.7645683
189	0x3ceb8090	0.028747827
190	0x3e741fa5	0.23840196
191	0x3e7fab76	0.24967751
192	0xc051b0fe	-3.2764277
193	0xbfcc0d0e	-1.5941484
194	0xc03cc39f	-2.9494398
195	0xbf0ec9f9	-0.55776936
196	0xc024ae77	-2.5731485
197	0xbd09aa37	-0.033609595
198	0x3f2a8bae	0.66619384
199	0xbcaeae5a	-0.021323372
200	0xc040e3a2	-3.0138936
201	0x3eae28e9	0.34015587
202	0xc045eb09	-3.0924704
203	0xc02ea09e	-2.7285533
204	0xbefaa8b7	-0.48956844
205	0xc03b01e5	-2.9219906
206	0xbf048b43	-0.51774997
207	0xc04ceab4	-3.2018251
208	0x3fb632dd	1.4234272
209	0xbed8de6f	-0.42357203
210	0xbf3dc00e	-0.7412118
211	0xbf35e0af	-0.71045965
212	0xc03083ac	-2.7580366
213	0x3ed683fa	0.41897565
214	0xbf09c4e9	-0.53816086
215	0xc0487772	-3.1322904
216	0x40021790	2.0326881
217	0xbff6f723	-1.929417
218	0xbfa96d04	-1.3236394
219	0xbf2b7c62	-0.6698667
220	0xbf427f42	-0.7597543
221	0xbf24d77b	-0.643913
222	0xbf7ae801	-0.9801026
223	0xbf49c3be	-0.78814304
224	0xbed10ecb	-0.408316
225	0x3d38c933	0.045113754
226	0x3f1ce370	0.6128454
227	0x3d23eafc	0.04001902
228	0xbfa167ef	-1.2609843
229	0xbedce2a6	-0.4314167
230	0xc05696ff	-3.352966
231	0x3ea53bdb	0.3227223
232	0xbe912eb5	-0.28355947
233	0xbf1f7886	-0.6229328
234	0xc055e066	-3.3418212
235	0x3c9b17a5	0.018932173
236	0x3ede08f5	0.4336621
237	0xc017effc	-2.3740225
238	0xbf244723	-0.64171046
239	0xc01c9ff3	-2.4472625
240	0xbf7dca16	-0.99136484
241	0xbf7e679c	-0.99376845
242	0xbf68405f	-0.9072322
243	0xbfa03477	-1.2516011
244	0x3e85181d	0.2599496
245	0xc0480c11	-3.1257365
246	0xc04db4f5	-3.2141697
247	0x3edf677a	0.43633634
248	0xbde12327	-0.10993033
249	0xbf650d9e	-0.89473903
250	0x3f05f3f0	0.52325344
251	0xc060cc95	-3.5124867
252	0xbf01358b	-0.50472325
253	0xbf1d141b	-0.61358804
254	0xbff56f8e	-1.9174669
255	0x3f5e4bf0	0.8683462

fc3.weight f4 [128, 256]
0	0x3ed1d825	0.40985218
1	0x3d31a698	0.043371767
2	0x3ea825ed	0.32841435
3	0x3d8d41da	0.06897326
4	0x3e31dc8b	0.17369287
5	0x3e9d1eb1	0.30687478
6	0x3ed6dffa	0.41967756
7	0x3dc67262	0.096897855
8	0x3e93b776	0.28850907
9	0x3ea2ae19	0.3177345
10	0x3eb3577f	0.35027692
11	0xbeb64213	-0.35597286
12	0x3d8b62ab	0.06805929
13	0x3e128cd8	0.1431154
14	0x3e86684b	0.26251444
15	0xbe64d702	-0.22347644
16	0x3e0b3994	0.13596183
17	0x3e78fbd4	0.24314815
18	0x3e4e0805	0.20120247
19	0x3e965ff7	0.2937009
20	0x3ee65d2a	0.44992954
21	0x3ec2558b	0.3795589
22	0x3e771c1c	0.24131817
23	0x3e6ab6cb	0.22921292
24	0x3efb6536	0.49100655
25	0x3dfe6ae9	0.12422735
26	0x3f1a35e3	0.60238475
27	0x3f1fdffd	0.62451154
28	0x3e8eeb86	0.27914065
29	0xbce6059b	-0.028078845
30	0x3ed8d724	0.4235164
31	0x3ec34750	0.38140345
32	0x3eb64924	0.35602677
33	0x3ea9cbc9	0.33163288
34	0x3e8aaffa	0.27087384
35	0x3e8b230d	0.2717518
36	0x3e724f86	0.23663148
37	0x3f0262c2	0.5093194
38	0x3e1e3707	0.15450679
39	0x3ca15ad2	0.019696627
40	0x3e21a88b	0.1578695
41	0x3e164c31	0.14677502
42	0x3e23d96c	0.16000909
43	0x3ea104e9	0.3144906
44	0x3edba23f	0.4289722
45	0xbd4238d5	-0.04741748
46	0x3e61aa1b	0.22037546
47	0x3d562425	0.052280564
48	0x3e3f3da4	0.18675858
49	0x3eace946	0.33771724
50	0x3e12c70b	0.14333741
51	0x3dcab7c5	0.098983325
52	0x3f00a7a5	0.50255805
53	0x3ef8be47	0.4858267
54	0x3e12c48a	0.14332786
55	0x3e45e7e1	0.19326736
56	0x3eae58ab	0.34052023
57	0x3e924433	0.28567657
58	0x3da21535	0.07914201
59	0x3ef59e7f	0.47972485
60	0x3ec81beb	0.390838
61	0x3de6c897	0.11268728
62	0x3e7f62d7	0.24940048
63	0x3dd2e86b	0.102982365
64	0x3e9c3b80	0.30514145
65	0x3e00c05b	0.12573378
66	0x3d29321c	0.041307554
67	0x3ea5ba35	0.32368627
68	0x3f14916f	0.58034414
69	0x3f260182	0.6484605
70	0xbdaac9eb	-0.08339294
71	0x3eae288c	0.3401531
72	0x3eba5d9b	0.3639954
73	0x3e9b5711	0.30339864
74	0x3f0ed048	0.5578656
75	0x3e8e9852	0.27850586
76	0x3e953f7c	0.29149997
77	0x3ea875bc	0.32902324
78	0x3e62dc2f	0.22154306
79	0x3c96d313	0.018411195
80	0x3bb63689	0.0055607003
81	0x3e38ed4c	0.18059272
82	0x3ea5da03	0.32392892
83	0x3e9b23a6	0.30300635
84	0x3e82a311	0.25515035
85	0x3eca5b1f	0.39522645
86	0x3ec479b3	0.383741
87	0xbd99a5cc	-0.07502326
88	0x3ebb16ae	0.3654074
89	0x3e68d9c3	0.2273932
90	0x3eabc501	0.3354874
91	0x3eed4438	0.4634111
92	0x3eb3eb70	0.35140562
93	0x3eb306fd	0.3496627
94	0x3e2a093a	0.16605082
95	0x3dfed9fe	0.124439225
96	0x3e36b71e	0.17843291
97	0x3d8f4de2	0.06997277
98	0x3de0b251	0.10971511
99	0x3eef412b	0.46729407
100	0x3f18fde5	0.5976241
101	0x3e8a38e8	0.2699654
102	0x3cd69b9a	0.026197243
103	0x3f0c0550	0.54695606
104	0x3ea5a9d7	0.3235614
105	0x3ed1f68e	0.4100842
106	0x3e3a772a	0.1820952
107	0x3e12d9f9	0.14340962
108	0x3eb1630f	0.34645888
109	0x3e93e77a	0.2888754
110	0x3ea0cb4c	0.31405103
111	0x3e3d944b	0.185136
112	0x3e3c46c8	0.18386376
113	0x3eb49dab	0.3527654
114	0x3e040794	0.12893516
115	0x3e27cc3e	0.16386506
116	0x3ee820b1	0.45337442
117	0x3ecc261f	0.39872834
118	0x3ed4e3b9	0.4157999
119	0x3e941452	0.28921753
120	0x3e42895c	0.18997711
121	0x3ee0fce2	0.43942934
122	0x3e8576b0	0.26067114
123	0x3e5dbc02	0.2165375
124	0x3e693f14	0.22777969
125	0x3ec1e8c8	0.3787291
126	0x3ee54169	0.44776466
127	0xb925926f	-0.00015790177
128	0x3d706155	0.058686573
129	0x3eab7079	0.33484247
130	0xbc411850	-0.011785582
131	0x3e1e1f97	0.15441738
132	0x3ebb73e6	0.3661186
133	0x3e7be79f	0.24600075
134	0x3d4d2663	0.050085437
135	0x3ebcda8a	0.36885482
136	0x3ecc5026	0.39904898
137	0x3eca269f	0.3948259
138	0x3e30bf0a	0.17260376
139	0x3ebe4597	0.37162468
140	0x3f131606	0.5745548
141	0x3eccf95c	0.40033996
142	0x3d963416	0.07334153
143	0x3c8d8bdd	0.017278606
144	0x3e9d3c9f	0.30710313
145	0x3ed70eaf	0.4200339
146	0x3ea4b95d	0.3217267
147	0x3ebae7a2	0.36504847
148	0x3ec56f73	0.38561592
149	0x3e807bfd	0.25094596
150	0x3e8bd526	0.27311057
151	0x3e53d2f0	0.20685935
152	0x3e08afca	0.13348308
153	0x3f26f81e	0.65222347
154	0x3e44fd57	0.19237266
155	0x3e1bf221	0.15229084
156	0x3eede6bc	0.464651
157	0x3e2f66d8	0.17129076
158	0x3e8d48a1	0.27594474
159	0x3e5cb60a	0.21553817
160	0x3ef30a3a	0.4746874
161	0x3e497bfb	0.19676201
162	0x3ebac25d	0.36476412
163	0x3ebad763	0.36492452
164	0x3e37aff7	0.17938219
165	0x3e809fc1	0.25121883
166	0x3ee20f8c	0.44152486
167	0x3dedcb1d	0.116110064
168	0x3ef12a10	0.47102404
169	0x3e9b4858	0.3032863
170	0x3e306710	0.17226815
171	0x3f09ae3f	0.53781503
172	0x3ec8d5f2	0.39225727
173	0x3ebd6dea	0.3699792
174	0x3de39cda	0.111139014
175	0x3ea2fc99	0.31833342
176	0x3eece8b5	0.4627129
177	0x3e912cd9	0.2835453
178	0x3ed5c0b1	0.41748574
179	0x3e09bc5a	0.13450757
180	0x3ea7489d	0.32672587
181	0x3e9faeb3	0.31187972
182	0x3ec19a68	0.37813115
183	0x3dc95858	0.09831303
184	0x3e5b0d5d	0.21391816
185	0x3ea0c1a7	0.31397745
186	0x3e9e6dfd	0.3094329
187	0x3e46a682	0.19399455
188	0x3e97c5dc	0.29643142
189	0x3eeea981	0.46613696
190	0x3df8fbcd	0.12157402
191	0x3d571057	0.052505817
192	0x3eaefd73	0.3417774
193	0x3b0c4fd9	0.0021409898
194	0x3ee61a20	0.44941807
195	0x3e084aaf	0.1330974
196	0x3ec6c5aa	0.3882268
197	0xbdcd3883	-0.100205444
198	0x3e3c54ba	0.18391696
199	0xbe31b089	-0.17352499
200	0x3eb2d050	0.34924555
201	0x3e5bb64c	0.2145626
202	0x3e842047	0.25805876
203	0x3ecc1e30	0.3986678
204	0x3f6b156d	0.9182957
205	0x3ef2c490	0.4741559
206	0x3e9e6fd2	0.30944687
207	0x3ee180db	0.4404362
208	0x3d9d2054	0.07672182
209	0x3d1cc066	0.038269423
210	0x3f1768aa	0.5914408
211	0xbcb89102	-0.022530083
212	0x3ea1a9a7	0.31574747
213	0x3ede543d	0.43423644
214	0x3f0ff366	0.5623077
215	0x3ec5f0d3	0.38660297
216	0x3db0b328	0.08627921
217	0x3e5556b0	0.2083385
218	0x3e8eb7e3	0.2787467
219	0xbe408828	-0.1880194
220	0xbe197eb6	-0.14989743
221	0x3e2a4cae	0.16630813
222	0x3ecab2da	0.39589578
223	0x3cb41bd2	0.021985922
224	0x3e9fbed9	0.31200293
225	0x3eb9b9b8	0.36274505
226	0x3dc29f27	0.09503012
227	0x3e882a90	0.26594973
228	0x3cc9d6af	0.024638502
229	0x3e4dceb9	0.2009839
230	0x3eb91075	0.36145368
231	0x3ec6427a	0.38722593
232	0x3e2b8090	0.16748261
233	0xbc3a3f0c	-0.011367571
234	0x3ebef4e1	0.37296203
235	0x3efcc3a5	0.49368015
236	0x3f341f12	0.7035991
237	0x3d9baf63	0.07601812
238	0x3e1a55c0	0.15071774
239	0x3eeba331	0.46022943
240	0x3ef6aa16	0.4817664
241	0x3f0ea673	0.5572273
242	0x3eef483d	0.467348
243	0x3e23b770	0.15987945
244	0x3e06e49b	0.13173144
245	0x3ee75cf4	0.45188105
246	0x3ef062af	0.4695029
247	0x3ed407b0	0.41412115
248	0x3ea775dc	0.32707107
249	0xbd0cba23	-0.0343572
250	0x3eb256ba	0.34831792
251	0x3ec7aa3c	0.38997066
252	0x3e88014b	0.26563486
253	0x3f028dc7	0.50997585
254	0x3f353910	0.70790195
255	0x3ebc5c27	0.36789057

fc3.bias f4 [128]
0	0xbf151c19	-0.58246
1	0xbe302204	-0.17200476
2	0xbf37db2b	-0.718188
3	0xbf2be3c1	-0.671444
4	0xbf0b7ab9	-0.54484135
5	0xbeecdde9	-0.46263054
6	0xbf78bdd2	-0.9716464
7	0xbf3add7e	-0.7299422
8	0xbf2d1362	-0.676077
9	0xc02c5f7e	-2.6933284
10	0xbf246959	-0.6422325
11	0xbf568703	-0.8379976
12	0xbf31baaa	-0.6942545
13	0xbfd34faa	-1.6508687
14	0xbf3460b8	-0.7046008
15	0xbf419a09	-0.75625664
16	0xbf19b6bc	-0.60044456
17	0xbe8c2766	-0.2737381
18	0xbf3736b6	-0.7156786
19	0xbf17c470	-0.59284115
20	0xbee9f3f9	-0.4569395
21	0xbf3890ce	-0.72095954
22	0xbf3c4aba	-0.73551524
23	0xbf39706a	-0.72437155
24	0xbf118eee	-0.5685872
25	0xbfff8e2a	-1.996526
26	0xbf674edc	-0.90354705
27	0xbf4a6324	-0.79057527
28	0xbf2bf437	-0.6716952
29	0xbf39d308	-0.72587633
30	0xbf3a9704	-0.7288668
31	0x3f3f1d3a	0.7465397
32	0xbf6b7647	-0.9197735
33	0xbf0aee4a	-0.5426985
34	0xbf5eafab	-0.869868
35	0xbf463281	-0.7742081
36	0xc022f538	-2.546217
37	0xbf1cbe4e	-0.6122788
38	0xbf3f4765	-0.74718314
39	0x3ff5a251	1.919016
40	0xbf79b613	-0.9754345
41	0xbe97339f	-0.2953157
42	0xbf4056ac	-0.7513225
43	0xbf2cc5c0	-0.6748924
44	0xbf12743c	-0.5720861
45	0xbf5ab180	-0.85427094
46	0xbf4bafee	-0.7956532
47	0xbf1aa952	-0.6041461
48	0xbef5db78	-0.48019004
49	0xbf4137d7	-0.7547583
50	0xbf5cad2a	-0.8620173
51	0xbf2c9c0e	-0.6742562
52	0xbf2a57d6	-0.66540277
53	0xbf2c04be	-0.67194736
54	0xbf39720e	-0.7243966
55	0xbf25a495	-0.6470426
56	0xbf58894f	-0.84584516
57	0xbf286bcc	-0.65789485
58	0xbf396cbb	-0.72431535
59	0xbef6f0a3	-0.48230466
60	0xbf26ceec	-0.6515949
61	0xbf45ef8a	-0.7731863
62	0xbf3d9e20	-0.74069405
63	0x3e69dd69	0.22838368
64	0xbe85e582	-0.26151663
65	0xbf467393	-0.775201
66	0xc027d014	-2.622075
67	0xc02402eb	-2.562678
68	0xbfcd48ca	-1.6037838
69	0xbf2a7798	-0.66588736
70	0xbf961a35	-1.1726748
71	0xbf16d420	-0.5891743
72	0xbf1dca26	-0.6163658
73	0xbe7a9eb6	-0.24474606
74	0xbf6a2da0	-0.9147587
75	0xbf6d345a	-0.9265801
76	0xbf0a09d8	-0.5392127
77	0xbf33db6f	-0.70256704
78	0x3fa30b29	1.2737781
79	0xbf5855d8	-0.8450599
80	0x3f5711ea	0.8401171
81	0xbf1909fd	-0.59780866
82	0xbf35b0e2	-0.70973027
83	0xbeb7469c	-0.35796058
84	0xbf030d31	-0.51192003
85	0xbf40bbf2	-0.7528678
86	0xbf0df659	-0.5545402
87	0xbf4d80e7	-0.80274814
88	0xbe8d1263	-0.2755309
89	0xbf67cf6e	-0.9055089
90	0xbd96e1e4	-0.07367304
91	0x3f1e8a04	0.61929345
92	0xbece13e3	-0.40249547
93	0xbf577332	-0.8416015
94	0xbf4bcf91	-0.79613596
95	0xbf548409	-0.8301397
96	0xbf30cb3b	-0.69060105
97	0xbf38a2d3	-0.7212345
98	0xbf0fb9f1	-0.561431
99	0xbf419573	-0.75618666
100	0xbf328372	-0.6973182
101	0xbf30e658	-0.69101477
102	0xbf5fe66e	-0.8746098
103	0xbf0fa714	-0.56114316
104	0x400b1888	2.1733723
105	0xbf6dc12c	-0.9287288
106	0xbf3bf1ec	-0.7341602
107	0xbf3d7a95	-0.7401517
108	0xbf681f37	-0.9067263
109	0xbf46e059	-0.7768608
110	0xbfae4b7e	-1.3616788
111	0xbf499475	-0.7874215
112	0xbf063170	-0.52419186
113	0xbf500016	-0.8125013
114	0xbf0c27b8	-0.54748106
115	0xbebc6bbc	-0.36800945
116	0xbf3a74b3	-0.7283432
117	0xbf164255	-0.58694965
118	0x3f7d3ff4	0.9892571
119	0xbf2c4cf8	-0.67304945
120	0xbf4de2ef	-0.804244
121	0xbf42d1f0	-0.7610159
122	0xbf632b9d	-0.88738424
123	0xbf10565d	-0.5638178
124	0xbf640197	-0.89064926
125	0x3f5cb603	0.8621523
126	0xbf35c53d	-0.71004087
127	0xbf192a42	-0.59830105

fc4.weight f4 [1, 128]
0	0x39442907	0.000187073
1	0xbb540f53	-0.0032357767
2	0xba9306b7	-0.0011217211
3	0xba99f911	-0.0011747201
4	0xbb617964	-0.003440463
5	0x3ad7aa92	0.0016454032
6	0xba652107	-0.0008740578
7	0x3b094047	0.0020942853
8	0xbb420a4d	-0.002960819
9	0xbec1734e	-0.37783283
10	0xba844e51	-0.0010094141
11	0x39e3ce77	0.00043450642
12	0x39a6b688	0.00031797984
13	0xbc381379	-0.011235111
14	0x3c3eb4df	0.011639803
15	0xb9f84586	-0.00047354045
16	0xbbb30b61	-0.005464003
17	0x3a88c945	0.001043596
18	0xbb4b2cd8	-0.003100207
19	0xbb004e25	-0.0019577828
20	0xba989758	-0.0011641784
21	0xba32dfe5	-0.0006823524
22	0xbaf534d5	-0.0018707762
23	0x3b170599	0.0023044108
24	0x3a17ca8e	0.0005790376
25	0xbc4edf66	-0.0126265045
26	0x3c3ba08a	0.01145185
27	0xbb9e5868	-0.004832316
28	0xba363a60	-0.00069514476
29	0xbaf0fea1	-0.0018386432
30	0xb9ba5712	-0.00035541557
31	0x3e4e20a2	0.20129636
32	0xbb82b5a7	-0.00398894
33	0x39ae8a45	0.00033290885
34	0x37f16f40	2.8781244e-05
35	0xbbb1bca4	-0.005424099
36	0xbebaae33	-0.36461028
37	0xbabc476c	-0.0014364547
38	0xbb17eb69	-0.0023181087
39	0xba5f23f9	-0.0008512135
40	0x3c14252c	0.009042066
41	0xbac34526	-0.0014897927
42	0x3c38f32a	0.011288444
43	0x3a5fb2b3	0.0008533403
44	0xba3370e3	-0.00068451295
45	0xbb70e52e	-0.0036757695
46	0xba5bcc16	-0.0008384598
47	0xb94c1b35	-0.00019465091
48	0x3b0161e1	0.0019742178
49	0xbada45e4	-0.0016652909
50	0xbb6020f3	-0.0034199327
51	0x38c4f82d	9.392235e-05
52	0xbbbc91ce	-0.005754686
53	0xbb84da8b	-0.0040543727
54	0xba743c1b	-0.0009316818
55	0x3c23844f	0.009980275
56	0x3981eb78	0.00024780235
57	0x3a7dcf56	0.00096820795
58	0xbac2610b	-0.0014829946
59	0x3bc05f8d	0.0058707655
60	0x3a1d4632	0.00059995346
61	0x3a20c0d4	0.0006132249
62	0x39d40e89	0.0004044662
63	0xbb40c038	-0.0029411446
64	0xbbbcd937	-0.0057631987
65	0x3a85bea9	0.0010203916
66	0xbebe36be	-0.3715114
67	0xbec79dae	-0.38987488
68	0x3be7ee64	0.007077979
69	0xb9ec6d11	-0.00045094689
70	0x3b852c54	0.004064122
71	0x3c456e24	0.012050185
72	0xb954aed8	-0.0002028303
73	0xbb762298	-0.003755724
74	0xbb343171	-0.002749529
75	0xbbc44e39	-0.00599077
76	0x3ae4167f	0.0017401724
77	0xbabb783f	-0.0014302804
78	0xb95d8c1b	-0.00021128396
79	0x3bb98355	0.005661408
80	0xbb428693	-0.0029682263
81	0x3b70b452	0.0036728573
82	0x383bab96	4.4744076e-05
83	0x3ab3f297	0.0013728914
84	0x3bdc363e	0.0067203334
85	0x3b38f84f	0.0028224175
86	0xbc0b6b5e	-0.008509485
87	0xbb8e7095	-0.004346917
88	0xba79024b	-0.0009498938
89	0xba0bdd65	-0.00053354196
90	0xbb50c447	-0.0031855272
91	0x3e06ab5f	0.1315131
92	0xbb001212	-0.001954202
93	0xbb483c6e	-0.0030553597
94	0x3bf89b43	0.007586868
95	0xba2b195a	-0.000652691
96	0xbb6bcc88	-0.0035980064
97	0x3c13cee8	0.009021498
98	0xbaec3760	-0.0018021874
99	0xbb88d923	-0.0041762753
100	0xba5641b9	-0.00081732456
101	0x3b992353	0.0046734004
102	0xbaa9147c	-0.0012899782
103	0xbb6fe554	-0.0036605196
104	0x3c4710f4	0.012150038
105	0x3be3fc69	0.00695758
106	0x3a3fb322	0.00073127646
107	0xbb432439	-0.002977623
108	0xbb6d1042	-0.003617302
109	0xb99262dc	-0.00027920946
110	0x3c96d570	0.018412322
111	0x3ae30ea9	0.0017323095
112	0xb912e168	-0.00014007615
113	0xbb75eb30	-0.0037524216
114	0x39745712	0.0002330209
115	0xbb09ea92	-0.0021044356
116	0x3b3af1cd	0.0028525472
117	0xb7ab6284	-2.0430663e-05
118	0x3ba053c4	0.004892798
119	0xb9e74eb3	-0.0004411839
120	0xbad25d3f	-0.0016049518
121	0x3b424910	0.00296456
122	0x38af201a	8.35063e-05
123	0x39a82e47	0.00032077936
124	0xba583343	-0.00082473847
125	0x3c1d8356	0.009613832
126	0x3c3814ba	0.01123541
127	0xbba20bf5	-0.004945273
