p2_continuous-control/saved_actor_model.pth (torch_old, 39709 bytes, 4 tensors)

fc1.weight f4 [256, 33]
-0.24761005 0.033836547 0.171343 0.046362624 0.020800458 -0.23236696 -0.01377653 -0.12998058
0.37180072 0.122718126 0.010077091 0.13035017 0.079679586 -0.09324847 -0.29514936 -0.36525214
0.02879441 0.007095798 -0.009191332 0.040859003 -0.08047498 -0.039795123 0.05051197 0.19543858
-0.003861933 -0.09615536 0.3448464 -0.10385819 0.31965253 0.016478404 0.032189075 0.012041077
-0.4369454 -0.5571907 -0.18458155 -0.09148112 0.04425189 -0.33308035 -0.32047808 0.028582808
-0.2274295 -0.04728648 -0.06287309 -0.077227846 -0.10152022 -0.004606985 -0.3829442 0.14762396
-0.3601188 -0.042028658 0.08739447 -0.0045685875 0.042230424 0.017635494 -0.0037714778 -0.23065306
-0.33817625 0.1197779 -0.0635388 0.07267067 0.24330902 -0.28907052 -0.037694827 -0.17623048
-0.043795846 0.71663684 -0.19917813 -0.30734307 -0.25078908 0.051613033 -0.15886007 0.025499932
-0.044659104 0.16064431 -0.06616073 -0.18552597 -0.056981094 -0.10970614 -0.089823075 0.077277705
-0.028171744 0.08920853 0.010207593 -0.025920652 0.028781155 0.004198972 0.12339309 0.16408141
-0.036038067 0.059242185 0.06422712 0.01797437 -0.07090803 -0.3047905 -0.04479096 0.003437236
0.3106463 -0.03957939 -1.5496206 0.26174903 0.17252901 0.02042911 0.13239327 0.27612764
-0.13424645 -0.08070381 -0.11114892 0.30248156 -0.11231327 -0.013012339 0.024836294 0.06986138
-0.10008113 -0.06311968 0.11824814 0.011647217 0.03852428 0.0944944 -0.019541644 0.0811694
-0.40083 -0.08484381 0.20222193 0.039793283 0.082684815 0.10140823 0.20503436 0.4873507
0.029600084 -0.24354334 0.049809985 -1.2035986 -0.040136427 -0.4095522 0.35932 0.039751448
-0.046818167 0.06646601 -0.040061984 0.24940279 0.08957583 0.16791591 0.40382305 0.020395871
0.15258874 0.22944361 0.19345085 -0.23358522 -0.0026586652 -0.06888899 0.031044422 0.05702011
0.06123202 0.09939552 0.30861446 0.0772654 0.12118757 -0.021808777 0.018283864 0.017320743
0.2958968 0.015866593 -0.04079412 0.01472386 -0.62151396 0.5060216 -0.13917688 -0.40363118
-0.028427875 0.37931132 0.39493862 -0.28439978 0.09365705 -0.03897294 0.120932825 0.14740984
-0.1060191 0.100430794 -0.2480149 -0.12105261 0.28732923 -0.0049547227 0.024042808 0.11038098
-0.11554576 0.12957138 0.06978591 -0.12402121 -0.35638362 -0.2879762 0.15965682 0.02453538
0.28028014 0.4024683 0.059417173 -0.2413141 -0.00785622 -0.8088651 0.23817994 0.3958944
-0.1352783 0.17187564 -0.044208225 0.068330586 0.16138943 -0.11891602 -0.16989633 -0.26307812
-0.060611043 0.025047207 -0.17667595 0.00885018 0.3847681 -0.06521352 -0.028997194 -0.07699263
0.12777516 -0.051403094 -0.20904993 -0.5086086 -0.14695454 -0.25249976 0.3239979 -0.21062869
-0.4326435 0.17117384 0.40289652 -0.023711726 -0.13467175 0.053386025 -0.3151852 -0.08009668
0.24060668 0.16590771 0.066724055 0.07892365 0.12432811 -0.020317722 -0.1894553 0.1330648
0.004678063 0.31555358 0.17151158 -0.12905887 0.23402223 0.050001357 -0.2097271 -0.25613838
-0.020310316 0.062734894 -0.014880332 -0.06937953 0.08441187 -0.122460835 0.11999055 -0.08283537
00000000: 7d8d 7dbe 3198 0a3d 8a74 2f3e bce6 3d3d
00000010: b965 aa3c 9bf1 6dbe f4b6 61bc a119 05be
00000020: aa5c be3e a453 fb3d 621a 253c 847a 053e
00000030: 0d2f a33d 0ef9 bebd d11d 97be 5402 bbbe
00000040: 41e2 eb3c de83 e83b 3e97 16bc c55b 273d
00000050: 11d0 a4bd 3600 23bd a4e5 4e3d 0d21 483e
00000060: 7c18 7dbb 1aed c4bd b58f b03e 9ab3 d4bd
00000070: 7fa9 a33e b8fd 863c b1d8 033d f047 453c
00000080: 4fb7 dfbe 0da4 0ebf f202 3dbe 745a bbbd
00000090: 7841 353d 8289 aabe b415 a4be 7e26 ea3c
000000a0: 47e3 68be 78af 41bd 9bc3 80bd a229 9ebd
000000b0: d5e9 cfbd 31f6 96bb 4311 c4be bc2a 173e
000000c0: 7e61 b8be 3e26 2cbd dffb b23d 17b4 95bb
000000d0: cff9 2c3d 5078 903c e62a 77bb 5130 6cbe
000000e0: 7025 adbe 1e4e f53d a120 82bd 5cd4 943d
000000f0: 0026 793e 0d01 94be e465 1abd c375 34be
00000100: 4663 33bd 8375 373f 5af5 4bbe 125c 9dbe
00000110: 6d67 80be 3068 533d 37ac 22be 3ce5 d03c
00000120: 77ec 36bd f17f 243e 477f 87bd 85fa 3dbe
00000130: 0265 69bd 9dad e0bd 29f5 b7bd c643 9e3d
00000140: 6ec8 e6bc f6b2 b63d c03d 273c 8c57 d4bc
00000150: 75c6 eb3c 8897 893b 84b5 fc3d f504 283e
00000160: a79c 13bd efa7 723d 8289 833d fc3e 933c
00000170: 3b38 91bd 800d 9cbe ba76 37bd 4043 613b
00000180: 080d 9f3e 001e 22bd f859 c6bf f803 863e
00000190: 72ab 303e f35a a73c 1a92 073e 9a60 8d3e
000001a0: e777 09be 0a48 a5bd 0ca2 e3bd ddde 9a3e
000001b0: 8004 e6bd b531 55bc 7c75 cb3c 7c13 8f3d
000001c0: 56f7 ccbd e444 81bd 152c f23d f8d3 3e3c
000001d0: a3cb 1d3d 4886 c13d cc15 a0bc 243c a63d
000001e0: 9739 cdbe 97c2 adbd 4413 4f3e 48fe 223d
000001f0: a856 a93d 1eaf cf3d 87f4 513e 0886 f93e
00000200: e07b f23c 6d63 79be 8e05 4c3d 850f 9abf
00000210: 1866 24bd d3b0 d1be cbf8 b73e 6ad2 223d
00000220: 68c4 3fbd 551f 883d 0918 24bd 7263 7f3e
00000230: 8873 b73d 26f2 2b3e e5c1 ce3e 3e15 a73c
00000240: 3940 1c3e 44f3 6a3e fb17 463e f730 6fbe
00000250: 003d 2ebb ac15 8dbd df50 fe3c eb8d 693d
00000260: 6dce 7a3d e18f cb3d b702 9e3e 523d 9e3d
00000270: 3031 f83d 52a8 b2bc 0bc8 953c 3be4 8d3c
00000280: c97f 973e a8fa 813c bc17 27bd 583c 713c
00000290: 8a1b 1fbf a28a 013f 6284 0ebe bfa8 cebe
000002a0: 93e1 e8bc 1835 c23e 6535 ca3e d99c 91be
000002b0: 44cf bf3d 17a2 1fbd a1ab f73d 9bf2 163e
000002c0: 8b20 d9bd a9ae cd3d 9ef7 7dbe 6eea f7bd
000002d0: d11c 933e 3a5b a2bb 6cf5 c43c 6c0f e23d
000002e0: 41a3 ecbd 5cae 043e eaeb 8e3d d5fe fdbd
000002f0: ea77 b6be 9e71 93be 147d 233e 6cfe c83c
00000300: e180 8f3e 5310 ce3e 6c5f 733d 0b1b 77be
00000310: 60b7 00bc c811 4fbf 71e5 733e acb2 ca3e
00000320: 6586 0abe 2b00 303e af13 35bd e8f0 8b3d
00000330: 4543 253e 3e8a f3bd 4ef9 2dbe 2db2 86be
00000340: 4943 78bd cd2f cd3c 8aea 34be 5800 113c
00000350: 5300 c53e aa8e 85bd 868b edbc 50ae 9dbd
00000360: 7ed7 023e 0d8c 52bd 2f11 56be 2c34 02bf
00000370: 407b 16be a647 81be 0ee3 a53e 0caf 57be
00000380: 7383 ddbe 3248 2f3e 7448 ce3e 183f c2bc
00000390: 64e7 09be 4eab 5a3d f45f a1be ba09 a4bd
000003a0: 9961 763e b6e3 293e 9fa6 883d b9a2 a13d
000003b0: bc9f fe3d 5a71 a6bc 9200 42be 2442 083e
000003c0: 704a 993b 3d90 a13e bba0 2f3e 0228 04be
000003d0: 86a3 6f3e 39ce 4c3d b3c2 56be 9224 83be
000003e0: d261 a6bc 277b 803d a3cc 73bc db16 8ebd
000003f0: 21e0 ac3d bfcc fabd 9bbd f53d 97a5 a9bd

fc1.bias f4 [256]
0.056146502 -0.298028 0.42690048 -0.29490244 -0.00033375775 -0.279989 -0.33860922 -0.30210438
-0.13240367 0.12065523 -0.28409955 0.21140605 0.018232888 -0.19872868 0.33456886 0.1607419
-0.19089654 0.22638445 -0.10878574 -0.14632018 -0.1477263 -0.43135282 0.25662026 -0.017620534
-0.007224109 -0.15955758 -0.22268067 -0.002428566 -0.04031764 0.009806016 0.2749274 0.12976442
-0.09949507 -0.18512698 0.109712504 -0.4849543 0.04674199 -0.014691712 0.35138074 -0.36704913
-0.367346 0.13018404 0.22097924 -0.27181828 0.19182992 -0.3591126 0.36669418 -0.010609484
0.3173987 0.22898589 -0.15648812 0.35549057 -0.6831895 0.12108511 0.034804367 0.14897247
0.013731478 0.21070853 0.36687824 0.09706344 0.03007293 -0.59516734 0.18765084 -0.56853354
-0.45782256 -0.1033744 0.2670286 -0.019773396 0.26025885 0.17483976 0.14564392 0.23478551
0.044466924 -0.06048443 0.12396811 0.10113724 -0.03335886 0.15206936 -0.30254972 0.40370482
0.17861348 -0.16713525 -0.04664094 0.073024176 0.27738035 0.05209322 -0.23019727 -0.45504668
0.07846989 0.22830501 -0.11891184 -0.012852135 0.18979679 0.083789624 0.08859667 -0.24931966
0.041654423 0.038451623 -0.20178306 0.15199915 -0.0851611 0.19105685 0.32538134 0.34137645
-0.047262788 0.2154979 -0.35245985 -0.12001547 0.15735419 0.28687096 0.23347509 -0.08925298
-0.28849083 0.0049917316 0.101506874 0.09629832 -0.2535081 -0.08651052 0.14801514 -0.22320046
0.31088373 0.18028696 -0.35969704 0.047813706 0.39340073 -0.064201295 -0.080162264 -0.34066457
-0.24657294 -0.090217665 0.086251415 -0.15394406 0.5470411 -0.004599473 0.070485555 -0.012942931
-0.011720179 0.1418527 -0.060659096 -0.040762864 -0.118907124 0.10305018 -0.15061322 -0.14075425
0.05706227 -0.39309794 0.023451513 0.28434268 0.23025304 -0.48330584 -0.047149975 0.25528517
0.10035927 -0.38651288 -0.043184895 0.048172247 -0.058371972 -0.06754537 0.035514046 0.06566938
0.080137216 0.0449126 0.2822762 0.32758445 0.086690634 -0.2569292 -0.0760079 0.043348048
0.20399526 -0.29297757 0.24384692 0.4916702 -0.054806724 0.0016705925 -0.03750112 0.015320288
-0.5634562 0.21261102 0.16359232 0.009044384 0.23950203 -0.16474375 -0.36155987 0.029470487
0.16296394 0.33063307 -0.04233453 -0.483407 -0.0074198777 0.20643522 -0.4111748 0.16053085
0.1287761 0.032716095 0.16914873 -0.15596648 0.07720625 0.053541042 0.08393621 0.1384925
-0.27704513 0.27348986 0.31349975 0.095993586 -0.009517347 0.12724005 -0.40175453 0.10824135
-0.36863396 -0.06140816 -0.046686348 -0.16522159 -0.40053314 0.16268119 -0.03647022 -0.027979113
-0.12478435 -0.039707255 0.007902906 0.35058704 0.21323982 0.24059227 0.25500107 -0.033211388
-0.041499283 -0.22253266 0.1897667 -0.087175414 0.13633253 0.04388301 -0.21566261 0.031499367
0.11378401 0.20593101 0.13564864 0.211944 -0.34757903 0.017356485 -0.5584377 0.2053921
0.03977456 0.19464843 0.017942188 0.122276045 0.039282303 -0.32580534 0.33014104 0.23591734
0.10486289 0.28012466 -0.17271869 -0.3348946 -0.13858831 0.1674049 0.13047418 -0.22253133
00000000: e0f9 653d 2097 98be b392 da3e 74fd 96be
00000010: 35fc aeb9 b85a 8fbe 305e adbe 6dad 9abe
00000020: d494 07be 171a f73d 7f75 91be d47a 583e
00000030: 235d 953c 887f 4bbe 9c4c ab3e 8699 243e
00000040: 627a 43be 53d1 673e 0fcb debd f5d4 15be
00000050: 9045 17be 47da dcbe bb63 833e f058 90bc
00000060: 38b8 ecbb 1063 23be 6706 64be 9428 1fbb
00000070: 1c24 25bd 6aa9 203c 49c3 8c3e f7e0 043e
00000080: 12c4 cbbd ed91 3dbe f3b0 e03d ee4b f8be
00000090: 8774 3f3d 82b5 70bc 2de8 b33e dded bbbe
000000a0: c614 bcbe f74e 053e 6248 623e c42b 8bbe
000000b0: 106f 443e 9bdd b7be 57bf bb3e 67d3 2dbc
000000c0: 1582 a23e 477b 6a3e 6c3e 20be dc02 b63e
000000d0: 82e5 2ebf 78fb f73d 068f 0e3d 3d8c 183e
000000e0: fef9 603c fac3 573e 77d7 bb3e 32c9 c63d
000000f0: 815b f63c e35c 18bf 8b27 403e 6a8b 11bf
00000100: b867 eabe f5b5 d3bd f9b7 883e d1fb a1bc
00000110: a640 853e 3209 333e ae23 153e 9d6b 703e
00000120: f322 363d 86be 77bd fee2 fd3d 0b21 cf3d
00000130: 4da3 08bd 12b8 1b3e cce7 9abe 66b2 ce3e
00000140: 74e6 363e 8125 2bbe 920a 3fbd b38d 953d
00000150: cc04 8e3e b35f 553d d5b8 6bbe e1fb e8be
00000160: d2b4 a03d cac8 693e 0d88 f3bd c391 52bc
00000170: 175a 423e e599 ab3d 2c72 b53d a74d 7fbe
00000180: d49d 2a3d 737f 1d3d 38a0 4ebe aaa5 1b3e
00000190: f168 aebd 68a4 433e 6298 a63e e5c8 ae3e
000001a0: a096 41bd 7bab 5c3e 9e75 b4be acca f5bd
000001b0: 7521 213e c0e0 923e 1814 6f3e 44ca b6bd
000001c0: 12b5 93be ae91 a33b d6e2 cf3d 0e38 c53d
000001d0: d0cb 81be 6d2c b1bd 4891 173e a98e 64be
000001e0: 272c 9f3e 259d 383e 362a b8be 4ed8 433d
000001f0: d26b c93e f87b 83bd 1d2c a4bd 966b aebe
00000200: 9e7d 7cbe 0ac4 b8bd 95a4 b03d 83a3 1dbe
00000210: e30a 0c3f 2db7 96bb bb5a 903d 960e 54bc
00000220: fe05 40bc d641 113e ac75 78bd f6f6 26bd
00000230: 9485 f3bd f90b d33d 5a3a 1abe e221 10be
00000240: 20ba 693d 2244 c9be 631d c03c 5d95 913e
00000250: 74c7 6b3e dd73 f7be 5520 41bd bdb4 823e
00000260: 2989 cd3d 04e5 c5be a5e2 30bd 4350 453d
00000270: 7317 6fbd 3a55 8abd 2d77 113d ab7d 863d
00000280: fb1e a43d 46f6 373d 8286 903e 26b9 a73e
00000290: dc8a b13d 398c 83be 08aa 9bbd b98d 313d
000002a0: 22e4 503e 2801 96be 02b3 793e 32bc fb3e
000002b0: 047d 60bd c8f7 da3a c69a 19bd f201 7b3c
000002c0: aa3e 10bf b4b6 593e bf84 273e e52e 143c
000002d0: 0540 753e 96b2 28be 601e b9be 176c f13c
000002e0: 05e0 263e bd48 a93e f966 2dbd 1f81 f7be
000002f0: 7222 f3bb c163 533e 8185 d2be 3362 243e
00000300: e2dd 033e 5001 063d 5335 2d3e adb5 1fbe
00000310: 4f1e 9e3d da4d 5b3d bfe6 ab3d fad0 0d3e
00000320: dcd8 8dbe dd06 8c3e 0a83 a03e 4998 c43d
00000330: a6ee 1bbc 374b 023e c5b2 cdbe a4ad dd3d
00000340: 97bd bcbe 1f87 7bbd 2f3a 3fbd d92f 29be
00000350: ae12 cdbe e695 263e cc61 15bd 7434 e5bc
00000360: f08e ffbd 13a4 22bd 317b 013c 2580 b33e
00000370: 8a5b 5a3e d25d 763e 808f 823e aa08 08bd
00000380: 27fb 29bd 9adf 63be 3452 423e 0689 b2bd
00000390: c19a 0b3e acbe 333d a9d6 5cbe 7b05 013d
000003a0: 9707 e93d 94df 523e 7ae7 0a3e d907 593e
000003b0: e1f5 b1be 302f 8e3c c6f5 0ebf 4f52 523e
000003c0: a6ea 223d eb51 473e 7ffb 923c dd6b fa3d
000003d0: 7be6 203d f5cf a6be 3f08 a93e 5194 713e
000003e0: 5bc2 d63d 806c 8f3e 2bdd 30be 4e77 abbe
000003f0: 18ea 0dbe 316c 2b3e 069b 053e 41df 63be

fc2.weight f4 [4, 256]
-0.6764197 -0.34075147 0.0033677253 -0.5942844 -0.6075963 -0.7529053 -0.7832488 0.4259765
0.0341271 0.4953455 -0.21969092 -0.27966678 0.27399382 -0.02863016 0.12923227 0.1648158
-1.0738618 -0.53098255 -0.025067749 0.3494809 0.3417667 -0.7609159 -0.25258654 0.5329342
0.53896254 0.0067898706 0.3868495 0.3802271 -0.20287684 -0.16444714 0.37258857 -0.047885027
0.3864506 0.6766783 -0.5068684 0.61023146 -0.12370199 -0.37105963 0.25165206 -0.36075345
0.40131706 0.14720832 0.05617044 -0.22100693 0.070659846 -0.4589306 0.09684872 0.66197574
0.493042 -0.41780394 -0.48618254 0.023475263 -1.0745399 -0.0023440812 -0.23532254 0.03885536
-0.13941737 0.7158039 0.15380883 -0.115838654 0.32288995 0.9071455 0.4092397 -0.8788305
0.7071733 0.088481106 -0.658764 0.52810055 -0.30605796 -0.21457484 0.19170332 0.21669172
-0.0041329856 0.111385554 0.32337704 0.031469498 -0.118714646 -0.11726331 -0.2670615 -0.14063445
0.29643613 -1.0229301 -0.05382631 0.044851128 0.7730355 -0.67463356 -0.31096736 -0.106709115
-0.39513412 0.07595308 0.5102189 -0.20470406 -0.7013373 -0.010768146 -0.6797211 -1.2741743
-0.076182306 -0.5464183 -0.75288695 0.2048732 -0.41618818 0.6233594 0.39223126 0.23938833
0.37082386 0.033853814 -0.8377895 -0.40570438 0.23407303 0.21965966 0.6315102 -0.072822176
-0.06302613 -0.10106553 0.27718958 0.043194953 -0.2870787 -0.119749114 0.49149498 0.71669555
-0.14460333 0.37457362 -0.30331808 -0.4723631 -0.3893123 0.112191185 -0.14989106 -0.039546646
-0.37101293 0.021646278 0.43814984 0.53004926 -0.20878594 0.43176356 -0.23507474 1.1250864
-0.33980146 -0.23880467 -0.039918512 -0.359345 0.2473017 0.058476407 -0.51780295 -0.43712345
-0.3215484 -1.3060935 -0.6239418 -0.2920713 0.05073738 -0.5482521 0.069130585 0.08716995
-0.21655051 -1.5394208 0.38299516 -0.1569382 -0.27394283 0.12643331 -0.51349497 0.17850026
0.005433504 -0.30580714 0.524949 0.06593452 0.22458912 -0.16961356 -0.40487456 -0.29854187
-0.24215989 0.5540753 0.30693728 0.32646993 0.038901355 0.5222412 0.40925482 0.55075485
0.98565334 -0.2273146 -0.09833283 0.010438212 0.031073723 -0.2184032 0.023187762 -0.23791286
0.38696125 0.30072737 0.036251824 -1.291455 0.10578382 -0.22457153 -1.3218063 0.23648627
-0.08788141 0.47767207 0.16770716 0.010502074 0.050915 -0.11820591 -0.059878375 0.007805506
0.39334437 -0.40583107 0.058731955 -0.16815095 -0.04135133 -0.13982847 -0.069471695 0.32900992
-0.12162718 0.111292325 -0.15903522 -0.94274724 0.45156485 0.8200499 -0.6533737 -0.07803698
-0.08516315 -0.11109746 -0.6144401 0.085758545 0.14502667 -0.5025183 0.13093624 0.22113799
-0.060300253 0.12514406 -0.31421047 0.16393948 0.11607292 -0.3661298 -0.46829662 0.16660371
0.019098349 0.12738839 -0.4569294 0.09040385 0.10061567 -0.05623336 -0.1814838 0.18947174
-0.09042099 0.4635983 -0.24121329 0.22113973 -0.05121384 0.6090248 0.32980907 -0.064885855
0.29439694 0.305517 0.332391 0.703484 -0.3786803 0.34208044 0.23379856 0.20743313
00000000: d729 2dbf fa76 aebe 0eb5 5c3b 0623 18bf
00000010: 6e8b 1bbf 67be 40bf fe82 48bf 9819 da3e
00000020: dcc8 0b3d ed9d fd3e a8f6 60be 7c30 8fbe
00000030: eb48 8c3e cc89 eabc 7755 043e 79c5 283e
00000040: 4e74 89bf 79ee 07bf e15a cdbc 29ef b23e
00000050: 0bfc ae3e 62cb 42bf 0653 81be 606e 083f
00000060: 73f9 093f 907d de3b 2311 c63e 20ad c23e
00000070: f2be 4fbe d564 28be eec3 be3e 1723 44bd
00000080: dadc c53e ca3a 2d3f 21c2 01bf 2138 1c3f
00000090: 7857 fdbd 87fb bdbe 8ad8 803e adb4 b8be
000000a0: 6e79 cd3e c7bd 163e fa12 663d a44f 62be
000000b0: 1cb6 903d f4f8 eabe 9f58 c63d 3e77 293f
000000c0: 0070 fc3e 66ea d5be ebec f8be 324f c03c
000000d0: 868a 89bf 289f 19bb 64f8 70be cc26 1f3d
000000e0: 6dc3 0ebe ed3e 373f 1080 1d3e d13c edbd
000000f0: d551 a53e b03a 683f de87 d13e 09fb 60bf
00000100: 4f09 353f 9535 b53d c2a4 28bf 9931 073f
00000110: a1b3 9cbe 82b9 5bbe e04d 443e 6fe4 5d3e
00000120: ff6d 87bb 1c1e e43d ad91 a53e 29e6 003d
00000130: aa20 f3bd bf27 f0bd 49bc 88be 7a02 10be
00000140: 7ac6 973e 60ef 82bf fa78 5cbd d1b5 373d
00000150: a8e5 453f c9b4 2cbf 1d37 9fbe 4f8a dabd
00000160: 054f cabe 4a8d 9b3d b59d 023f f19d 51be
00000170: d78a 33bf e16c 30bc 3402 2ebf 2518 a3bf
00000180: 7805 9cbd 12e2 0bbf 33bd 40bf 48ca 513e
00000190: 9e16 d5be 7b94 1f3f 89d2 c83e 3722 753e
000001a0: a0dc bd3e 4caa 0a3d 5f79 56bf 7cb8 cfbe
000001b0: d7b0 6f3e 76ee 603e a7aa 213f cb23 95bd
000001c0: d813 81bd 72fb cebd cbeb 8d3e 31ed 303d
000001d0: fbfb 92be 063f f5bd 3ba5 fb3e 5c79 373f
000001e0: e512 14be 1dc8 bf3e 824c 9bbe 94d9 f1be
000001f0: f153 c7be 7ec4 e53d 0b7d 19be aafb 21bd
00000200: 68f5 bdbe 8953 b13c 2d55 e03e 4fb1 073f
00000210: fbcb 55be 1d10 dd3e 6fb7 70be d502 903f
00000220: 75fa adbe 3689 74be 9881 23bd 11fc b7be
00000230: a83c 7d3e f584 6f3d bc8e 04bf a5ce dfbe
00000240: fea1 a4be 122e a7bf a6ba 1fbf 5f8a 95be
00000250: 00d2 4f3d 405a 0cbf 5694 8d3d 2986 b23d
00000260: 6bbf 5dbe be0b c5bf f117 c43e 68b4 20be
00000270: 3c42 8cbe bc77 013e 6874 03bf c6c8 363e
00000280: 890b b23b c192 9cbe 0f63 063f ad08 873d
00000290: b1fa 653e 2daf 2dbe b84b cfbe 7bda 98be
000002a0: c3f8 77be e1d7 0d3f e226 9d3e 1127 a73e
000002b0: 0757 1f3d 99b1 053f d989 d13e 45fe 0c3f
000002c0: c753 7c3f 29c5 68be b962 c9bd 0905 2b3c
000002d0: 528e fe3c 17a5 5fbe 43f4 bd3c 6e9f 73be
000002e0: c91f c63e f0f8 993e cb7c 143d 664e a5bf
000002f0: 30a5 d83d 14f6 65be f330 a9bf 7529 723e
00000300: 2bfb b3bd 6f91 f43e 6dbb 2b3e e410 2c3c
00000310: 3f8c 503d f115 f2bd 0743 75bd 54c5 ff3b
00000320: 6f64 c93e 17c9 cfbe eb90 703d c32f 2cbe
00000330: 0360 29bd 322f 0fbe 2d47 8ebd fd73 a83e
00000340: ac17 f9bd 3bed e33d 21da 22be e257 71bf
00000350: 8233 e73e caee 513f 8043 27bf dad1 9fbd
00000360: 056a aebd 1187 e3bd f24b 1dbf 2da2 af3d
00000370: df81 143e 0aa5 00bf 2614 063e ff71 623e
00000380: 66fd 76bd c425 003e 32e0 a0be c0df 273e
00000390: a4b7 ed3d 5d75 bbbe 93c4 efbe 2a9a 2a3e
000003a0: 2474 9c3c 1a72 023e a6f2 e9be a725 b93d
000003b0: 970f ce3d f454 66bd e4d6 39be e104 423e
000003c0: a42e b9bd c25c ed3e 9e00 77be 7472 623e
000003d0: 9ac5 51bd 0de9 1b3f bcdc a83e e0e2 84bd
000003e0: 32bb 963e b96c 9c3e 272f aa3e 8717 343f
000003f0: 62e2 c1be 2b25 af3e e468 6f3e 5a69 543e

fc2.bias f4 [4]
0.004937542 0.026404813 0.091162264 -0.06626962
00000000: 1bcb a13b e84e d83c 48b3 ba3d 5eb8 87bd
